common/src/main/assets/tcn_models/tcn_20min.tflite (tflite, 214416 bytes, 39 tensors)

arith.constant f4 [64]
000000 27 da d5 bc 89 29 42 bd a7 86 77 3d 2c 83 64 3c
       -0.026105 -0.047402892 0.06043115 0.013947289
000010 93 f0 23 3d c3 31 c2 3b 5f c6 34 3d 81 f0 cb 3d
       0.04002435 0.005926342 0.044134494 0.09957982
000020 ff 89 18 3d 5e 8f e2 3b 38 51 98 3d 7b 87 84 bc
       0.03724098 0.0069140634 0.07437366 -0.016177883
000030 c2 b5 0b bd 42 73 0e 3d 6e 64 3f bd 0f c7 30 3d
       -0.034108885 0.034777887 -0.046726637 0.043158587
000040 b6 25 89 3c 08 02 14 bd b8 39 35 3d 54 a3 60 3d
       0.016741615 -0.03613475 0.044244498 0.05484326
000050 9b f1 ac 3c 7a 33 82 ba 68 d7 25 3c 58 04 85 bd
       0.0211113 -0.0009933554 0.010122158 -0.06494969
000060 22 6f cb 3c fc 09 7e 3c 15 ca c9 bc ec 9b 22 bc
       0.024833266 0.01550531 -0.024632493 -0.00992487
000070 44 9f 0c 3d ab 77 11 3d 92 b6 69 bd e0 37 5f 3c
       0.034331575 0.035514515 -0.05705888 0.0136241615
000080 11 82 34 bd 26 a4 d6 3b e8 27 1a 3d ca d5 67 bd
       -0.044069353 0.0065503297 0.037635714 -0.05660037
000090 8a de 22 bd 9a aa 0c 3d ff c5 b9 3c 8c b1 c5 bc
       -0.03976301 0.034342386 0.02267742 -0.024132513
0000a0 1f 59 2e 3d 7e ce f3 3c 2d 0c 31 3d 50 b6 39 3d
       0.04256546 0.02976155 0.043224502 0.045339882
0000b0 ca 17 d6 bc 5a 27 51 3d d6 c6 70 3c 7b a7 6c 3d
       -0.02613439 0.05106292 0.014695844 0.05777691
0000c0 18 3c 08 bb 02 e9 6c bc f1 c0 87 3c 83 b2 88 3c
       -0.0020787772 -0.01445985 0.016571494 0.016686684
0000d0 53 f7 32 bd 06 ab 43 bd 6b f5 54 3c 9e eb 68 3d
       -0.043692898 -0.047770523 0.012997965 0.056865327
0000e0 25 d9 da 3c 42 31 2c 3d 8b 87 cd 3c 55 56 34 3d
       0.02671487 0.042039163 0.025089046 0.044027645
0000f0 02 67 a5 bc fd 6a 4a bd 88 63 8e bb 61 4e 6a 3b
       -0.02019072 -0.04941844 -0.004345361 0.0035752284

arith.constant1 f4 [32]
000000 f7 50 8b bd 4b 6c 53 bd b7 d0 6a bd 51 50 48 3d
       -0.06802552 -0.051616948 -0.057327952 0.04890472
000010 4b c8 b0 bc 2b 46 ca bc 95 89 84 3d 1d d4 b4 bd
       -0.021579882 -0.024691662 0.06471554 -0.0882952
000020 88 a0 02 3e d2 84 3d 3d 52 23 86 bc 1c 67 71 3c
       0.1275655 0.046269245 -0.016374264 0.014734056
000030 20 47 30 bc 5b 28 03 bd 6d 8e c7 bc cd 3a f7 3c
       -0.010759145 -0.032020908 -0.024359906 0.030179406
000040 69 68 60 bd b5 ae 27 3d b0 f5 b4 3b 74 b8 22 3c
       -0.054787073 0.040938098 0.0055224523 0.009931672
000050 3b 7b 5e bc 6b 75 da 3c ef 64 9f 3c b3 20 9e 3d
       -0.013579185 0.026667317 0.019457309 0.07721081
000060 f6 81 0c bc ce cc 3a bd d9 6d 65 bc 15 32 f8 bd
       -0.008575907 -0.045605473 -0.0140032405 -0.121189274
000070 62 27 3b bd 67 87 5d bd ec ef 22 bc 79 f9 17 bc
       -0.045691855 -0.054084208 -0.009944897 -0.0092757875

arith.constant2 f4 [32]
000000 6f 73 b0 3d b2 04 ad bd 65 fa b4 bd 84 9e 0f be
       0.08615767 -0.08448161 -0.088368215 -0.14025313
000010 89 94 58 3c 49 2f 8e bd a4 bf a2 bd ef 40 a2 3d
       0.013219007 -0.06942613 -0.07946709 0.07922541
000020 e0 a3 4e bd 54 71 f0 bd c3 be f7 bc 1f b7 5d bd
       -0.050449252 -0.117403656 -0.03024233 -0.054129716
000030 a5 68 bd bd 4a 1e 94 3d 9e 2f 30 bc 42 9c 91 bd
       -0.09248475 0.0723234 -0.01075354 -0.07109882
000040 1c 48 b8 3d ae 3b 94 bd 26 eb 48 bb a4 ee 68 bd
       0.08998129 -0.072379455 -0.0030657738 -0.05686821
000050 d6 c4 d3 3c 06 ea b6 3d b8 ac 8b bd db 37 9a bd
       0.025850695 0.08931355 -0.06820053 -0.07530185
000060 60 6c 24 bb 14 37 e8 3d 10 f1 68 3d cb 00 4a bd
       -0.002508901 0.1133863 0.05687052 -0.049317162
000070 e6 78 a8 3a 7f 43 93 3d b3 c7 ef bc 6d bf 81 bd
       0.0012853413 0.07190608 -0.029270029 -0.0633534

arith.constant3 f4 [32]
000000 92 10 f9 3b b6 89 1e bd f6 c2 47 3c 51 d0 10 3d
       0.0076008523 -0.03870555 0.012192478 0.035354916
000010 b3 28 65 bd 03 a7 66 3c bd 79 90 bc 8c 5c 97 bc
       -0.055947017 0.014077905 -0.017636174 -0.018476747
000020 22 63 9d bd 40 5c b8 bd 8b cf 9b bc 38 68 87 3d
       -0.07684924 -0.0900197 -0.019019863 0.06611675
000030 6a c6 1b b9 e7 3d dc 3c 98 84 8f 3d a3 96 8c 3d
       -0.00014855867 0.026884986 0.07007712 0.06864669
000040 4d 30 d3 bc 89 b3 6f 3d b3 4b 88 3d 67 97 3f bd
       -0.025779868 0.058520827 0.066550635 -0.046775248
000050 44 e3 c7 bd a7 fd 0e bd f9 76 be 3d 58 6b 36 bc
       -0.09760144 -0.03490987 0.09300036 -0.011133991
000060 c6 93 76 3c 67 a9 c3 3b b0 86 78 bd 9d 9e 51 bd
       0.01504988 0.005971122 -0.060675323 -0.051176656
000070 e9 af d1 bd 0f b4 f7 bb 9d 0b ff 3c a6 82 1b 3d
       -0.1023863 -0.0075593065 0.031133467 0.037966393

arith.constant4 f4 [271]
000000 88 f8 0f be 68 79 0d be 4d b6 23 be 48 3d 27 be
       -0.14059651 -0.13815844 -0.15987511 -0.1633197
000010 da 19 18 be 89 05 28 be a9 09 1f be 5e 9e 2a be
       -0.14853612 -0.16408361 -0.15531029 -0.16661975
000020 c2 df 17 be 7b b2 15 be 20 e7 1a be e3 de 04 be
       -0.1483145 -0.14618866 -0.1512723 -0.1297565
000030 12 b2 0d be 57 01 0e be b4 f3 16 be ee 64 1a be
       -0.1383746 -0.13867699 -0.14741403 -0.15077564
000040 59 a5 0b be 66 25 11 be 08 5e 04 be 17 2d fa bd
       -0.13637294 -0.14174423 -0.12926495 -0.122156315
000050 69 52 0c be 97 6e 0b be 1a 75 1b be 4e e7 0a be
       -0.13703312 -0.13616405 -0.1518139 -0.13564798
000060 72 85 11 be b1 38 17 be ca af 17 be c5 5b 16 be
       -0.14211062 -0.1476772 -0.14813152 -0.14683445
000070 53 25 1a be ee 99 0e be 1a b9 1c be 05 2b 15 be
       -0.150533 -0.13925907 -0.15304986 -0.14567192
000080 06 42 12 be df 63 07 be df b0 00 be 3f 3d 07 be
       -0.14282998 -0.13221692 -0.12567471 -0.13206957
000090 ec a7 05 be 12 bc d2 bd 1f f2 f1 bd 1f a0 f0 bd
       -0.13052338 -0.10289778 -0.11813759 -0.11749291
0000a0 8b 0d e6 bd a2 9b e7 bd 17 c2 fb bd 06 74 f0 bd
       -0.11233052 -0.113089815 -0.12292879 -0.1174088
0000b0 3d f2 e1 bd 03 fb a9 bd 27 96 a5 bd b1 22 bb bd
       -0.110325314 -0.0829983 -0.0808528 -0.09137476
0000c0 62 a9 b6 bd 84 29 c4 bd fe 8a b5 bd ea fd c7 bd
       -0.08919026 -0.09578231 -0.08864401 -0.09765227
0000d0 e0 54 b2 bd 02 16 b4 bd cc 89 b3 bd aa 46 bb bd
       -0.08707595 -0.0879326 -0.08766517 -0.091443375
0000e0 33 cf ae bd b2 cf 96 bd ee 5c c6 bd bc 39 be bd
       -0.08535614 -0.073638335 -0.09685694 -0.09288356
0000f0 8d 49 a6 bd 08 07 80 bd 6d 1c 95 bd 02 81 80 bd
       -0.081194974 -0.06251341 -0.072808124 -0.06274606
000100 bc 0c 85 bd d3 c2 81 bd e5 0f 65 bd 88 67 3e bd
       -0.064965695 -0.06335988 -0.05592336 -0.046485454
000110 a7 c2 6e bd 66 55 59 bd 0c 2e 67 bd f4 e0 16 bd
       -0.058291104 -0.053059958 -0.056440398 -0.036835626
000120 2b 2c 13 bc 05 78 d0 bc e1 e5 b0 bc 22 0e 03 bd
       -0.008982698 -0.025447855 -0.02159399 -0.0319959
000130 0c e8 aa bb cc 10 7c ba 17 0a 2a ba 9a 12 a9 bc
       -0.0052156504 -0.000961554 -0.0006486489 -0.020638753
000140 09 12 66 3c 07 5a 58 3c 3b d4 74 3c f0 11 dd 3c
       0.014042386 0.013205058 0.014943178 0.026986092
000150 c0 0f 3a bc 18 ef df 3c 1f c4 36 3c 5e 4b 9d 3c
       -0.011356294 0.027335688 0.011155157 0.019200977
000160 3e 12 c7 3c 23 5e da 3c 7f 3a ee 3c 4a 35 19 3d
       0.02430069 0.026656216 0.029080627 0.037404336
000170 c7 33 42 3d 58 06 2d 3d 55 e8 4f 3d 2c a9 86 3d
       0.04741266 0.042242378 0.05075868 0.06575236
000180 da 3b 8e 3d 53 0d 35 3d 35 42 9c 3d b1 0b 78 3d
       0.069450095 0.04420216 0.076298155 0.060558025
000190 fd a8 92 3d 6b d3 99 3d ae 68 ab 3d 0d bd 8e 3d
       0.07161138 0.07511028 0.083695754 0.06969652
0001a0 84 58 a0 3d 53 b1 b4 3d 5e 57 b5 3d 79 6c da 3d
       0.07829383 0.088228844 0.088545546 0.10665221
0001b0 d7 ce da 3d 63 fc d0 3d 20 25 d2 3d 76 bb e9 3d
       0.10683983 0.10204389 0.10260987 0.114127085
0001c0 6d 84 f5 3d d6 40 00 3e 54 fe e8 3d ba 98 f6 3d
       0.11988149 0.12524733 0.11376634 0.12040849
0001d0 86 27 e8 3d f7 b2 ed 3d e4 c5 fd 3d 9d da fb 3d
       0.113356635 0.116064005 0.1239126 0.122975565
0001e0 28 fc f0 3d 81 b1 f9 3d b6 e2 e5 3d 34 f9 d0 3d
       0.11766845 0.12192059 0.11224882 0.10203782
0001f0 3e 0b d7 3d fa 63 c8 3d b6 e5 bd 3d e4 b3 a7 3d
       0.10500191 0.09784694 0.092723295 0.08188608
000200 54 1a 98 3d 58 a5 97 3d d3 18 7a 3d a6 55 4a 3d
       0.07426897 0.07404584 0.06105883 0.049398087
000210 ce 6f 1c 3d 19 ed 1e 3d dc 40 27 3d ed 81 70 3c
       0.038192563 0.038800333 0.04083334 0.014679414
000220 c8 cf eb 3c 96 bb 09 3d d5 9c 0d 3d 04 c6 8a 3c
       0.028785601 0.03362616 0.034573395 0.016940124
000230 76 be 63 3c a4 ce 43 3d 85 a7 08 3d 0f 77 fa 3c
       0.01390039 0.04780449 0.033362884 0.03057435
000240 d7 96 2a 3d 40 a8 5c 3d 2e f4 73 3d f5 28 22 3d
       0.04164776 0.053871393 0.05955904 0.03958984
000250 d1 13 60 3d 91 02 4e 3c 2b 0b 1d 3d 99 3b 81 3d
       0.0547064 0.012573854 0.03834073 0.063101955
000260 7a ee 38 3d 67 63 83 3d 82 59 50 3d 45 4c ea 3c
       0.045149304 0.06415444 0.05086661 0.028600821
000270 4b 90 11 3d 36 b3 17 3d a6 be 6b b9 dd 6b f7 bb
       0.035538 0.037036143 -0.00022482369 -0.0075507
000280 81 89 94 bc cc e3 11 bd 67 1b 16 bd f1 1c c6 ba
       -0.018131973 -0.035617635 -0.036647227 -0.0015114826
000290 0f b8 8c bc 56 af 33 bc 06 6b e3 bc 4b 7f a7 bc
       -0.01717761 -0.010967096 -0.027760994 -0.02044644
0002a0 e6 b8 c0 bc 22 21 a1 bc 0a 14 e9 bc 43 a7 2a bd
       -0.023525666 -0.01966912 -0.028451938 -0.04166342
0002b0 04 8b 78 bd 4d 64 6b bd 92 c5 0d bd 94 44 82 bd
       -0.06067945 -0.0574687 -0.034612246 -0.063607365
0002c0 3a 45 5b bd 1f 4c 95 bd ac 6e 9d bd a5 1d af bd
       -0.053532816 -0.072899096 -0.076871246 -0.08550576
0002d0 11 fd a3 bd 67 00 bd bd ae 52 b4 bd 4a 40 b1 bd
       -0.08007253 -0.09228592 -0.088048324 -0.0865484
0002e0 d4 d7 b0 bd ee 7c a7 bd 93 36 98 bd 7f 21 9d bd
       -0.08634916 -0.08178125 -0.07432284 -0.076724045
0002f0 41 9a 83 bd 28 e1 72 bd f6 e5 5f bd 33 2b 44 bd
       -0.06425906 -0.059296757 -0.054662667 -0.04789276
000300 27 47 03 bd 79 6b 4e bd 07 9d 63 bd 43 19 38 bd
       -0.032050278 -0.050395463 -0.055569675 -0.044945966
000310 e3 bd 66 bd 9e 09 66 bd ca 1f 8b bd 22 22 5c bd
       -0.056333434 -0.056161515 -0.06793173 -0.05374349
000320 ba 5e 98 bd 7a be 76 bd 0b cc 82 bd c5 33 ac bd
       -0.07439943 -0.060240246 -0.06386574 -0.08408312
000330 a9 78 af bd 6e ee bd bd 26 80 ae bd 07 a5 db bd
       -0.08567936 -0.092739925 -0.08520536 -0.10724836
000340 39 bb d3 bd 3d d9 f6 bd 2d c9 e9 bd 1c d0 ec bd
       -0.10338444 -0.12053154 -0.11415324 -0.11563131
000350 76 96 fe bd fa 5b 0f be 94 56 f6 bd 25 c8 f9 bd
       -0.12431042 -0.1399993 -0.12028232 -0.12196378
000360 f9 2d ff bd 4c 9a de bd fc c8 bf bd 30 05 d1 bd
       -0.124599405 -0.108692735 -0.093645066 -0.102060676
000370 c1 4e 01 be 92 04 b6 bd 8d ba ca bd c8 25 d0 bd
       -0.12627698 -0.088875905 -0.09898863 -0.10163456
000380 47 94 d6 bd 71 de f9 bd d8 28 e4 bd 2d 8f de bd
       -0.104775004 -0.122006305 -0.11140603 -0.10867152
000390 30 04 e9 bd 2e aa f4 bd cf 38 e3 bd e0 ea 00 be
       -0.11377752 -0.11946522 -0.1109482 -0.12589598
0003a0 b4 b7 ef bd 76 f7 00 be b3 85 08 be 62 57 02 be
       -0.117049605 -0.12594399 -0.13332252 -0.12728646
0003b0 85 a1 02 be 15 33 f9 bd d1 14 01 be 01 73 04 be
       -0.12756927 -0.12167946 -0.12605597 -0.12934496
0003c0 f2 55 f1 bd f7 68 fb bd 4c 1e 01 be 88 78 16 be
       -0.11783971 -0.1227588 -0.12609214 -0.14694417
0003d0 e2 e3 de bd 3b 78 01 be 64 fa f7 bd e7 ad 07 be
       -0.10883309 -0.1264352 -0.12108305 -0.13249932
0003e0 a4 66 01 be bd ac 11 be 89 71 05 be 49 c3 11 be
       -0.1263681 -0.1422605 -0.13031591 -0.14234652
0003f0 3f 68 0f be da 21 10 be d5 e0 1a be 25 ff 05 be
       -0.1400461 -0.14075413 -0.15124829 -0.13085611

arith.constant9 f4 [32, 1, 3, 32]
000000 e1 7d d4 bd 05 8f a7 bd 56 e9 c0 3d a0 86 ac 3b
       -0.10375572 -0.08181576 0.09419505 0.005265072
000010 11 80 04 be 63 99 04 3e d2 02 f6 3d a5 a5 23 be
       -0.12939478 0.12949137 0.12012257 -0.15981157
000020 46 14 22 be 00 ff 54 3b 4d 69 23 3e 79 c7 2c be
       -0.15828046 0.0032500625 0.15958138 -0.16872968
000030 14 64 f0 bd 7d 76 08 be ba 62 fd 3d 2c 03 3a bd
       -0.117378384 -0.1332645 0.12372346 -0.04541318
000040 97 7f 06 3e e6 bb 92 bd b0 2e 2e bd c4 1e 6f 3d
       0.13134609 -0.07164745 -0.042524993 0.05837895
000050 c2 42 0f be 6e d8 cb 3d 28 a8 ea 3c 93 e0 08 3e
       -0.1399031 0.0995339 0.028644636 0.13366918
000060 c5 2c 22 3e c8 83 f6 bc 78 25 17 be 42 bd e0 3d
       0.1583739 -0.030092135 -0.14760387 0.10973598
000070 d7 db 2e 3e 0c f5 42 bd 7c 8d 26 bd ff 3e 16 3e
       0.1707605 -0.047596976 -0.040662274 0.14672469
000080 d1 2c 86 bd 90 e2 b7 bc 38 91 be bd d0 e8 5f bd
       -0.06551517 -0.0224469 -0.09305042 -0.054665387
000090 a8 a2 4e bd c0 1b 03 3d f3 4a ad bd 70 11 8d 3c
       -0.05044809 0.032008886 -0.08461561 0.017220229
0000a0 18 98 05 be 79 9d 0b 3e 34 fa 2f be 61 31 17 3e
       -0.130463 0.1363429 -0.17185289 0.1476493
0000b0 75 f0 1f 3e 53 1b 02 be 40 8b cd 3c 78 47 2b bd
       0.15619071 -0.12705736 0.025090814 -0.041816205
0000c0 3a 9f 94 bd e0 cb 21 be ce e0 ee 3d 50 3b 51 bc
       -0.072569326 -0.15800428 0.11663972 -0.012770489
0000d0 64 e1 1b bd 27 96 e3 bd 98 58 78 3d de ad 6f bd
       -0.038056746 -0.11112624 0.060631365 -0.058515422
0000e0 d4 90 8f 3d 6f db 00 3e e0 2c 8f bb 16 71 d4 3d
       0.07010046 0.12583707 -0.004369363 0.10373132
0000f0 7b e7 26 3e fd 4e 02 3e a3 e6 1e be 0a c0 af 3d
       0.1629924 0.12725444 -0.15517668 0.085815504
000100 4b a4 a7 3c d8 d0 41 bd 7f c3 15 bd ee 67 88 bc
       0.020464083 -0.04731831 -0.036563393 -0.01665112
000110 77 81 32 3d f4 24 63 3d d6 4a 83 bd 5e aa 54 3d
       0.0435805 0.055455163 -0.06410758 0.051920287
000120 dc ed 1a 3e 0c 97 03 3e 9a c5 b0 3b e6 1c 84 bc
       0.15129799 0.12850589 0.0053946497 -0.016127061
000130 52 82 e8 3d 63 3f 33 3e 46 78 a0 3d 12 36 97 bd
       0.113529816 0.17504649 0.0783544 -0.0738336
000140 6b d4 0a 3e 11 51 a4 3d e7 96 c1 3c dc 7d be 3d
       0.13557594 0.08023275 0.023631526 0.093013495
000150 02 ab d6 3c 46 75 8d 3d 1c fb 56 3d 04 35 b5 3d
       0.02620459 0.06907134 0.05248557 0.088480026
000160 43 c9 16 3e 82 e1 b5 3d ff 5b ca bc 27 78 5a ba
       0.14725213 0.08880903 -0.02470207 -0.0008333944
000170 a5 21 64 bd ba 01 14 be fb c5 4e 3c f9 9d 53 3d
       -0.05569615 -0.14453784 0.012620444 0.051664326
000180 ee 10 a9 3d 1a 50 93 3d 56 89 e8 3d ab 7c 33 3e
       0.08255182 0.071930125 0.1135432 0.17528026
000190 5e cb 8d 3d 2e 2b f3 3d 57 e7 32 3e bb 61 0e be
       0.06923555 0.1187347 0.17471062 -0.13904469
0001a0 1e ae b7 3d ac 27 51 3d 29 24 0b 3e 90 bd 12 3c
       0.08968757 0.051063225 0.13588013 0.008956328
0001b0 76 11 da bd 33 e2 c3 bd 04 86 63 3d 1c 83 03 be
       -0.10647862 -0.095646285 0.05554773 -0.12842983
0001c0 18 bd 66 bd 90 c8 9e bd 6e 1f c0 bd c3 c5 17 3e
       -0.056332678 -0.07753098 -0.09380995 0.14821534
0001d0 b5 65 2d 3e d9 f4 02 3e c2 03 d6 3d 7f 11 a9 bd
       0.1693333 0.12788714 0.104499355 -0.0825529
0001e0 80 7e 1a bb 35 30 34 3e 80 9b 04 be 1b 46 04 3e
       -0.0023573935 0.17596515 -0.12949944 0.12917368
0001f0 2b af 0c be f6 54 db bd 76 8d b5 3d 98 d0 25 bd
       -0.13738696 -0.107095644 0.08864872 -0.040482134
000200 89 54 20 3e 9b f2 31 3e 27 37 03 3e da b4 22 be
       0.15657248 0.17377703 0.12814008 -0.15889302
000210 a0 16 74 bd df 2f 09 be a8 f2 db bc 80 df 82 bc
       -0.05959189 -0.13397168 -0.026849106 -0.015975714
000220 47 dc 0c 3e e3 ab 27 3e 50 00 64 3d c0 45 42 3b
       0.13755904 0.16374163 0.05566436 0.0029643625
000230 18 a3 88 3d 32 30 26 be 32 52 5c bd 7c 9c 79 bd
       0.06671733 -0.16229323 -0.053789325 -0.06094025
000240 e1 e0 11 3e a6 7a b0 3d bc 1e 21 bd 06 c8 df bd
       0.1424594 0.08617143 -0.03933595 -0.10926823
000250 d8 9d e3 3c 6d 96 28 be ed f8 30 3e 2b d5 12 3e
       0.027785227 -0.16463633 0.17282458 0.1433913
000260 99 f1 29 3e 0a 5b b9 bd d6 ac ed bd 04 06 48 bd
       0.16596068 -0.090505674 -0.116052315 -0.048833862
000270 01 ea 20 3e 6f b2 00 3e a5 3b 10 3e 98 6d c3 bd
       0.15714265 0.12568067 0.14085253 -0.09542388
000280 eb 2a 67 be 29 85 47 3e 10 36 88 3e 27 37 bc bd
       -0.22574966 0.1948439 0.26603746 -0.09190207
000290 c2 d5 86 3c 76 fd 3d 3e 88 9e 6f bd f4 da 2f 3d
       0.01645935 0.18553719 -0.058500797 0.04293342
0002a0 64 b6 0b bd 4d f4 8e bc e2 f6 59 bc 62 ae e9 3c
       -0.034109488 -0.017450476 -0.01330349 0.028525535
0002b0 c3 ca 75 be a4 fd 1a be c5 48 f4 bd af d6 e4 bc
       -0.24003129 -0.15135819 -0.11927942 -0.0279344
0002c0 0a 94 ae bd e5 a6 46 be 97 80 bb 3d 86 41 22 be
       -0.0852433 -0.19399603 0.09155386 -0.15845308
0002d0 a1 e2 d2 3d a7 38 f1 3b e4 0d db bb e9 ae e3 3c
       0.10297132 0.00736149 -0.0066850055 0.027793365
0002e0 9c f4 9b bd 26 97 dd 3d 44 be 19 3e 9e ea bf 3d
       -0.07615015 0.10819845 0.15013987 0.093709216
0002f0 a0 49 27 3c 71 be 0a bd 3c bc ea 3d 4f ca 1b 3d
       0.010210425 -0.033873025 0.11461684 0.038034733
000300 c0 e6 9c bc 64 a5 b6 bd 16 93 ab 3d 20 2f 97 3b
       -0.019152999 -0.089182645 0.08377664 0.004613772
000310 4c 3a 77 bd 80 b9 2e bd 7a f5 97 3d c6 7a b0 3d
       -0.06035833 -0.042657375 0.07419868 0.08617167
000320 c2 56 82 3d 44 5e 2d bd 00 41 9b ba 87 74 31 3e
       0.06364204 -0.042326227 -0.0011844933 0.17329608
000330 aa 79 be 3d c3 7b 2f 3e 9f 55 29 3e 19 3a b4 bd
       0.09300549 0.17137055 0.16536568 -0.08800144
000340 ef 1e 16 be 7c a4 99 bd 14 6e 61 3d e4 b1 1c be
       -0.14660238 -0.07502076 0.05503662 -0.15302235
000350 4f 6c f2 bd b2 6d aa 3d 5c 0a 6b 3d 00 78 87 3b
       -0.118370645 0.08321704 0.057382926 0.004134178
000360 a8 f1 ec bc ca c6 eb bd ff 00 a4 bd 00 25 cd 3c
       -0.028923824 -0.115125254 -0.080080025 0.025042057
000370 64 3b 03 bd 90 0c 2a be 68 76 80 3d 67 4e 00 be
       -0.03203906 -0.16606355 0.06272584 -0.12529908
000380 aa 67 a3 3d 56 83 a6 bd 38 cc 89 bc 50 06 61 bd
       0.07978757 -0.08130519 -0.016821012 -0.05493766
000390 24 81 7c 3d 18 44 f1 bc 38 d8 c4 bc 86 b4 ec 3d
       0.061646596 -0.029451415 -0.024028882 0.115578696
0003a0 51 c9 bb bd 93 ab 0a 3e d7 0d 92 bd e1 86 31 be
       -0.091692574 0.13542013 -0.07131546 -0.17336608
0003b0 6d 91 a7 bd a0 ad af bd 85 98 08 3e af f0 b9 bd
       -0.08182035 -0.08578038 0.13339432 -0.0907911
0003c0 de 1e 2d be f3 d9 1a 3e e8 f9 e7 bc 36 25 0f be
       -0.16906306 0.15122204 -0.028317407 -0.13979039
0003d0 2e d4 32 be b2 a6 ba 3d 29 7d 06 3e f9 b5 c5 bd
       -0.17463753 0.09113826 0.13133682 -0.09653849
0003e0 38 ee 97 bc d6 1d 86 bd 00 2c 3b ba 68 78 39 bd
       -0.018546209 -0.065486595 -0.00071400404 -0.045280844
0003f0 a8 c8 19 bd 80 1e 4a 3b 34 81 21 bd f8 00 f3 3c
       -0.037544876 0.0030840933 -0.03942986 0.029663548

arith.constant10 f4 [32, 1, 3, 32]
000000 ca 61 01 be a0 3e e6 3b 4e e3 dc 3d b9 cb 09 3e
       -0.1263496 0.0070265085 0.107855424 0.1345662
000010 9a 49 e8 bd 83 54 15 3e 3d 31 04 3e 60 09 16 be
       -0.113421634 0.1458302 0.12909408 -0.14652014
000020 da 38 a1 bd d4 42 b8 bd d5 5e a6 bd 60 86 9e 3c
       -0.07872172 -0.089971215 -0.081235565 0.019351184
000030 5d 0a 05 3e 18 8a 89 bd dc 3b 11 be b4 6f e3 bd
       0.12992235 -0.067157924 -0.14182991 -0.1110529
000040 90 1e 1c 3d 5a 5f e3 bd cf d5 31 3e df a1 d9 bd
       0.038115084 -0.11102171 0.17366718 -0.106265776
000050 47 9d 00 3e ba bd ef 3d 84 6b 7b 3d cc f8 2f bd
       0.12559997 0.11706109 0.06138183 -0.04296188
000060 46 a6 fe 3d 6f db 23 3e 1a 14 9a 3d 8a 99 ee bd
       0.12434058 0.16001676 0.07523365 -0.11650379
000070 a5 ba 24 3e 64 b0 13 be 59 55 0c 3e f4 58 bb bd
       0.16086824 -0.14422756 0.13704433 -0.09147826
000080 00 13 29 ba 72 50 6d bd 94 05 dd bd 64 bd 41 bd
       -0.00064496696 -0.057938047 -0.107920796 -0.047299758
000090 1c e6 10 bd b3 e2 21 3e 40 df 8f bc 22 c6 ae 3d
       -0.0353757 0.15809135 -0.017562509 0.085338846
0000a0 70 1c 64 3c 84 b4 3c bd 8c 6e 53 bd 25 70 00 3e
       0.013922796 -0.04607059 -0.051619098 0.1254278
0000b0 50 7c 3f 3d d4 11 58 3d c0 eb 4c bc 34 7a 12 be
       0.046749413 0.052751377 -0.012507379 -0.1430443
0000c0 50 c5 7b 3c 1d ec 2c 3e 00 16 34 3b fc e2 5d 3d
       0.015366867 0.16886945 0.0027478933 0.054171547
0000d0 14 b5 3b 3d c0 e8 cb 3b e2 af cf 3d 1a b0 fc 3d
       0.045826986 0.0062228143 0.10140969 0.12338276
0000e0 22 7b f2 bd f3 39 91 bd 52 3a b1 3d 67 d0 02 3e
       -0.11839892 -0.07091131 0.08653702 0.12774812
0000f0 3e fd 03 be 19 94 27 3e 43 a4 02 be a2 b3 af 3d
       -0.12889573 0.16365089 -0.12757973 0.08579184
000100 91 68 19 3e 2a d0 18 3e 45 67 04 3e 0d 4f 9e bc
       0.14981295 0.14923158 0.12930019 -0.019324804
000110 b0 fd bb 3c b3 cf 5b 3e 92 c4 9d bd ce 59 3c 3d
       0.022948116 0.2146595 -0.077035084 0.045984082
000120 62 3b 9b 3d d5 60 20 3e 32 ed 1e 3e 13 86 da 3d
       0.07579686 0.15661938 0.1552017 0.10670104
000130 b5 2a e5 bd 02 ff d3 bd ec 98 1b be 50 ce fc 3c
       -0.11189786 -0.10351373 -0.15195054 0.030860096
000140 8c 54 4d be ba 5a fc 3d 22 55 0c 3d 0e f3 0b 3e
       -0.20051783 0.12321992 0.034260876 0.13666937
000150 21 af 89 3e e5 8b 39 be 18 9b 61 3d 80 05 0c 3e
       0.26891425 -0.18119772 0.05507955 0.13673973
000160 35 63 17 39 c4 80 8e bd 96 0b e9 bd 35 8e 89 bd
       0.0001443744 -0.06958154 -0.11379163 -0.06716577
000170 f0 db 6c be 79 89 cd bc 13 3b 31 be 6c 97 e7 3d
       -0.23130774 -0.025089966 -0.17307691 0.11308178
000180 a9 0c 13 3e ee 91 a0 bd ef 53 33 3e 80 fa b5 bc
       0.14360298 -0.07840334 0.17512487 -0.022214174
000190 0e b4 d9 bd 60 77 d5 3b 69 a8 34 3e f8 37 b1 bc
       -0.10630046 0.0065144747 0.17642368 -0.021633133
0001a0 1d 0b 14 3e d9 f1 c7 bd 18 fd 93 bc 1a cb ca 3d
       0.14457364 -0.09762926 -0.01806502 0.0990202
0001b0 4c 5e 12 be 24 95 89 3d d0 7d 1a bd 58 d3 f3 bd
       -0.14293784 0.067178994 -0.03771764 -0.11905545
0001c0 60 e3 03 3d db 6a 19 3e 7d 72 1f be 10 eb 7d bc
       0.032199264 0.14982168 -0.15571018 -0.015497938
0001d0 f2 36 aa 3d 2c 3c e7 bd a4 3b 56 bd b4 62 65 3d
       0.08311261 -0.11290774 -0.05230297 0.056002334
0001e0 58 69 0a 3d 7f a2 c7 bd 9a a9 ac 3d fa c6 0a be
       0.03379187 -0.097477905 0.084307864 -0.13552466
0001f0 b0 0d 1a 3d 1e 7c b9 3d fc f5 38 3d 55 b7 2c be
       0.03761071 0.090568766 0.045156464 -0.1686681
000200 e6 d1 a8 3d 62 20 22 be f8 ed 00 bd 02 45 24 be
       0.0824316 -0.15832666 -0.031476945 -0.1604195
000210 00 78 29 bc 80 82 0c be ab 09 1e 3e ad 87 b5 bd
       -0.010343552 -0.13721657 0.15433376 -0.08863769
000220 ea 88 f8 bd e6 47 e0 bd b8 e4 3b 3d 39 31 20 3e
       -0.12135489 -0.109512135 0.04587242 0.15643777
000230 e8 87 93 bc 0a a8 f6 bd 1d cd 11 3e bb 51 16 3e
       -0.018009141 -0.1204377 0.14238401 0.14679615
000240 65 d3 00 3e 28 0c 48 3d c0 6c fd bb 75 1b ae bd
       0.1258064 0.048839718 -0.0077339113 -0.08501331
000250 f2 43 25 be 64 3a 45 bd 3a 19 30 be 3c 6e 02 be
       -0.161392 -0.04815139 -0.17197123 -0.12737364
000260 18 82 05 be 80 41 90 ba ba 18 68 bd 84 74 36 3d
       -0.13037908 -0.0011005849 -0.056664206 0.04454471
000270 53 a8 33 3e 51 f6 22 3e ba dd a7 3d 34 70 08 be
       0.1754468 0.15914275 0.08196588 -0.13324052
000280 73 bc b3 bd c8 ba c5 3d 3b 58 0f be bb 4b 0f be
       -0.08776178 0.09654766 -0.13998501 -0.13993733
000290 60 1a d8 3c 4c a5 24 3e 0b 89 3c be fe 36 8b bd
       0.026379764 0.16078681 -0.18411653 -0.06797598
0002a0 dd 48 28 be eb ea 64 3d 9e 16 a2 3d 91 ae bf bc
       -0.16434045 0.055888098 0.0791447 -0.02339867
0002b0 0a fa 68 3d cf 4b 11 bd 64 43 64 3e a7 4b ba 3d
       0.05687908 -0.035472687 0.22291332 0.09096461
0002c0 c7 5d 2a 3e 94 c8 2b 3e 71 d2 f1 3b 3a af b1 bd
       0.16637336 0.16775733 0.007379823 -0.08676
0002d0 ef 72 2a be b2 5f 6b bd 76 88 d6 3c a2 87 f2 3d
       -0.16645406 -0.05746431 0.026188117 0.11842276
0002e0 46 bb ba 3c f4 17 c8 3d 3d 16 32 3e 74 5c 53 3e
       0.022794377 0.09770194 0.17391296 0.20640737
0002f0 c9 f3 3f bb d1 b3 8d 3d 3e 73 94 bb fc d0 fb 3c
       -0.0029289594 0.06919063 -0.0045303395 0.0307393
000300 f6 e5 c6 3d d4 66 5c 3d 9c 56 1a 3d 28 33 2c bd
       0.0971183 0.053809002 0.037680253 -0.042040974
000310 4e 0c df 3d 45 c8 86 bd 30 9f 17 bc ec 5a 08 be
       0.10891019 -0.06581167 -0.009254262 -0.13315934
000320 d9 4f c4 bd 4e 9e f4 3d ec a8 7d 3d e4 46 30 be
       -0.09585542 0.11944257 0.061928675 -0.17214543
000330 a5 db f4 bd dc 67 ac bd 94 5c 8c 3d 08 69 4c 3d
       -0.11955956 -0.08418247 0.068535954 0.049904853
000340 e6 29 f8 bd 08 a4 dc bc 38 86 e3 bd 57 b1 d0 bd
       -0.121173665 -0.026933685 -0.111095846 -0.10190075
000350 6d e0 e6 bd d6 3b c1 3d c0 4d 50 bd a0 99 72 3d
       -0.112732746 0.09435241 -0.0508554 0.05922854
000360 48 17 80 3c 7a 0b d2 3d 27 a2 21 3e 30 af 28 3d
       0.015636101 0.10256095 0.15784512 0.041182697
000370 ab 3e 24 3e f0 a1 87 bc 52 b8 a2 3d 30 e3 be 3c
       0.16039531 -0.01655671 0.079453126 0.02330169
000380 7d 2b 28 3e 1e d5 bf bd e4 01 35 be 77 09 18 be
       0.1642284 -0.09366821 -0.17676502 -0.1484736
000390 d4 82 16 bd 22 28 9f 3d c7 95 ac bd 28 b2 01 bd
       -0.03674586 0.077713266 -0.08427005 -0.031664044
0003a0 30 ea fa bc 1a 65 59 bd e3 7e 32 3e 46 f2 c1 bd
       -0.030629247 -0.053074934 0.17431216 -0.09470038
0003b0 08 70 e7 bc a8 a3 fa 3c 57 a6 0a 3e ea 3e b0 3d
       -0.028251663 0.030595616 0.13540016 0.0860575
0003c0 e0 31 4f bc 40 96 7e 3d be 79 d1 3d 40 ea bb 3b
       -0.0126461685 0.06215501 0.102282986 0.005734712
0003d0 50 2a c9 3c 63 b6 1e be 0f cb a7 bd f2 5a c4 3d
       0.024556309 -0.15499263 -0.08193027 0.09587659
0003e0 fe 50 59 bd 0b 86 06 3e 89 e2 1c 3e 6e 06 a4 3d
       -0.053055756 0.13137071 0.15320791 0.08009039
0003f0 00 48 b6 3c ba 41 09 be 53 de f7 bd a6 80 74 bd
       0.02225113 -0.13403979 -0.12102952 -0.059693

arith.constant11 f4 [32, 1, 3, 32]
000000 a2 c5 88 3d 58 4c 49 bd 34 29 1e bd d6 e1 a7 3d
       0.066783205 -0.049145073 -0.038613513 0.08197372
000010 b7 b0 32 be 57 1f 29 3e 91 bd 2b 3e f6 3c a0 3d
       -0.17450224 0.16515861 0.16771533 0.078241274
000020 80 a5 37 bb c0 0d ea 3b 37 62 32 be ea 0c f2 bd
       -0.002802223 0.0071427524 -0.17420278 -0.118188694
000030 91 26 1e 3e 42 25 8f bd d6 5c 0e be d6 1c da 3d
       0.154444 -0.06989528 -0.13902602 0.10650031
000040 5a d1 ca 3d 76 e0 9b 3d e0 a7 04 be 4e 2c a5 3d
       0.09903212 0.07611172 -0.12954664 0.08065091
000050 08 43 bb bd a0 c5 1d bd a0 23 51 bc cb 5b 0f 3e
       -0.091436446 -0.038518548 -0.012764841 0.1399986
000060 a2 01 f3 3d 58 7d 1e be ff 9a 12 be 47 6d 2d be
       0.11865546 -0.15477502 -0.14316939 -0.16936217
000070 3c a7 38 3d 35 c7 34 3e db bf 2f be 10 f0 a5 3c
       0.045081362 0.17654116 -0.17163031 0.020256072
000080 32 07 32 bd 95 16 f9 3b df 35 dc 3d 67 84 d5 bd
       -0.043463893 0.007601569 0.107524626 -0.10425644
000090 a4 52 82 3e 11 9f 80 3d 81 02 7e 3e 7f 58 10 bd
       0.25453675 0.062803395 0.24805643 -0.035240646
0000a0 9a 85 d5 3d 74 27 1a be 47 b3 98 3e 86 d7 1c be
       0.10425873 -0.15054113 0.29824278 -0.1531659
0000b0 1a fb bb bd 6a 9d 15 3d 68 1d 7f 3d 0b d5 cd 3d
       -0.09178753 0.036527075 0.062283903 0.100504
0000c0 d5 69 27 3e a4 26 0f 3e e9 41 76 bd 2b f9 b7 bd
       0.16348965 0.13979584 -0.06012145 -0.08983072
0000d0 ac 03 cc 3d 4a 40 5d be 10 c3 d4 3d d8 46 1e 3e
       0.09961638 -0.21606556 0.10388768 0.15456712
0000e0 76 f1 10 be 3d 20 da bc e4 3c cf 3d 5e 13 14 be
       -0.1415461 -0.0266267 0.10119036 -0.14460513
0000f0 54 29 33 3e b6 0d 34 be 18 e0 94 3c 09 21 4a bd
       0.17496234 -0.17583355 0.018173262 -0.04934791
000100 2e 72 ad bd 5e bd 28 be b9 d5 c3 bd 2a b4 4f be
       -0.08469044 -0.16478488 -0.09562249 -0.20283571
000110 41 7b 9a 3d 16 53 a4 3d d8 ea ee bd b7 c2 44 3e
       0.0754304 0.0802366 -0.11665887 0.19214903
000120 7b 43 62 3d 1e 66 02 3e 7e f4 6b 3d 36 52 a3 bd
       0.055240136 0.12734267 0.057606213 -0.07974665
000130 74 a3 57 be bf 49 55 bd 2e 59 09 3e b6 8a f5 3c
       -0.21058446 -0.052072283 0.13412926 0.02997337
000140 e1 5e 5a 3c 90 d0 13 be d7 75 4e be 84 76 13 be
       0.013328285 -0.14435029 -0.2016214 -0.14400679
000150 03 38 ea bd 72 e2 3d be 91 7a 72 bd 2d 9a 10 3e
       -0.11436465 -0.18543413 -0.05919892 0.14121313
000160 3c 33 b5 3c 8a a7 13 3e 98 86 27 3e c7 05 b7 bc
       0.022119157 0.1441938 0.16359937 -0.022341622
000170 0c 45 9b bd c7 c5 ac bd 75 88 f1 bd 56 54 9b 3d
       -0.07581529 -0.084361605 -0.11793605 0.07584445
000180 c6 b2 27 be d2 23 5b bd bc ce 2d bd a0 76 d5 3b
       -0.1637679 -0.053500958 -0.042433485 0.0065143853
000190 1e f9 d9 3d 2c 53 15 3d 48 6a ba bc e8 c4 a3 3c
       0.106432185 0.036456272 -0.022755757 0.019991353
0001a0 07 74 25 3e 28 e3 18 be 13 32 23 3e 9c d7 4e 3d
       0.16157542 -0.14930403 0.1593707 0.05049859
0001b0 c8 b6 94 bd c0 81 f9 3c 6e b9 a3 3d a0 29 08 bd
       -0.07261425 0.030457377 0.07994352 -0.03324282
0001c0 98 90 d2 bc b8 2a a7 bd c6 13 f0 bd c1 69 23 3e
       -0.025703713 -0.08162445 -0.117225215 0.1595831
0001d0 88 41 9d bd 14 1f 91 3d 4e 75 19 be 80 7d 37 3d
       -0.07678515 0.07086006 -0.14986154 0.04479742
0001e0 02 82 1e be 08 25 1a be 3a e3 c0 3d 04 06 42 3d
       -0.15479282 -0.15053189 0.0941834 0.04736902
0001f0 34 1b 0a bd 62 ec b8 3d 90 37 0e 3d 0c 9c 07 be
       -0.03371735 0.090294614 0.034720957 -0.13243121
000200 a5 64 2d 3e 41 85 10 3e 4e 7e 88 3c a0 d4 fc 3c
       0.16932924 0.14113332 0.01666179 0.030863106
000210 b6 d8 c1 3d be ff 0e be 7c 78 aa bd b0 ac f1 bd
       0.094651625 -0.13964745 -0.08323762 -0.11800516
000220 d8 ee 76 3b e3 c6 e2 3b d6 26 5e 3b 9d 07 4a bd
       0.0037678983 0.006920682 0.003389766 -0.049323667
000230 32 fb 42 be 91 6f 95 bd ca 96 66 3c 3f 26 ac bc
       -0.19041136 -0.0729667 0.014074037 -0.02101433
000240 90 ca 1d 3e a4 35 9f 3d 48 6f 01 3d f2 cb b4 3d
       0.15409303 0.07773903 0.031600267 0.08827962
000250 c1 c8 5a 3d 95 fa 30 3e bf 4a 85 3d 8a 75 a9 bc
       0.05341411 0.1728309 0.06508397 -0.02068593
000260 c7 ae 49 be 30 5a 43 3e 70 c1 7b be 8d a9 99 bd
       -0.19695579 0.19077373 -0.2458551 -0.07503042
000270 28 db e1 3d 9d c8 a6 bd 20 1b a3 bc 95 1d 43 3e
       0.11028129 -0.08143733 -0.019910395 0.19054253
000280 ea 4c ce bc d6 2e 94 bb eb d7 7b bd ba 69 c0 3d
       -0.02518316 -0.004522185 -0.061485212 0.09395166
000290 60 22 88 bc c9 f7 22 3e 5a 3c 12 3e e1 45 6c 3d
       -0.016617954 0.15914835 0.14280835 0.05768383
0002a0 92 6b 86 bc f3 2e 13 be c2 03 28 be 2a b0 4a be
       -0.016408715 -0.14373378 -0.16407683 -0.19793764
0002b0 ce c4 fe 3d 0a d3 d6 bd fc a4 61 bd 35 99 d6 bc
       0.12439881 -0.10489471 -0.055088982 -0.026196102
0002c0 08 18 13 3e f5 6c 3c 3e 1a 56 5f 38 ee e9 d9 bd
       0.14364636 0.18400939 5.324753e-05 -0.10640322
0002d0 37 ed ba bd c6 35 1b be a5 ea dd bd fa 84 1e 3d
       -0.091272764 -0.15157232 -0.108357705 0.038701035
0002e0 ad 21 81 3d fb d4 73 3e f8 ea 19 3e be 07 00 bd
       0.06305251 0.23811714 0.1503104 -0.031257384
0002f0 17 99 28 bd 0f 48 ae 3d 6d db b3 3d 6e 6f 0e 3d
       -0.041161623 0.08509838 0.087820865 0.034774236
000300 de 85 ef 3d ae e2 bc bd 18 4f 9e bd a6 fe 82 bd
       0.11695455 -0.09222923 -0.0772993 -0.063962266
000310 03 f3 07 3e 32 56 14 be 1a d0 f1 3d d0 ff 6e 3c
       0.13276295 -0.14486006 0.1180727 0.014587358
000320 0e c5 84 bd 38 27 1c bd b5 5a b5 bd c8 e9 a8 3c
       -0.06482898 -0.03812334 -0.088551916 0.020619288
000330 ed 84 0f 3e 00 fd 43 3a 97 b0 30 3e 40 6a a1 bc
       0.14015551 0.00074763596 0.17254864 -0.019703984
000340 3b 6a 9e bd 80 e4 4b bc e6 03 b8 3d f0 46 14 be
       -0.077351056 -0.012444615 0.089851186 -0.14480186
000350 c0 1d 65 3d 97 d3 22 be 60 69 42 3c d1 66 1a be
       0.055936575 -0.15901028 0.011865944 -0.15078284
000360 bb 79 29 3e 33 39 80 bd 80 7e a9 bb 4b 1f 08 be
       0.16550343 -0.0626091 -0.0051725507 -0.13293187
000370 08 e2 2c bd 3f 8b 84 bd f7 0a 21 3e 09 45 28 3e
       -0.042207748 -0.064718716 0.15726839 0.16432585
000380 23 d2 4b bd 5b d4 11 be 27 12 db bd ae a0 a3 3d
       -0.04976095 -0.14241163 -0.10696822 0.079896316
000390 81 5f 6f bd 63 5a 0b bd 2e e4 18 be de 47 45 bb
       -0.05844069 -0.034021746 -0.14930794 -0.003010265
0003a0 02 cc 89 bd fe 56 c1 bd e9 81 7b bc 40 04 44 3e
       -0.067283645 -0.094404206 -0.015350797 0.19142246
0003b0 e5 b5 05 be 50 47 a1 3b 29 a9 f8 bd e6 16 ca 3d
       -0.13057669 0.004921831 -0.1214164 0.09867649
0003c0 83 45 b9 3d 66 d6 2d 3e 24 7d 95 3d e6 70 f6 bb
       0.090464614 0.16976318 0.07299259 -0.0075207828
0003d0 ad 79 09 3d 29 f8 21 be b3 21 18 be 2d 9e 18 3e
       0.033563305 -0.15817322 -0.14856605 0.1490409
0003e0 52 3c 5f 3d 23 af a0 bd b1 3f 46 3e c9 69 37 bb
       0.054500885 -0.07845905 0.19360234 -0.0027986637
0003f0 2a 14 51 be e2 fa b5 bd bd fe 5f bd 37 cf c0 bd
       -0.20417848 -0.08885743 -0.054686297 -0.09414523

arith.constant12 f4 [32, 1, 3, 32]
000000 9d ac 1c 3e 56 82 5d bd 73 4e 1d be 75 ff 14 3e
       0.15300222 -0.054079376 -0.15361957 0.14550574
000010 b0 3e 97 bc f0 a0 ac 3c d1 8e 1b 3e cf b0 18 be
       -0.018462509 0.021072835 0.15191199 -0.14911197
000020 01 ee f9 bd cd de be bd 9c 35 82 bd 54 f0 18 bd
       -0.12203599 -0.093198396 -0.063578814 -0.03733857
000030 c1 06 27 3e b4 92 ce bd fe bf 2c be 3c 6e ae bd
       0.1631117 -0.10086575 -0.16870114 -0.08517119
000040 67 b3 32 3e b1 78 fd bd e0 b8 de 3b c4 db 22 be
       0.17451249 -0.12376536 0.006796941 -0.15904146
000050 74 ff 26 bd dc a3 17 3d 40 96 2d 3d f9 f6 a1 bd
       -0.040770963 0.037021503 0.042379618 -0.079084344
000060 58 93 a4 bd b4 6f 8b 3d 50 80 76 bc 74 c5 2d bd
       -0.08035916 0.06808415 -0.0150452405 -0.042424634
000070 68 e0 79 3d 5c 5a 53 bd 70 d2 7f 3c 57 ff 33 3e
       0.061005026 -0.051599845 0.015614137 0.17577873
000080 ed 83 1c 3e 57 32 66 3d 4f 83 be bd b0 15 a7 bc
       0.152847 0.05620035 -0.09302389 -0.020396084
000090 68 e3 1c 3e d0 09 e7 bd 8b c3 00 bd 84 95 f5 bd
       0.15321124 -0.112811685 -0.031436484 -0.119914085
0000a0 c0 8e 3a 3d 7f d7 58 bd 6d 44 bd bd 20 f5 25 3d
       0.045546293 -0.052939888 -0.09241567 0.040516973
0000b0 32 9d 13 3b 4e 94 36 3e a1 09 0b be 3a 08 6f 3d
       0.0022524116 0.17830011 -0.13577892 0.058357455
0000c0 c6 f6 4c 3d 3c 4f 80 bd 04 9a e9 3d 83 63 47 be
       0.05004003 -0.06265113 0.11406329 -0.19471554
0000d0 c4 fa 06 3e 58 51 61 3d 8f 0e 5f be f7 0c 4d 3e
       0.13181597 0.055009216 -0.21782897 0.20024477
0000e0 e7 53 b1 3d e4 e9 dd bd 71 a8 37 3d d1 f1 20 3e
       0.08658581 -0.10835627 0.044838373 0.15717246
0000f0 07 25 b0 3d 08 50 56 3e 0d 0e 09 3d 5f ce 93 3c
       0.086008124 0.20928967 0.033460665 0.018042741
000100 07 67 40 bd 99 bd e0 3d e4 fd 1b 3e a3 a5 fb bd
       -0.046973255 0.10973663 0.1523357 -0.12287452
000110 eb 99 b3 3d e8 8c 99 3d f5 ba 78 bd d5 48 96 3d
       0.08769592 0.07497579 -0.06072517 0.0733811
000120 25 05 1c 3e fb ba 2b bc 67 98 31 3e 91 0c f7 3d
       0.15236337 -0.010481591 0.17343293 0.12062944
000130 92 bb 9f 3d a3 be 7d 3c 24 49 e8 bd 24 70 26 3e
       0.07799448 0.015487346 -0.113420755 0.16253716
000140 69 f3 ec 3d 2c a2 30 3e 19 67 26 3e 7a b6 8b bc
       0.11569864 0.17249364 0.16250266 -0.017054785
000150 89 ef 46 3d 5f 3d 77 be be ad 48 3e ab cc 94 bc
       0.048568282 -0.24144505 0.19597527 -0.018164
000160 34 fd 0a be b6 44 98 3d 87 ae e9 3d 20 05 a0 bd
       -0.13573152 0.074349806 0.114102416 -0.078134775
000170 fb 33 19 bd c8 56 3f be e6 d7 0f be 07 25 d8 3c
       -0.037403088 -0.18685448 -0.14047202 0.026384844
000180 d0 c4 89 3c 45 4e 93 bd 80 1c 7c 3d 81 2b 8c bd
       0.01681748 -0.07192663 0.061550617 -0.06844235
000190 7a e4 7e bd 7f 7c d6 bd 47 91 a6 bd 6a ab c0 3d
       -0.06222961 -0.104729645 -0.08133178 0.09407695
0001a0 90 43 4d bc a0 b1 40 3d 2f 8c f4 bd 59 3a 02 3e
       -0.012528315 0.047044396 -0.119408004 0.1271757
0001b0 ec 6f 3c bd b6 b2 be 3d 68 aa 35 3d cd 77 0a 3e
       -0.046005175 0.0931143 0.044351965 0.13522263
0001c0 b8 cd 32 bd 68 3c 0d bd 63 39 02 3e d3 83 ed bd
       -0.04365322 -0.034481436 0.12717204 -0.11597409
0001d0 0c f3 4b bd 95 04 14 be 30 67 a5 bd 0c d1 3b 3d
       -0.049792334 -0.14454873 -0.08076322 0.04585366
0001e0 7a c0 e4 3d d0 9f 8e bc 39 15 1a 3e 2a 11 d2 3d
       0.111695245 -0.017410189 0.15047158 0.1025718
0001f0 28 f9 3c bd 05 27 a5 bd e4 80 b1 bd 30 ef 06 bd
       -0.04613605 -0.08064083 -0.08667162 -0.03294295
000200 19 fb 38 3e 1e 72 88 bd db d1 09 3c fa be f6 3d
       0.18064536 -0.06662391 0.00841185 0.12048145
000210 31 09 f3 bd e1 d0 d5 bc 49 b6 29 bd e3 9b fe bd
       -0.118669875 -0.026100578 -0.041433606 -0.12432077
000220 68 60 03 3e 33 52 12 3d 72 30 da bd 9b 4c 6e bd
       0.12829745 0.035722923 -0.106537715 -0.058178525
000230 2d 00 34 3e d6 65 97 bd 95 d8 20 be 04 72 18 be
       0.17578192 -0.073924705 -0.1570762 -0.14887244
000240 dc 24 1a 3e 31 71 bc bd ce d6 a6 3c 25 b8 9f bc
       0.15053123 -0.09201277 0.020366099 -0.019496987
000250 ec 03 0c bd 32 d2 37 3e d1 45 0e 3e c8 a3 2a 3c
       -0.034183428 0.17951277 0.1389382 0.010415025
000260 c9 2f 55 be 91 5d c0 3d 20 cd 3f 3e 9d de fd 3c
       -0.2081901 0.093928464 0.18730593 0.03098994
000270 11 2e b1 bd 88 66 0a be 4d 44 6b be 99 d0 ed bc
       -0.086513646 -0.13515675 -0.22975273 -0.029030131
000280 10 c2 c4 3c 6b ed ab bd 61 e5 4a 3e 49 5a 10 3e
       0.024018317 -0.08394893 0.19814064 0.14096941
000290 80 16 5e bd 3e bc 07 3a 97 10 ce 3d 4b ca 16 3e
       -0.054220676 0.00051778916 0.10061758 0.14725606
0002a0 a0 37 45 be 5e 14 0b 3e 7c bc f2 bb f9 62 c5 bd
       -0.192595 0.13581988 -0.007407723 -0.09638018
0002b0 60 66 27 3e c1 50 2b be 43 b3 12 3e cd d8 23 3e
       0.16347647 -0.16730024 0.14326195 0.16000672
0002c0 8c 96 27 be 99 51 16 3e e3 e0 5b bd 98 b7 19 bd
       -0.16366023 0.14679565 -0.053681266 -0.037528604
0002d0 29 1f 67 3d 91 13 d0 3d ac d0 dc bd 1d 99 08 3c
       0.0564262 0.10159982 -0.107819885 0.008337286
0002e0 27 2b cf bc 60 c6 db bd 2a 8f db bd 39 e0 75 3d
       -0.025289131 -0.107311964 -0.10720666 0.06002829
0002f0 38 fe 5f be e0 8a 2f be 20 fd ab 3d 61 44 b8 bd
       -0.2187432 -0.1714282 0.08397889 -0.08997417
000300 66 2b 22 be 06 b7 db 3d ca 43 f5 3d d8 41 a5 bd
       -0.15836868 0.10728268 0.1197582 -0.08069199
000310 05 3a cb bd ad 83 b5 bd bc db c1 bd b8 f7 14 3d
       -0.09923176 -0.08863006 -0.09465739 0.036369056
000320 00 ca 4b 3c b4 dd 1a 3d 18 c3 81 3c 20 85 04 3d
       0.012438297 0.03780909 0.015840098 0.03235352
000330 46 3f 89 bd e4 67 69 bd d8 47 98 bc 98 85 fe bc
       -0.067015216 -0.056983843 -0.018588945 -0.031069562
000340 60 25 74 bc 98 fe 90 bc b6 73 f9 3d b0 6e 35 bc
       -0.014901489 -0.017699525 0.12180273 -0.011073753
000350 52 a9 95 bd 0c 70 21 bd 27 33 18 be 0c d1 01 bd
       -0.07307686 -0.039413497 -0.14863263 -0.031693503
000360 48 23 2e 3d 18 a7 28 bd 6e 02 de 3d fc 52 37 bd
       0.042514116 -0.041174978 0.10840307 -0.044756874
000370 80 8d 49 3d 95 57 2e 3e 00 50 71 b8 a3 74 14 3e
       0.04920721 0.17025597 -5.7533383e-05 0.14497618
000380 f9 8d 8a bd 0f 5b 1c 3e 61 d7 78 3d b6 f9 88 bd
       -0.067653604 0.15269111 0.060752276 -0.066882536
000390 17 d3 ef 3d e0 90 2b bc 5c 86 9c bd 25 0b 13 bd
       0.11710184 -0.010471553 -0.076428145 -0.0358993
0003a0 29 24 91 bd bd a9 2e be 0e 11 a6 bd b8 7c e4 bd
       -0.07086975 -0.17056938 -0.08108722 -0.11156601
0003b0 f5 06 05 3e 69 8c 0d be f9 2e 01 3e 97 56 a6 3d
       0.12990935 -0.13823093 0.12615575 0.081219845
0003c0 3c d9 53 3d 92 61 62 bd 57 33 f6 3d 39 08 c6 3b
       0.051720843 -0.05526883 0.12021511 0.0060434607
0003d0 38 41 4a 3e a4 a7 78 bd 0b 39 97 bd 18 42 a0 3c
       0.19751441 -0.06070675 -0.07383927 0.019562766
0003e0 3d 49 4e bc 7d 96 0e bd 68 71 68 3d 1f 22 62 3d
       -0.012590704 -0.034811486 0.056748778 0.05520832
0003f0 76 e6 3e be be aa 2a be 7f bf 26 be 5c ca cf 3d
       -0.18642601 -0.16666695 -0.16283987 0.10146019

arith.constant13 f4 [32, 1, 3, 32]
000000 e1 d7 b0 3d 72 9a d2 bd c0 a4 53 bd bb 64 2b bc
       0.08634926 -0.10283364 -0.05167079 -0.010461028
000010 99 3c d6 3d 27 92 2a bd 12 b6 de bc e4 54 fb bb
       0.10460777 -0.041643288 -0.027186427 -0.007670032
000020 84 91 09 be dc 32 a1 bc 57 f7 93 3d 20 5a 17 be
       -0.13434416 -0.019677572 0.07224911 -0.14780474
000030 30 e6 1e be 5f 4d 6f 3d 6b b6 ae 3d 1e 11 ad bd
       -0.15517497 0.058423396 0.08530887 -0.084505305
000040 37 b9 3b 3d 49 31 db bd 46 6d 33 3d 68 17 57 bd
       0.04583093 -0.1070276 0.043805383 -0.052512556
000050 c5 14 a2 bd e2 82 4e 3d 5c 39 03 bc 3d 7b a1 bd
       -0.07914118 0.05041779 -0.008009281 -0.07884834
000060 d8 8c 23 3d fc 32 00 3e bd b9 2d 3c 26 b2 bf bd
       0.03992924 0.12519449 0.0106033655 -0.09360151
000070 e5 76 5a be b5 c2 3b bd 74 eb 28 3d de 9d 8a bd
       -0.21334417 -0.045839984 0.04124017 -0.06768392
000080 c7 7f b4 3d 14 78 12 be bb 10 2a 3e f6 76 d5 3d
       0.08813434 -0.14303619 0.16607945 0.104230806
000090 cb a7 10 bd d0 f5 0f bc 6e 49 2b 3d 76 4d be 3d
       -0.03531627 -0.008786634 0.041818075 0.09292118
0000a0 1c e3 5c 3e e2 90 df 3c df ae dc 3d 79 16 a4 3d
       0.2157101 0.027290765 0.107755415 0.08012099
0000b0 9d f5 c3 bd a7 5c 88 3d fd e7 a6 3d 37 ef 46 bd
       -0.095683314 0.06658297 0.08149717 -0.048567977
0000c0 66 f8 cf bd 6c 57 c6 bc cf e2 01 be c2 9c 4d bc
       -0.101548 -0.024211608 -0.12684177 -0.012549581
0000d0 29 f6 ce bd 58 01 a9 bd ec a1 92 3d d0 64 56 3d
       -0.10105545 -0.082522094 0.071597904 0.052342236
0000e0 05 0d cd bd 36 e5 93 bb 10 f8 a5 3d 98 22 46 3e
       -0.10012249 -0.004513408 0.08103955 0.19349134
0000f0 f1 b1 d1 3d 43 01 5d 3e 71 ee fb bc e4 72 15 3e
       0.10239018 0.21582513 -0.030753346 0.14594609
000100 80 a1 de bb eb fc 88 bd f0 23 79 3d c2 43 10 3e
       -0.0067941546 -0.06688865 0.06082529 0.14088348
000110 ef 14 0c be 1b 07 c3 bd 6c 30 15 be 64 62 a4 bd
       -0.1367986 -0.0952284 -0.14569253 -0.08026579
000120 48 cf 16 3e a1 45 1f 3e 93 4e 2d 3e b4 23 ba 3d
       0.14727509 0.15553905 0.16924505 0.09088841
000130 e0 bd a1 3c 98 9f 01 3d 7d 50 83 bd 98 d3 63 bd
       0.01974386 0.03164634 -0.06411836 -0.055621713
000140 3e 2e a6 3c cb c4 d6 bd ff 44 fe 3d 36 13 d8 bd
       0.020285722 -0.10486754 0.12415504 -0.10550539
000150 25 a6 2f 3e 51 ff b3 bd 5a 3f 39 bc 8e cb d2 bd
       0.17153223 -0.08788932 -0.011306608 -0.10292731
000160 0c 18 42 3e 49 a5 62 be ee f8 57 3e 50 cb 5a bc
       0.18954486 -0.22133364 0.21091053 -0.013354138
000170 ad 4a 1d be ce 13 68 3e 2a f0 7f bd d0 06 20 3d
       -0.15360518 0.22663805 -0.062484898 0.039068997
000180 78 12 23 bb e7 96 e8 bd 19 45 43 3d 8f 10 90 bd
       -0.0024882834 -0.11356907 0.04767332 -0.07034408
000190 41 6a 85 3d ea a3 25 3c 52 fd f4 3c e5 39 33 bc
       0.06514407 0.010109881 0.029905949 -0.010939096
0001a0 18 a5 08 3d e1 e5 15 be ae aa 13 3d be bc e9 bc
       0.03336057 -0.14638473 0.036051445 -0.028532382
0001b0 eb db e9 bd c1 9b cd 3d 00 8d 2a 3b bc 21 15 be
       -0.11418899 0.10039473 0.0026023984 -0.1456365
0001c0 1e 36 ab 3c a4 c5 8a 3d 73 f5 66 bd 8a ae 78 3e
       0.020899829 0.06775978 -0.056386422 0.24285331
0001d0 e9 0e 58 3e bf e8 17 be 43 c8 b5 3d f9 bf d1 bd
       0.21099438 -0.1483488 0.088760875 -0.10241694
0001e0 4e 40 aa b9 dc 73 05 bc d7 26 26 be 2b 19 4a 3e
       -0.00032472837 -0.008145299 -0.16225754 0.19736163
0001f0 e5 b2 29 bb bb d1 e2 3c cf 3e 41 3c 16 f1 f5 3c
       -0.0025893983 0.027687898 0.01179476 0.030022185
000200 27 8d 01 3d 0c 10 4e be 28 29 49 3e 81 68 99 bd
       0.031628754 -0.20123309 0.19644606 -0.07490636
000210 58 7a 38 bd 29 ff 86 bc 07 57 c5 3d 2d 98 24 3d
       -0.04503855 -0.016479092 0.0963574 0.04018419
000220 26 cd 27 3e 30 9a 66 3e 49 93 79 ba 97 fd 95 bc
       0.16386852 0.22519755 -0.00095205434 -0.018309398
000230 2c 9d 40 be 13 f1 05 3e 87 bf 3b be 7c 21 1b 3e
       -0.18809956 0.13080244 -0.1833478 0.15149492
000240 20 3f 21 3e c5 62 48 be 87 c9 ce bd 62 0b 1f be
       0.15746737 -0.19568928 -0.10097032 -0.15531686
000250 21 43 fb 3d 91 cf ae bd 7e 09 a6 3d ff e0 9d 3d
       0.12268663 -0.08535684 0.08107279 0.0770893
000260 f3 d6 0c be fa 71 6f 3d 9a 3b 8b bd f3 a3 9d 3c
       -0.13753872 0.058458306 -0.067984775 0.019243216
000270 90 e8 24 be bd 4b f6 3d 13 36 b5 3d 70 a2 f3 bd
       -0.1610434 0.12026165 0.088482045 -0.11896217
000280 3a 45 ec 3d 82 62 b4 bd a5 05 a0 bd f3 5c 04 be
       0.115366414 -0.088078514 -0.078135766 -0.12926082
000290 6e d4 e7 bc 77 65 02 be 3a a2 1d 3d 43 dd 52 bd
       -0.028299537 -0.12734018 0.03848479 -0.051480543
0002a0 b6 7b 1d 3e a6 14 71 bd ae 7c ed bd f0 8e 10 3e
       0.15379223 -0.058857583 -0.115960464 0.14117026
0002b0 76 41 5b bd e9 0a 38 bd 58 49 c4 bc 78 75 90 be
       -0.053529225 -0.04493228 -0.023960754 -0.28214622
0002c0 28 02 ca 3d e1 4c f0 bc 44 19 e9 3d bb 48 14 be
       0.098636925 -0.029333534 0.11381772 -0.1448087
0002d0 7c ce 73 bd 9f 7f ce 3d e9 44 f4 3c 3e c4 db bd
       -0.05952309 0.100829355 0.029818015 -0.107307896
0002e0 39 aa 5e be bc 85 46 be 0c 9e 9d 3d 84 99 8b bc
       -0.21744622 -0.19386953 0.07696161 -0.017040975
0002f0 a1 4d 8c bc b1 2e 44 3e 83 2e 42 be 8c 52 1b bd
       -0.01712686 0.19158436 -0.18963055 -0.03792052
000300 a2 b4 65 bd 42 94 67 3c fd 23 06 be 1a 89 b7 bd
       -0.056080468 0.0141344685 -0.13099666 -0.08961697
000310 3d 35 a4 3c 3a 95 fc 3d 4a 67 0c 3e d6 d8 d9 bd
       0.020044917 0.1233315 0.13711277 -0.10637061
000320 f2 18 70 bd 49 c8 37 bd 42 8c 22 bd 1d dd 8a bd
       -0.05861754 -0.04486874 -0.03968454 -0.06780455
000330 da 0a a5 3c aa 77 0a bc 05 d3 2f be 87 57 b0 bc
       0.020146776 -0.008451382 -0.17170341 -0.021526111
000340 fe 81 08 bc 33 31 75 bd 5c ea 6a bd 19 0b 9c 3d
       -0.008331774 -0.059861373 -0.05735241 0.07619304
000350 f5 d5 2a 3e 0f d1 e4 3d 15 9f 14 3d 2f 92 ed bd
       0.1668318 0.11172687 0.036284525 -0.11600148
000360 2e f8 0c be 65 82 d3 3d 63 6f e8 bb 95 1b b3 bd
       -0.13766548 0.10327605 -0.0070933565 -0.08745495
000370 48 07 d5 3d b0 8f 16 be 1a 05 a4 3d 69 84 d6 3b
       0.104017794 -0.1470325 0.080087855 0.0065465462
000380 57 4b 6f 3d 31 0a 2e 3c 42 5a 9b bc 2b 1b ac 3d
       0.05842146 0.010622547 -0.018963937 0.084036194
000390 dc ba 0a 3e e4 41 15 3e 57 df fd 3d e8 0f 74 3d
       0.13547844 0.14575917 0.12396114 0.059585482
0003a0 af e4 9b 3d 63 a7 37 3e 7e c9 1b 3c 34 78 4c bd
       0.07611977 0.17934947 0.009508489 -0.049919322
0003b0 ec 21 87 bd 0c 5b fd 3d 70 83 1e 3e fc 4d d2 3d
       -0.06598267 0.123708814 0.15479827 0.102687806
0003c0 10 db 32 bd 08 65 7f bb b6 19 f6 3d d9 41 20 3e
       -0.043665946 -0.0038970131 0.12016623 0.15650119
0003d0 00 a8 98 3b 93 9d cf 3d 48 f7 c3 bd 41 34 f0 3c
       0.004658699 0.10137477 -0.095686495 0.029321792
0003e0 da 33 4d bc cb 1a 11 be d6 15 10 3e a0 53 af 3d
       -0.012524569 -0.14170377 0.1407083 0.08560872
0003f0 02 b0 ca bd 15 00 cf bc 8c 99 e1 bc bd 79 d7 3d
       -0.09896852 -0.025268594 -0.027539037 0.105212666
