common/src/main/assets/tcn_models/tcn_10min.tflite (tflite, 188416 bytes, 39 tensors)

arith.constant f4 [64]
000000 92 4b 35 3c 89 78 68 3d 7a c5 63 3d 78 22 fe 3c
       0.011065381 0.056755576 0.05560825 0.031022295
000010 f3 43 89 3d b4 be 60 3d 7a 2f 00 bc 5f 64 ad bc
       0.067024134 0.05486937 -0.007823819 -0.021166025
000020 4b 6c af bc dd 24 3a bd fb 0e 2b 3c fb b2 32 3d
       -0.021413943 -0.04544531 0.010440583 0.04362772
000030 12 4a 6b 3b 76 b0 47 3d 17 34 d5 3b b7 62 64 3c
       0.0035902304 0.04875227 0.0065064537 0.013939551
000040 ea 2e 3f bd 8e 2e 58 bd 01 7b 85 bb 50 58 8f bd
       -0.0466756 -0.052778773 -0.004073501 -0.06999266
000050 27 d9 2f bd 7e 35 b1 3c f2 81 92 bc 4b 89 bf 3c
       -0.042931702 0.021631952 -0.017884228 0.023380896
000060 03 80 ed 3c d7 07 37 bd f0 50 0c bd fe 29 5d 3c
       0.028991705 -0.04468521 -0.034256876 0.013498781
000070 7d 8e e7 b9 b9 18 e2 bc 4f 3a da bb 3e 71 24 bb
       -0.00044165915 -0.02759968 -0.006659783 -0.0025091912
000080 8c e8 4a 3d 1b 2a 04 bd 1f 1c ec 3c 3b fd 5f bc
       0.04953818 -0.032266717 0.028822003 -0.013671215
000090 44 87 62 bb 2b 37 27 3b 96 c9 82 bc 65 4d bb 3c
       -0.0034565488 0.002551506 -0.015965264 0.022864053
0000a0 cb b9 94 bc 27 72 31 3d bb b8 6a bc 2f 06 80 bc
       -0.018155 0.043321755 -0.01432627 -0.015627949
0000b0 9d e2 34 3d bc c2 8c 3d 43 b5 e9 bb 62 45 89 3c
       0.044161428 0.0687308 -0.007132204 0.016756717
0000c0 5e b3 4c bd d5 f9 9c 3c 02 79 85 bc 54 39 33 bc
       -0.049975745 0.019162098 -0.016293053 -0.010938961
0000d0 ec 2f 1d bd e8 58 8a 3d 0e de 07 3c fd 91 cd bc
       -0.03837578 0.06755239 0.008292688 -0.025094027
0000e0 18 96 00 3d 78 39 b3 3b 6a 07 19 bd 53 76 49 bd
       0.03139314 0.0054694973 -0.037360586 -0.04918511
0000f0 b2 e5 a4 3c 12 91 60 3d a6 9e 30 bc 2f c1 df 3c
       0.020129059 0.05482585 -0.010780012 0.027313797

arith.constant1 f4 [32]
000000 ea 04 ee bc dd 57 af ba db 5a e9 ba 60 14 dd bd
       -0.029055078 -0.0013377626 -0.0017803566 -0.10794902
000010 1b 87 3a 3d ef 13 3f 3d ef 70 c9 bd 2e 7a a8 3c
       0.045539003 0.04664987 -0.098359935 0.020566072
000020 57 39 30 3d 9e 25 4c 3d 13 6f 5a bd 48 27 30 3c
       0.043023434 0.049840562 -0.053328585 0.010751553
000030 73 cb 07 3c 72 08 e5 bc d1 c0 f7 bc 7b 68 22 bd
       0.008288252 -0.027958129 -0.03024331 -0.03965042
000040 d3 dd 7f bd eb e4 df bd 09 59 a2 bd 63 9a 27 b8
       -0.062467407 -0.109323345 -0.07927138 -3.9959687e-05
000050 5f ed 0f bd a7 ad 4a 3d 12 d6 60 3c df 72 1d 3c
       -0.035138484 0.049482014 0.013722913 0.009609907
000060 c4 05 4f 3d e9 42 a3 3c cb 2e 8c 3c 1b ab 98 bd
       0.050542608 0.019929366 0.017112156 -0.07454511
000070 eb 33 ca 3c 1f 2f 33 bd 7b 11 3a 3d 5d c4 38 3c
       0.02468296 -0.04374611 0.045426827 0.011277285

arith.constant2 f4 [32]
000000 a6 8d c6 bb d7 ca 68 3d 0e 19 90 3d ff 27 66 bd
       -0.0060593663 0.05683407 0.07036029 -0.056190487
000010 ce 1e 2c 3d c9 0e c9 bc c0 0b b0 3d 3c 47 bf bd
       0.042021565 -0.024543183 0.08595991 -0.09339759
000020 91 0b 56 bd 42 1c f5 bc 7f e0 d1 3d 25 1d 31 bd
       -0.052257124 -0.029920701 0.10247897 -0.043240685
000030 2d 98 fd bc 9c 8d 19 bd d6 e4 ff bb 2f c4 af bd
       -0.030956352 -0.037488565 -0.007809262 -0.08582341
000040 45 84 d6 3c 42 a7 e9 bc a5 6c 9f bd 60 90 94 3d
       0.026186118 -0.028522138 -0.07784394 0.072541
000050 44 3d 80 3d 67 fb ea bd 54 c7 01 bc 3c 22 ce bd
       0.062616855 -0.114737324 -0.007921059 -0.100651234
000060 6d 0e f5 3c 28 37 c4 bc 68 a3 2c bd bb 2f d3 bd
       0.029914105 -0.023952082 -0.042148024 -0.10311838
000070 57 01 33 3d 75 57 a1 3c cb 75 08 bc 88 89 9b 3d
       0.04370245 0.019695023 -0.008328865 0.075945914

arith.constant3 f4 [32]
000000 34 07 e2 bc 9d d7 b5 bd 38 dd 3e bd ae 39 70 3d
       -0.027591325 -0.088790156 -0.04659769 0.058648758
000010 0f a2 d7 3c b0 fa f1 bb 3e cd 8c bd 6c c3 98 bd
       0.026322393 -0.0073846206 -0.06875084 -0.07459149
000020 5a c1 4a bd d2 db 77 bd d5 4a 8f 3c 5a 79 14 bd
       -0.0495008 -0.06051237 0.017491737 -0.036248542
000030 9b 13 51 3d f8 c0 f4 bd 0f 3d 01 bd d1 15 ca 3c
       0.051044088 -0.11950868 -0.03155237 0.024668606
000040 72 70 41 3c 65 0f 21 bd d2 d6 47 3d 58 34 a6 3c
       0.011806594 -0.039321322 0.048788853 0.020288631
000050 0c e9 8b 3d e5 dc 0f bc 50 18 af 3b 53 7b 24 3d
       0.068315595 -0.008780693 0.0053434744 0.040156674
000060 47 74 06 bd 2b 64 18 3d e3 9d 15 bd 57 1b 8e bd
       -0.032825734 0.037204903 -0.036527526 -0.069388084
000070 35 7f 98 bd f5 15 6a 3d 66 f9 17 3d 7c 07 4e bd
       -0.07446138 0.057149846 0.03710308 -0.050300106

arith.constant4 f4 [171]
000000 5f a7 f8 bd 06 fd 03 be b6 9c 02 be 56 03 cf bd
       -0.121412985 -0.1288949 -0.12755093 -0.10108058
000010 c1 a0 d7 bd f0 7f 0b be 86 2b 02 be 31 50 25 be
       -0.10528708 -0.13623023 -0.12711915 -0.16143872
000020 f6 14 1a be b5 ca 26 be 4d c8 21 be 33 53 10 be
       -0.15047058 -0.16288264 -0.15799065 -0.14094238
000030 10 4f 0d be bc 35 16 be a9 42 22 be 68 4a 0e be
       -0.13799691 -0.14668936 -0.15845741 -0.13895571
000040 85 b4 0e be 2e f8 16 be 11 4b 13 be ac 9d 09 be
       -0.1393605 -0.1474311 -0.14384104 -0.13439053
000050 7b 75 f3 bd 45 84 12 be 4b 8a 18 be 42 96 31 be
       -0.11887642 -0.1430827 -0.14896505 -0.17342475
000060 d8 7a 24 be f6 0e 03 be 37 39 24 be a0 9c 06 be
       -0.16062486 -0.12798676 -0.1603745 -0.13145685
000070 12 71 30 be b9 f9 30 be f9 33 23 be ee d9 15 be
       -0.17230633 -0.17282762 -0.15937795 -0.14633915
000080 23 cc 03 be bf b3 16 be a1 27 0e be 59 61 0d be
       -0.1287084 -0.14717005 -0.13882305 -0.13806666
000090 6f cb 10 be 8a c1 ee bd 7d d6 e2 bd 36 f3 e0 bd
       -0.14140104 -0.116580084 -0.11076067 -0.10983889
0000a0 dd 76 db bd f6 cc b7 bd f8 77 f0 bd 1c 0e c0 bd
       -0.10716031 -0.0897464 -0.11741632 -0.09377691
0000b0 b8 85 b0 bd 88 91 b9 bd 29 2d b1 bd 42 f4 52 bd
       -0.08619255 -0.09060961 -0.08651192 -0.051502474
0000c0 2e 6c 96 bd 1f 06 a5 bc 58 88 2b bd db 04 49 bd
       -0.073448524 -0.02014452 -0.041878074 -0.049076896
0000d0 3b 90 ad bc f7 dd 9e bc be 2a 2e bd 44 84 92 3c
       -0.021186939 -0.01939295 -0.04252123 0.017885335
0000e0 53 f8 0c bc 02 ad 7b bc 59 c8 ed 3a 0d 13 38 3c
       -0.008604127 -0.0153610725 0.0018141373 0.011235011
0000f0 d0 04 0d 3c 1d 7d a4 3c f3 72 37 3d 91 7d 46 3d
       0.008607104 0.02007919 0.04478736 0.048459593
000100 4a 6a 75 3d 8e 4f 55 3d e7 be 63 3d 96 6f 73 3d
       0.05991582 0.052077822 0.05560198 0.05943259
000110 0c 29 81 3d 94 43 83 3d a4 8e 7e 3d bb 9c 93 3d
       0.06306657 0.06409374 0.06214775 0.07207628
000120 03 d9 b4 3d ab 3a bd 3d 49 fc d3 3d 67 07 d1 3d
       0.08830454 0.09239706 0.10350854 0.1020649
000130 c0 06 d8 3d 02 03 f3 3d e7 2a f3 3d d6 0f ee 3d
       0.105481625 0.11865808 0.11873417 0.11624114
000140 2b 0b f2 3d 4e d3 ec 3d 5a 96 fd 3d bb b8 d6 3d
       0.11818536 0.11563741 0.12382193 0.10484453
000150 59 64 aa 3d f9 51 bb 3d 3e 87 d1 3d 53 25 c9 3d
       0.08319921 0.091464944 0.102308735 0.09821572
000160 99 bf b6 3d 8e 8b b5 3d e4 57 bd 3d da 61 b4 3d
       0.08923263 0.088645086 0.092452794 0.08807726
000170 6e 5b b4 3d d7 a9 87 3d 09 f7 af 3d 70 35 a1 3d
       0.08806501 0.06624191 0.0859204 0.078715205
000180 dd f5 9d 3d 80 dd 9a 3d 40 52 99 3d fd 2b b0 3d
       0.0771291 0.07561779 0.07486391 0.0860214
000190 42 1b af 3d 3a 29 38 3d 1a f4 eb 3c 0d cc 70 3d
       0.08550121 0.04496119 0.02880292 0.058788348
0001a0 c7 e4 72 3d 01 13 e2 3c eb 15 1b 3d 41 22 04 3c
       0.05930021 0.027596952 0.0378627 0.008064807
0001b0 05 56 01 3d 05 69 06 bc 9c c7 76 bc 6c 95 95 bc
       0.031576175 -0.00820375 -0.015062239 -0.018259726
0001c0 c3 0d 42 bd 16 c4 49 bd 05 79 8b bd c4 15 86 bd
       -0.047376405 -0.049259268 -0.06810192 -0.0654712
0001d0 77 70 90 bd 8e d9 99 bd e8 c1 83 bd 35 84 64 bd
       -0.07052701 -0.075121984 -0.06433469 -0.055790145
0001e0 e6 c2 91 bd 9d 2d b1 bd 42 0c af bd 5e 9c 79 bd
       -0.07117252 -0.08651278 -0.0854726 -0.06094014
0001f0 00 d6 a3 bd 1e d3 8f bd 16 75 b1 bd 02 0c 95 bd
       -0.07999802 -0.07022689 -0.086649105 -0.07277681
000200 b0 7c 94 bd e1 e6 96 bd c9 78 9c bd 0d cd 8d bd
       -0.07250345 -0.073682554 -0.076402254 -0.06923876
000210 f9 78 c2 bd eb 52 ad bd 93 02 a0 bd d0 e8 c5 bd
       -0.0949573 -0.08463081 -0.07812991 -0.09663546
000220 b9 68 03 be 8d b5 00 be 3a c3 08 be 1f 02 13 be
       -0.12832917 -0.12569256 -0.13355723 -0.14356278
000230 a4 14 1b be 11 52 2d be b4 1c 2a be 5c 41 38 be
       -0.15144593 -0.16925837 -0.16612512 -0.17993683
000240 4e e0 1e be da 01 29 be c7 c7 18 be 92 a1 18 be
       -0.15515253 -0.16504613 -0.14919959 -0.14905384
000250 10 18 19 be 69 dd 17 be 6f a2 1a be fa df 19 be
       -0.14950585 -0.14830555 -0.15101026 -0.15026847
000260 43 99 ee bd 49 d0 1c be 0f ec f6 bd ff ad 27 be
       -0.11650326 -0.1531383 -0.12056743 -0.16374968
000270 f1 63 0a be 61 b8 1a be 19 cc 1b be 03 82 11 be
       -0.13514687 -0.15109397 -0.15214576 -0.14209752
000280 15 c5 0c be 1e aa 05 be 91 97 08 be 83 6d 04 be
       -0.13747056 -0.13053176 -0.13339068 -0.129324
000290 74 d3 15 be 19 7a 06 be 4b af f8 bd 4e 1d fd bd
       -0.14631444 -0.13132514 -0.121428095 -0.12359105
0002a0 ef 64 fa bd ee ff d7 bd 10 52 e0 bd
       -0.12226283 -0.105468616 -0.10953152

arith.constant9 f4 [32, 1, 3, 32]
000000 78 43 fe bc e8 23 02 3d 95 94 0b 3e 3b cd 16 3e
       -0.031038031 0.031772524 0.13630898 0.14726727
000010 3f 66 34 be ce 0f 86 3d 74 10 0e bd 10 88 b3 bd
       -0.17617129 0.06545983 -0.03468366 -0.08766186
000020 aa 5f e2 bd 96 e4 e9 bd 5a aa b5 3d d5 2d 26 3e
       -0.11053403 -0.114205524 0.088703826 0.16228421
000030 c0 04 fd bc fa f4 c8 bd 04 07 08 bd b3 6e 13 3e
       -0.030886054 -0.098123506 -0.033209816 0.14397697
000040 be 4c b5 3d fc 76 04 3d fd 05 05 3e 42 da c5 3d
       0.08852528 0.032340035 0.12990566 0.0966077
000050 c2 cf ef 3d e8 60 32 bd 09 a4 ee bd a3 9d 33 3e
       0.117095485 -0.04354945 -0.11652381 0.17540602
000060 4c 19 21 bd e0 0e a6 3b 04 45 0a bd 18 ec 26 bd
       -0.039330766 0.005067691 -0.033757225 -0.0407525
000070 30 c6 c8 3c 94 ca 22 bd fa eb b0 3d 00 2c 09 3c
       0.024508566 -0.039743975 0.08638759 0.008372307
000080 3b 0a 0d be 24 bf 77 3d d9 46 e2 bd af a2 1b be
       -0.13773434 0.06048502 -0.11048669 -0.15198778
000090 b2 a7 82 3d fd e3 ae bd 09 6d a7 bd 8c d7 65 bd
       0.063796416 -0.08539579 -0.08175094 -0.056113765
0000a0 c8 01 bb bd 9c f8 83 bd fc eb 32 3d 34 97 7a bd
       -0.09131199 -0.06443903 0.043682083 -0.061179355
0000b0 96 b8 2b be 72 a4 d6 3d 87 6f c9 bd 13 28 22 be
       -0.16769633 0.10480584 -0.09835725 -0.158356
0000c0 33 72 0f 3e 42 fe a3 3d f0 9f dd bc 58 57 f8 bc
       0.14008407 0.0800748 -0.027053803 -0.030315086
0000d0 d0 ad fd bd 6e 55 c5 bd 81 de 1a be 01 0c 25 3e
       -0.12386668 -0.09635435 -0.15123941 0.1611786
0000e0 4e 2e c8 3d 21 af c4 bd 04 89 99 bd 48 45 0f 3d
       0.09774457 -0.09603716 -0.07496837 0.03497818
0000f0 f0 93 7d bc 72 6f 92 3d d2 c7 d6 3d 80 0c 95 3d
       -0.015477166 0.07150163 0.104873314 0.07277775
000100 bb 5c 33 be dc f6 cf 3c 5d 5a 9b bc 1b 03 57 bd
       -0.17515843 0.025386266 -0.018963987 -0.052493196
000110 22 4a e8 bc 93 34 4e bd 36 4e e8 bd 00 17 da 3d
       -0.028355662 -0.050343107 -0.113430426 0.10648918
000120 ea a9 ed 3c 6f 57 da 3c 03 22 f0 3c 2b e9 30 3d
       0.029011685 0.02665302 0.029313093 0.043191116
000130 de 69 39 3e 45 20 ef 3c 16 56 90 bd 6f 3b 25 be
       0.18106791 0.029190192 -0.070476696 -0.16135953
000140 34 c3 8c 3d ee e0 2d 3e d0 b4 98 3d b7 5d 0a bd
       0.068731695 0.16980335 0.07456362 -0.03378078
000150 5a 78 fe 3b d5 a6 3d 3e 40 6f 65 bd 6c 13 3a be
       0.007765812 0.18520673 -0.0560143 -0.18171471
000160 1b 2d 88 bd eb 7c d3 bc 32 6f ce bc 28 1c b8 3d
       -0.06649228 -0.025816401 -0.025199506 0.089897454
000170 5c db 40 3d ff ad 22 3e 9f 46 4a 3e 69 c5 83 bd
       0.047084197 0.15886687 0.19753502 -0.064341374
000180 22 8d 09 be fe 5d c3 3d 5f 33 1d 3e 36 59 0c be
       -0.13432744 0.09539412 0.15351628 -0.13705906
000190 98 f0 3a bd b4 34 29 3d 81 17 08 3e c2 24 c4 bd
       -0.045639604 0.041310027 0.13290216 -0.095773235
0001a0 7d 92 29 3e 16 e0 e7 3d 34 d2 24 bd 90 37 1e 3d
       0.16559787 0.11322038 -0.040239528 0.038627207
0001b0 00 6a 39 3b a5 40 f2 bd 40 a2 8c bc bb 24 0a be
       0.002829194 -0.11828736 -0.01716721 -0.13490574
0001c0 96 c6 b9 3d 7d df 0d be a4 03 17 bd 80 fa 4d bd
       0.090710804 -0.13854785 -0.036868706 -0.050287724
0001d0 14 c4 2f bd 40 b3 1c be 92 62 fd 3d 0f ae 2b 3e
       -0.042911604 -0.15302753 0.123723164 0.16765617
0001e0 60 e2 88 3d fe ed ef 3d e5 62 22 be 5e 01 d7 bd
       0.066838026 0.11715315 -0.15858038 -0.10498308
0001f0 4a 40 eb 3d 68 d7 4d bd 70 08 32 3d 82 2f 5f bd
       0.114868715 -0.050254256 0.043465078 -0.054488666
000200 c0 f0 02 3d 8e 50 1e be 04 95 2a bd a0 a8 4a 3c
       0.03196788 -0.15460417 -0.04164602 0.012369305
000210 24 2e f8 bd 8c 62 4f 3d a0 ed 1d 3d 2c 3b 15 3d
       -0.121181756 0.05063109 0.038556695 0.036433384
000220 f5 90 a8 bd 57 29 1c 3e 34 9a c0 bd 20 df b4 bc
       -0.08230773 0.15250145 -0.09404412 -0.02207905
000230 2b 33 99 bd b0 cf 43 bc d1 e6 99 bd 8c 39 26 bd
       -0.07480463 -0.011951372 -0.07514728 -0.040582225
000240 d2 9e d8 3d 8d 7e 26 3e 3e 17 b6 3d 6a 69 a9 3d
       0.105771676 0.16259213 0.08891152 0.08272059
000250 4a de c3 bd 80 da 99 3b 00 bc 1e bb b4 d2 1f bd
       -0.09563883 0.0046952367 -0.0024220943 -0.0390193
000260 87 19 23 be a5 c2 19 be 25 12 9f bd d7 e2 24 3e
       -0.15927707 -0.15015657 -0.07767133 0.16102158
000270 97 9a 03 3e 66 0e 17 be f1 60 f8 bd b0 70 af bc
       0.1285194 -0.14751586 -0.12127865 -0.021416038
000280 7d 12 4d 3e 60 68 0a bd 1b cc c0 bd 70 85 27 3d
       0.20026584 -0.033790946 -0.0941393 0.04089874
000290 a4 48 3f 3e ce 11 71 be 8b 67 4d 3e 1c de ef bd
       0.18680054 -0.23541948 0.2005903 -0.11712286
0002a0 c2 a7 eb bd 1c 5c e6 bd 5c 49 b0 3d 0d ec c7 bc
       -0.11506607 -0.11248037 0.08607742 -0.02440455
0002b0 8b c3 6a bc 03 fd f3 3d ba 29 7a be 91 98 d2 bd
       -0.014328848 0.119134925 -0.2442998 -0.10283006
0002c0 b3 6f 75 bd ae 7e 40 be 1d df 66 bc 54 56 b7 3d
       -0.059920978 -0.18798324 -0.01409128 0.08952013
0002d0 fe 5c 2d be a2 a2 48 be 24 4a eb 3c 03 73 22 bd
       -0.16930005 -0.1959329 0.028721876 -0.039660465
0002e0 98 9e c6 bd 5e a5 f1 3c 07 ea 18 3e 33 b4 04 3e
       -0.09698218 0.029497799 0.14933024 0.12959366
0002f0 0e 2f 71 3e 6b 79 2d be de 3e e8 3c 73 cb ab bd
       0.23553106 -0.16940849 0.02835029 -0.08388414
000300 cc c3 75 bd b8 40 ad bd 4c 41 34 bd 68 5d 8f 3c
       -0.06000118 -0.0845961 -0.044007584 0.017500594
000310 cb 98 33 3e d8 d5 ca 3c 98 70 9c 3c 14 ed 36 bd
       0.17538755 0.024760172 0.019096658 -0.04465969
000320 40 d0 74 3b e4 d4 d5 bd 00 eb 99 ba 3a 0b 7c bd
       0.0037355572 -0.10440996 -0.0011743009 -0.061534144
000330 80 30 8c ba 04 72 61 3d 4d 2f 0b 3e cb 52 08 3e
       -0.0010695606 0.055040374 0.13592263 0.13312833
000340 3e 0a c5 3d 7e 6b c4 3d 44 88 6d 3d 81 f0 c2 bd
       0.09621094 0.09590815 0.05799128 -0.09518529
000350 bc df 86 bd 4d 58 20 3e 6c ba 8d 3d bf fe 13 3e
       -0.06585643 0.15658684 0.06920323 0.14452647
000360 a6 26 f1 3d 8a 1f 27 be b5 09 23 3e 35 1c 30 3e
       0.1177495 -0.16320625 0.15921672 0.1719826
000370 8f ca 0e be d0 f0 54 bc 6f 14 1b 3e c2 dd 2c be
       -0.13944457 -0.012996867 0.15144514 -0.16881469
000380 58 63 ec bd 5a af d9 bd ea 71 c2 3d f0 f5 2e bc
       -0.11542386 -0.10629149 0.09494384 -0.010678753
000390 e4 a6 a6 bd 55 e0 22 3e 82 55 9d bd b6 f1 8c 3d
       -0.081373006 0.15905888 -0.07682325 0.0688204
0003a0 b8 b6 f5 bc b3 6c 2e be 3c 78 31 bd 50 6f 61 bd
       -0.029994354 -0.17033653 -0.043327555 -0.055037796
0003b0 e3 38 05 3e 4e c3 ff bd a0 0a 67 3c 40 2c 06 3c
       0.13009982 -0.12488423 0.014101654 0.008189261
0003c0 38 9e 1b be 60 ac f8 3c ae 8d 88 bd b0 2f 93 bd
       -0.15197074 0.030355632 -0.06667648 -0.0718683
0003d0 30 10 55 3d ff 69 0c 3e a9 af dd bd 8f 40 26 3e
       0.05201739 0.1371231 -0.1082452 0.16235565
0003e0 f1 c6 26 3e 80 86 c1 ba 6c 25 24 be 24 42 eb bd
       0.16286828 -0.0014764816 -0.160299 -0.11487225
0003f0 8e e4 c1 bd f6 6e af 3d 89 af 21 3e 7e 1e 93 3d
       -0.094674215 0.08566086 0.15789618 0.0718355

arith.constant10 f4 [32, 1, 3, 32]
000000 8a 2e 1d be d0 cb 75 3c 4e c3 b7 bd c0 82 f8 bb
       -0.15349784 0.015002206 -0.08972798 -0.007583946
000010 22 03 b1 3d 58 d9 8b 3d 40 d6 31 3b 00 00 b1 39
       0.08643176 0.068285644 0.002713576 0.0003376007
000020 6f ab 29 3e 12 c8 9f 3d 9c ac 17 3d 30 7c 18 3c
       0.16569303 0.07801832 0.037029848 0.009306952
000030 4e 22 1e be 75 24 29 be 86 fe a1 3d 46 01 64 bd
       -0.15442774 -0.16517814 0.079098746 -0.055665277
000040 36 53 af 3d fe 01 b8 3d 30 7d 07 be 10 ab 85 bd
       0.08560793 0.08984755 -0.13231349 -0.06526768
000050 1a 7c fc bd d8 65 9e 3c a6 d4 f3 bd 94 39 10 be
       -0.12328358 0.019335672 -0.11905794 -0.14084464
000060 1e da e1 3d 71 3c 34 3e 07 84 1c be 3e ec a3 3d
       0.11027931 0.17601182 -0.1528474 0.08004044
000070 9b 5d 02 3e 40 fe 22 bb a8 0c e2 3c 08 01 31 bd
       0.1273102 -0.0024870783 0.027593926 -0.043213874
000080 a0 72 be 3b 40 12 a3 bc c0 07 f7 bb c6 3d 9d 3d
       0.005812004 -0.019906163 -0.0075387657 0.07677798
000090 2a 8c b5 3d ca ff d0 3d e3 81 0d be 5a 8a f7 3d
       0.08864625 0.10205038 -0.13819079 0.12086935
0000a0 f0 df 81 3d cd c9 13 3e 8b 67 14 be b0 67 b8 3c
       0.06341541 0.1443245 -0.14492624 0.02251038
0000b0 4e 3c af 3d d6 31 16 be 3a cf b9 bd 60 08 89 3c
       0.08556424 -0.14667448 -0.090727285 0.016727626
0000c0 40 e5 c9 bc 25 a6 e0 bd a2 79 e4 3d aa cf 8c bd
       -0.024645448 -0.109691896 0.11156012 -0.06875546
0000d0 62 75 ac bd 86 41 8e 3d 0a 83 ef 3d f8 d4 98 bd
       -0.084208265 0.06946091 0.116949156 -0.074624956
0000e0 56 a8 a8 bd e4 fb 0f 3d a0 51 c3 bb 4a e0 d6 3d
       -0.082352325 0.03515233 -0.005960658 0.104919985
0000f0 52 53 0a be 80 f7 19 be 6e a1 f6 bd 0f a7 29 3e
       -0.13508347 -0.1503582 -0.12042509 0.16567634
000100 79 21 23 3e e0 3c c4 bd d6 b8 31 be 78 91 0e be
       0.15930738 -0.095819235 -0.17355666 -0.1392268
000110 b2 0b 0a 3e fb 67 1f 3e 5c 79 c6 bd 78 54 1c 3e
       0.13481024 0.15567009 -0.09691116 0.15266597
000120 f9 a5 91 3e bf 43 43 be 15 e2 12 3e dc 61 07 3e
       0.2844694 -0.19068812 0.14344056 0.13220924
000130 32 46 b4 bd ff 59 89 3d a9 cb 0b be 4e 35 b5 3c
       -0.08802451 0.067066185 -0.13651909 0.022120144
000140 a8 74 b4 bd 6f 4c 80 be 50 e3 3a be 6c a2 f9 bd
       -0.08811313 -0.25058314 -0.18250775 -0.12189183
000150 2e de f7 3c 23 1b 5c bd 72 ec 03 bd 26 d5 95 3d
       0.03025731 -0.053736817 -0.032207914 0.073160455
000160 39 94 af bd f2 05 ae 3d 36 84 38 3e 5a 93 65 be
       -0.08573193 0.08497228 0.18019184 -0.22419491
000170 f2 af 18 3e 0c cc b9 3d e8 94 3d 3e c2 c1 e6 3c
       0.14910868 0.09072122 0.18513834 0.028168563
000180 39 08 08 3e 63 a8 0a 3e 40 30 49 bc 26 22 ff bd
       0.13284387 0.13540797 -0.01227957 -0.12457685
000190 4c 34 19 3d 85 34 e4 bd ae 3a e4 3d c6 cd f2 3d
       0.03740339 -0.1114283 0.11144005 0.118556544
0001a0 24 19 c7 bd 68 da 1a be 48 6f d2 bd ab d6 cf bd
       -0.09721592 -0.15122378 -0.102751315 -0.101483665
0001b0 58 77 d8 bc 2a 6f a5 3d 78 6e c5 bd 1d bc 02 be
       -0.026424095 0.080778435 -0.09640211 -0.12767072
0001c0 8f 71 33 3e b5 18 1b 3e d2 c0 c1 3d 66 d4 93 bd
       0.17523788 0.15146144 0.09460606 -0.07218246
0001d0 d8 ed 2d bd 0c d1 9a bd 91 70 26 3e f1 0d 31 be
       -0.042463154 -0.07559404 0.16253878 -0.17290474
0001e0 34 02 42 bd a4 26 04 bd bd 93 03 be b6 53 bc bd
       -0.047365382 -0.032263413 -0.12849326 -0.09195654
0001f0 4a 35 e9 bd 78 0e 90 3d ff d7 12 3e e1 0c ba bd
       -0.11387117 0.0703401 0.14340208 -0.09084488
000200 38 7e d9 3c c9 36 23 3e d9 b4 da bd 86 b5 dc 3d
       0.026549444 0.15938868 -0.10679025 0.1077681
000210 4e cf 0d be e0 63 15 3c da 8d 92 3d 07 05 1e 3e
       -0.13848612 0.00911805 0.07155962 0.15431605
000220 28 2d 8b bc dc 91 11 3d 4a c5 fb bd 0d 90 ce bd
       -0.016989306 0.035539493 -0.12293489 -0.10086069
000230 c6 85 e7 3d c2 eb 00 be c6 eb d3 3d 07 59 be bd
       0.11304812 -0.12589934 0.103477046 -0.09294324
000240 a6 7d e7 3d c7 fa 0f 3e 48 e5 b0 bd 30 64 0f bc
       0.113032624 0.14060508 -0.08637482 -0.008751914
000250 71 dd 19 3e 22 b3 f6 3d fe 8a c1 3d 40 14 cf bc
       0.1502588 0.120458856 0.09450339 -0.02527821
000260 20 40 90 3c 8a c5 69 bd 43 b2 19 be d2 b0 87 3d
       0.017608702 -0.057073154 -0.15009408 0.06625523
000270 05 89 07 3e 60 33 c4 bc 06 cf a5 bd aa 55 f6 3d
       0.13235863 -0.023950279 -0.08096127 0.12028058
000280 ce cb ac bb ac 51 bc 3d 1b ad 8d bd d8 36 aa bd
       -0.005273319 0.09195265 -0.06917783 -0.08311242
000290 73 5d 28 3d 8b 3f 0b 3e 7c de 83 3c b3 7d d8 bd
       0.041104745 0.13598458 0.0160973 -0.1057085
0002a0 a5 88 6d bd a9 59 9d bc e8 56 dd 3d d0 2b 90 bd
       -0.057991643 -0.019207792 0.10807592 -0.070396066
0002b0 fa ca 8b bd 58 46 5b bd 90 0a a3 3d a9 1b 11 be
       -0.06825824 -0.053533882 0.07960999 -0.14170708
0002c0 63 06 98 bd f9 74 d5 3d d0 8d c0 3c 30 8c dc bd
       -0.07423093 0.104227014 0.023505121 -0.10768926
0002d0 eb ea 4e 3e c5 55 29 be 9d 9f 12 3d 5f e8 f2 bd
       0.20206802 -0.16536625 0.03579675 -0.118607275
0002e0 42 51 b8 3d 98 52 95 bc 7f a9 13 bd 22 50 15 be
       0.08999874 -0.01822786 -0.036050316 -0.1458135
0002f0 7a 63 33 be 8f dd d9 bd bf d5 bb bd ce da 4d be
       -0.17518416 -0.10637962 -0.09171628 -0.20102999
000300 70 2e 61 bd 78 f8 85 bd 82 66 0d be ac c7 32 be
       -0.054975927 -0.06541532 -0.13808635 -0.17458981
000310 d6 af aa 3d 9a b7 d2 3d 60 bb 23 3c 8b 71 92 bd
       0.08334319 0.102889255 0.009993404 -0.07150563
000320 d8 49 18 be 3b 92 c7 bd b0 df 89 bc 2a d8 a1 3d
       -0.14871919 -0.09744688 -0.016830295 0.07902558
000330 40 ed f3 3b ca dd cd 3d 68 38 6a 3d bb 18 d6 bd
       0.007444054 0.100520685 0.0571827 -0.10453936
000340 ba 13 f5 3d 8e 44 d1 3d 8e 03 bf 3d 88 aa 00 bd
       0.11966653 0.10218154 0.0932685 -0.03141263
000350 98 66 87 3d 28 89 c0 3c e0 01 63 3d 08 f9 e4 3c
       0.06611365 0.023502901 0.05542171 0.027950779
000360 d7 d6 00 3e cc db 2e bd 60 bd c6 3b d2 3a 9c bd
       0.12581955 -0.042690083 0.0060650557 -0.076284066
000370 c8 24 a1 3c 0a a3 10 be ca a2 ec bd 93 e9 85 bd
       0.019670859 -0.14124694 -0.11554487 -0.06538691
000380 00 49 35 3a 02 e6 26 be 46 c7 ca 3d ff 22 f5 bd
       0.000691548 -0.16298679 0.0990129 -0.119695656
000390 62 d3 d2 3d a1 b9 02 3e be ac c9 3d 10 a2 0f 3c
       0.10294224 0.12766124 0.09847401 0.008766666
0003a0 f3 a7 0d be 7e 80 09 be ed a8 0e be 99 c3 90 bd
       -0.13833599 -0.13427922 -0.13931628 -0.07068557
0003b0 26 d4 b7 3d 6e 11 8c 3d eb 73 14 be 5f de 18 be
       0.08976011 0.06839262 -0.14497344 -0.14928578
0003c0 80 5a 48 3c eb 50 e8 bd 7e 57 af bd 72 89 f8 bd
       0.012228608 -0.11343559 -0.0856161 -0.121355906
0003d0 00 d7 ff 3b 36 ce f1 3d d0 ae e7 bd 54 58 ea bd
       0.0078076124 0.1180691 -0.1131264 -0.114426285
0003e0 d0 21 18 bd 8e b8 f0 bd fc a8 12 be 2f c0 16 3e
       -0.03714162 -0.11753951 -0.14322275 0.1472175
0003f0 1c f8 20 bd 2a ee be 3d e0 22 9c 3c 36 d4 61 bd
       -0.039299116 0.0932277 0.019059598 -0.05513402

arith.constant11 f4 [32, 1, 3, 32]
000000 96 d5 c1 3d a9 74 10 3e 41 3a 02 3e 60 cd eb 3b
       0.094645664 0.14107002 0.12717535 0.0071961135
000010 ca 6b f8 bd ae 28 d3 3d 96 37 fa bd 0a 8e a5 3d
       -0.12129934 0.103104934 -0.122176334 0.080837324
000020 74 c3 21 be 98 2b f1 bd 00 ad 01 3a fc 1b 11 be
       -0.15797216 -0.11775893 0.00049467385 -0.14170831
000030 32 d6 b3 3d 03 03 01 3e 54 58 b8 bd 1a 68 ca 3d
       0.08781089 0.12598805 -0.09001222 0.09883137
000040 56 c8 86 bd f0 4f 53 3c 88 d1 cd bc 24 25 3e bd
       -0.0658118 0.012897477 -0.025124326 -0.04642214
000050 20 6d 74 bc 77 1b 0d 3e a3 7a 1e be 43 8b 1b 3e
       -0.014918596 0.13780008 -0.1547647 0.15189843
000060 9c 3d 4f 3d a3 79 e9 bd e2 3b 94 3d 85 ae 27 3e
       0.050595865 -0.114001535 0.07237984 0.16375168
000070 2f 26 0d 3e a8 72 43 3d 0e ab ad 3d 69 01 1d 3e
       0.13784097 0.047716767 0.08479892 0.15332569
000080 e3 d2 cb bd 03 55 be 3d 17 70 03 3e 16 11 48 be
       -0.09952333 0.092935584 0.12835728 -0.19537768
000090 cd fa 1d be 3e dc f5 3d b6 22 fe 3d 10 4c f2 3b
       -0.15427704 0.120048985 0.12408964 0.0073943213
0000a0 eb 3e 1c be 90 4b 8f bd 48 95 0c 3e 88 45 a2 3d
       -0.15258376 -0.06996834 0.13728821 0.07923418
0000b0 1e d7 9c 3c 44 52 35 bc 25 e8 1c be 51 e7 eb 3d
       0.019145545 -0.011066977 -0.15322931 0.115187295
0000c0 24 b9 bc 3d f4 c5 a8 3c 20 7f fa bd df 93 96 3d
       0.09215 0.020602204 -0.122312784 0.07352423
0000d0 8a 53 a4 bd c8 4c 33 3e dc dd a5 3c 40 00 cb bd
       -0.08023746 0.17509758 0.020247392 -0.09912157
0000e0 16 64 49 3e b7 aa ca bd ad af 7c 3c f5 3f 0b bd
       0.19667086 -0.098958425 0.015422744 -0.03399654
0000f0 28 56 e9 bd 5d 65 8a 3d 31 86 c9 b9 9e ee 07 bd
       -0.11393386 0.06757615 -0.00038437688 -0.033186547
000100 8e 05 00 3d cd 2f b0 bd ed df 01 3e 90 09 c5 bb
       0.031255297 -0.08602867 0.12683077 -0.006013103
000110 20 56 bc 3d 9b e5 d6 bd 64 70 19 3d 21 62 21 3e
       0.091961145 -0.104930125 0.0374607 0.1576009
000120 8a fc 42 3e eb 17 61 bc 02 5b 33 3c 2b 1d 96 3c
       0.19041649 -0.013738613 0.010946991 0.018324455
000130 4b 36 e4 3c 0a 0b 05 3e a2 3d 0c 3e 6b c6 3d 3d
       0.02785792 0.12992492 0.13695386 0.046331804
000140 33 3f 40 be 40 cd b2 bd a8 4f c8 3d 13 c1 b4 3c
       -0.18774109 -0.087305546 0.09780818 0.022064721
000150 d3 97 4f be 24 76 1d be 83 bf 38 be b4 e1 a3 bd
       -0.2027276 -0.15377098 -0.18041806 -0.08002034
000160 14 1b 9f bc 08 99 b8 3c b7 0a de bd a2 35 0e 3c
       -0.019422092 0.022533908 -0.108418874 0.008679779
000170 ce 6d f9 3d d2 6a 1e 3d 7f f3 6b ba b5 3b d3 bc
       0.12179147 0.03867609 -0.00090008223 -0.025785306
000180 ca bc dd 3d 46 6a d5 bd 96 4e fc 3d b0 80 82 3c
       0.10827024 -0.10420661 0.123196766 0.015930504
000190 44 17 2e 3d 3d 9e 2a be 38 c5 05 3d 50 79 6d bc
       0.042502657 -0.16661926 0.032658786 -0.014494255
0001a0 00 fb 50 bb 94 01 85 3d 2e 03 ad bd 1a 56 a9 3d
       -0.003188789 0.06494442 -0.08447872 0.08268376
0001b0 40 4b 5d 3b a0 00 25 bc 20 42 80 bb 8e a4 97 3d
       0.0033766776 -0.01007095 -0.0039141327 0.07404433
0001c0 00 53 57 3d f5 de 1e 3e 19 a0 0a be 2c 22 92 3d
       0.05256939 0.15514739 -0.13537635 0.07135424
0001d0 30 3a 19 bc 4d c3 10 3e 56 8d 0a be 1c 1b 2e 3d
       -0.009352252 0.14137001 -0.13530478 0.042506322
0001e0 bc 89 6e 3d 83 f2 ad bd 00 c6 dd bb f4 47 fc bd
       0.058236822 -0.08493521 -0.006767988 -0.123184115
0001f0 3c e9 46 3d d8 ec 85 bd 12 25 9d bd 22 3d e0 3d
       0.048562273 -0.06539315 -0.07673086 0.1094916
000200 92 7a 0e bd f2 9a 23 3d b7 5b 8a bd c0 14 6d be
       -0.03478486 0.03994269 -0.067557745 -0.23152447
000210 84 f9 12 be 79 a9 fc bd 38 bf fc bb c8 4c 51 3d
       -0.14352995 -0.12337012 -0.0077132247 0.051098615
000220 c4 22 c1 bd 1c 88 5b be 5b 25 62 3e bc 87 13 3d
       -0.09430459 -0.2143864 0.22084562 0.03601812
000230 3a ac 8d bd f8 6e a1 3d af 15 a4 3d 7f db fd 3d
       -0.06917615 0.07882494 0.08011948 0.12395381
000240 95 1c c8 3d 9a 7a 51 be cc 7c 0a 3b 52 ea 3a bd
       0.097710766 -0.20456925 0.0021131514 -0.04563362
000250 cc 95 74 bd b3 19 c9 3d 11 0b d8 bd 9c 42 29 bd
       -0.05971317 0.09819355 -0.10548986 -0.04132329
000260 c6 df 89 bd 0b 77 ac bd c9 ac 72 be 4c f4 6c 3c
       -0.067321345 -0.08421143 -0.23698725 0.014462542
000270 d5 59 e4 3d 6c 67 36 3d 10 14 02 3e 63 e5 45 be
       0.111499466 0.044532225 0.12702966 -0.19325785
000280 d5 0d fb bd 88 5e 80 be 26 f4 d4 bd 8a 48 47 3b
       -0.122584976 -0.25072122 -0.1039813 0.0030408227
000290 d6 16 af 3b 34 54 9c be bb 53 24 bc 6f 75 bf 3d
       0.0053432984 -0.30532992 -0.0100297285 0.093485706
0002a0 f7 df c3 bd 7b ce 7a be 9d d2 6c be d2 0b d6 3d
       -0.09564202 -0.24492829 -0.23127218 0.10451473
0002b0 ce a8 91 bb 67 c2 24 be c5 18 cc bd e4 7e b3 3c
       -0.004445172 -0.16089784 -0.09965662 0.021911092
0002c0 ce 94 81 be 7c a4 39 bb d9 9f 81 be ba 88 04 3e
       -0.2530884 -0.00283268 -0.25317267 0.12942782
0002d0 33 0d 0c 3e 22 7b 04 bd ad 17 3b 3d e0 91 f7 3d
       0.1367691 -0.03234399 0.045676876 0.1208837
0002e0 10 e1 de 3d 1f 4a 3f 3d 4e ee 94 3e 4d 62 a7 bd
       0.10882771 0.046701547 0.29088062 -0.08173046
0002f0 a5 99 8d bd 07 de 81 bd 59 96 a2 3e f4 25 c7 bd
       -0.06914071 -0.063411765 0.3175533 -0.09724036
000300 15 11 17 3e 79 49 1c 3e 99 9e 2e 3e 9d 74 16 3e
       0.1475261 0.15262403 0.17052688 0.14692922
000310 b8 4d 7b 3d a8 0c fb 3c 32 80 f2 3d 20 44 49 bd
       0.061353415 0.030645683 0.118408576 -0.049137235
000320 77 e4 30 3e 10 8b 8a 3c 60 33 81 3c fa f1 a2 3d
       0.17274652 0.016912013 0.015771568 0.079563096
000330 80 e8 97 bc e1 e0 ba bd c0 75 8e bb 1f 69 0c 3e
       -0.018543482 -0.091249235 -0.004347533 0.13711976
000340 39 39 30 3e 19 ce 01 3e 90 61 70 bc 2e 8c cc 3d
       0.17209329 0.12676276 -0.014671698 0.09987675
000350 cc d2 4c 3d 17 e1 29 3e a0 62 fb bd 64 27 bf bd
       0.05000572 0.16589771 -0.122746706 -0.09333685
000360 6c a0 01 be 5e f3 ea 3d 3e 2e e8 3d f8 63 13 3d
       -0.12658852 0.114722 0.11336945 0.03598401
000370 e0 16 61 3d fd f1 32 be 96 44 b0 3d 04 5b 46 3d
       0.054953456 -0.17475124 0.08606832 0.048426643
000380 38 e7 2e be ca fc b6 bd 2f b4 b9 bd 7b f8 f8 bc
       -0.1708039 -0.089349344 -0.090675704 -0.030391922
000390 d8 e2 a4 bd 7b 41 39 3c 71 58 34 3c b3 85 90 bd
       -0.080510795 0.011307116 0.011007414 -0.07056751
0003a0 24 7a 48 3e 97 21 dc 3d 49 ba 9c 3d 01 b3 2a be
       0.19577843 0.10748594 0.076527186 -0.16669847
0003b0 a1 cc d5 3d 6b 35 21 3a 14 06 23 bd 4e 0a 74 bd
       0.104394205 0.00061496225 -0.03980072 -0.05958014
0003c0 7e 22 54 3d ab 78 13 bc 92 c0 98 bd be a2 e6 3d
       0.051790707 -0.009000937 -0.07458605 0.11261509
0003d0 c1 bf 80 3d 46 27 9c bd 61 72 03 bc 64 b7 09 be
       0.06286574 -0.07624678 -0.0080228755 -0.13448864
0003e0 78 23 6f 3c 7b f7 99 bd dd 70 c2 3d c7 c0 17 3d
       0.014595859 -0.07517906 0.09494183 0.03704908
0003f0 e3 8a af 3d 78 1c 47 3e d6 86 4c 3d 17 14 46 3e
       0.085714124 0.19444454 0.049933277 0.19343601

arith.constant12 f4 [32, 1, 3, 32]
000000 b7 3e 30 3e d3 f5 02 3e ca aa 28 be e8 e0 f4 3c
       0.17211424 0.12789087 -0.16471401 0.0298924
000010 26 82 b0 3d c8 3b e8 bc 50 9c be bd bf 43 0e 3e
       0.08618574 -0.028348818 -0.09307158 0.1389303
000020 b7 f7 14 3e b4 f3 72 3d 40 5c eb bb 3e 41 5d bd
       0.1454762 0.059314445 -0.007182628 -0.054017298
000030 3e 27 2f be ed b8 31 3e 48 82 7c 3d 48 2e cc bd
       -0.17104813 0.173557 0.061647683 -0.09969765
000040 da de ad 3d e5 7a 0d 3e 16 58 d4 3d 9f 65 d7 bd
       0.08489771 0.13816412 0.103683636 -0.105174296
000050 c4 62 bf bd d0 e7 0b 3c 59 46 99 bd 65 d7 0d 3e
       -0.0934501 0.008539155 -0.07484121 0.13851698
000060 48 2e e7 3c e8 88 85 3c 0d 1d 06 be e6 d0 dd 3d
       0.02822031 0.016300634 -0.1309702 0.1083086
000070 f8 33 20 bd fc 83 c2 bd 1a 67 fc 3d ac 62 02 bd
       -0.03911206 -0.0949783 0.123243526 -0.031832382
000080 c0 66 55 3e 43 1e 34 3e 30 1f d7 bd 8a 95 0b bc
       0.20839977 0.17589669 -0.105039954 -0.00851954
000090 4b f0 0a 3e 85 7a 87 be ec 4a 47 3e 6a fb c9 3d
       0.13568227 -0.26460662 0.19462174 0.098624066
0000a0 91 e4 07 3d 99 e0 2b bd 51 15 02 be e4 dd f4 bc
       0.033176962 -0.04196224 -0.12703444 -0.029890962
0000b0 9c 2b 89 bd 07 8a cf bd e0 18 67 be 74 0c 91 3d
       -0.06697771 -0.101337485 -0.22568083 0.07082453
0000c0 97 35 4a 3e 80 ec 90 bc f1 4a 9e bd e6 5e 3a bd
       0.19747005 -0.017690897 -0.07729138 -0.04550066
0000d0 32 64 b6 3d 98 61 5d 3c 1b d1 9f 3b b5 3d f5 bd
       0.089058295 0.013512038 0.0048772222 -0.1197466
0000e0 a1 e3 53 3e ee c4 0f 3d 47 f9 48 3d e4 96 dd bd
       0.20692302 0.035099916 0.049065854 -0.10819796
0000f0 70 04 52 3e fb 4b d4 bc f8 6b 33 be d5 e0 58 3c
       0.20509505 -0.025915137 -0.17521656 0.013237198
000100 b9 56 9a bc 56 3a 05 3e 86 08 fc 3d 53 a4 31 3e
       -0.01884018 0.13010535 0.12306313 0.17347841
000110 9d 82 a7 3d 0f fb 60 bc e1 17 28 be e1 34 d3 3d
       0.081792094 -0.013731732 -0.16415359 0.1031282
000120 f0 36 07 be 7f 00 05 be 00 89 f1 bd b9 f4 12 3d
       -0.1320455 -0.1298847 -0.11793709 0.035877917
000130 5d 06 08 be f2 a8 9c 3d 1b 20 77 3c cc ca 48 be
       -0.13283677 0.07649411 0.015083338 -0.19608611
000140 74 6b a5 3d 85 d5 fc 3c d5 9a 14 3e fb 50 ae bc
       0.08077136 0.030863533 0.14512189 -0.021278849
000150 c6 69 a6 3d 1f b6 dc bc 53 95 fa 3d 7a 01 05 be
       0.081256434 -0.02694231 0.122355126 -0.12988845
000160 e0 00 04 be 1d bf 45 3e 2c 30 1e 3e 11 70 0a be
       -0.12890959 0.19311185 0.15448064 -0.13519312
000170 62 78 0d 3d b9 6c f1 bd 7b 18 b6 bd b4 7c e9 3d
       0.034538634 -0.11788315 -0.08891388 0.11400738
000180 a0 94 d1 bc 32 41 85 3d d8 44 d3 bc 81 e8 b5 bd
       -0.025583565 0.06506576 -0.025789663 -0.08882237
000190 94 a4 13 3d 32 0e 33 be 74 83 2e 3d 0a 42 e8 3d
       0.036045626 -0.17485884 0.042605832 0.11340721
0001a0 b0 9b 5d 3c 61 9e 07 be ce de ac 3d b6 28 b4 3d
       0.013525888 -0.1324401 0.08440934 0.087968275
0001b0 f9 2a 32 3e 02 15 f8 3d c6 94 ed 3d 68 53 f7 bc
       0.17399205 0.12113382 0.11600642 -0.030191138
0001c0 80 3c 0a bb 15 c7 25 3e 47 50 18 3e 96 d6 e4 3d
       -0.002109319 0.16189225 0.14874373 0.111737415
0001d0 88 af 12 3d e3 ef 15 3e 32 6c fb 3d d2 f4 8e bd
       0.03581193 0.14642291 0.12276496 -0.069802895
0001e0 20 ef 36 3c c4 fb 13 be e2 25 de 3d 48 b7 09 bd
       0.01116541 -0.1445151 0.10847069 -0.033622056
0001f0 72 22 ae 3d d6 1f 98 3d 92 2e d1 3d 45 6d 05 3e
       0.08502664 0.07427947 0.10213961 0.13029964
000200 f9 8e b0 bd 0d bd 21 3d e3 f1 44 3e 79 21 f0 3d
       -0.0862102 0.039486933 0.19232897 0.117251344
000210 49 1c 16 3e b7 b7 45 bd 76 ce 14 be 1d 0b ec 3b
       0.14659227 -0.048270907 -0.14531884 0.0072034732
000220 62 b6 2e 3e 05 90 d1 3d c0 8d 7a bd bf 77 a3 3d
       0.17061761 0.10232548 -0.06117034 0.07981824
000230 9d ac d7 3d 5f c5 2c be af 2f 93 3d d5 99 5a 3c
       0.1053097 -0.16872166 0.07186829 0.0133423405
000240 33 cd 08 be 8d 3f 59 3d 39 03 b3 3d 05 16 88 3d
       -0.13359527 0.053039122 0.08740849 0.06644825
000250 98 44 92 bd 0a dc 2b bc 0d bf 10 3d 60 15 a9 bd
       -0.071419895 -0.010489473 0.03533845 -0.0825603
000260 ba a1 d5 3d 39 ec ce bc 16 75 af bd 4b 3c 4d be
       0.104312375 -0.025259124 -0.08567254 -0.20042531
000270 9c 5e 68 3d 43 9d d8 bd 9c b7 2c be f4 31 8e bd
       0.05673085 -0.1057687 -0.16866916 -0.069431216
000280 0e f0 a7 3c c1 66 d2 bb 44 79 4d bd c4 80 90 bd
       0.02050021 -0.0064209406 -0.050164476 -0.0705581
000290 df 37 9f 3d 68 ef 7d be 9c 4a 95 3d dc bf a0 3d
       0.077743284 -0.24798357 0.07289621 0.07849094
0002a0 9d fe 05 bc f0 0c 2b be a9 3e 5f bd e2 c5 66 3d
       -0.00817838 -0.16704154 -0.054503117 0.05634106
0002b0 c7 ad d1 3d 72 5d c1 3d a7 b3 60 3e 86 3e 19 3e
       0.102382235 0.094416514 0.21943532 0.14965257
0002c0 a8 37 16 3e 87 2f 2d bc ed 94 fc 3d 5a c0 96 3d
       0.14669669 -0.010570413 0.12333093 0.07360907
0002d0 bd 9d 62 3c a3 2e 19 be 0e e2 15 3e 70 ea 30 ba
       0.013831553 -0.14959197 0.14637014 -0.0006748801
0002e0 a4 1a e4 3d f1 e1 ab 3c 2a ae b6 bc b8 13 7d bd
       0.11137894 0.02098176 -0.022299845 -0.061786383
0002f0 d1 04 8e bd 5a b0 8c 3d ae ab 2b bd e6 d3 96 3d
       -0.069345124 0.06869574 -0.041911773 0.07364635
000300 29 ec 96 bd d8 4c 24 be da 70 bd 3d b4 a5 87 bd
       -0.07369263 -0.16044939 0.0925004 -0.06623402
000310 2a 6b 12 be ba d1 19 be 39 f5 22 be 20 16 7c 3c
       -0.14298692 -0.1502141 -0.15913858 0.015386134
000320 28 42 18 3d 9e 25 5d bd 18 8d fe bc ca 8d b1 3d
       0.037172467 -0.053990953 -0.031073138 0.08669622
000330 57 5e 08 3e 3c be 8b bd 28 7d e5 3c 9e d4 e8 3d
       0.13317238 -0.06823394 0.02801378 0.113686785
000340 2e e0 b8 bd 4a 70 d9 3d db 3f 06 3e 00 a8 94 38
       -0.09027134 0.106171206 0.13110296 7.0884824e-05
000350 23 aa 2c 3e b8 6e b3 3c e7 f9 9f bd 94 72 05 3d
       0.16861777 0.02190338 -0.07811337 0.032579973
000360 40 00 df bb fe 3d eb 3d 9f 21 8d bd 16 4d 28 be
       -0.0068054497 0.114864334 -0.06891178 -0.16435656
000370 09 ea 0e be 57 7f 2a 3e 28 00 7d 3d d1 15 0b 3e
       -0.13956465 0.16650139 0.061767727 0.13582541
000380 4a 5c e4 3b b0 10 3a 3d ea a9 53 bd d6 49 02 be
       0.0069690095 0.04542607 -0.051675715 -0.12723479
000390 18 8d af 3d bb ab 7e bd dd 67 37 bd 7f 69 54 3e
       0.08571833 -0.062175494 -0.044776786 0.20743369
0003a0 af 4b 13 be 96 08 0c 3d cc 06 3a be 29 6a 50 3d
       -0.1438434 0.034187876 -0.18166655 0.050882492
0003b0 b8 3e 13 3e 68 21 89 be c8 ca 9a bd b3 d2 a8 3a
       0.14379394 -0.267833 -0.07558209 0.0012880176
0003c0 dc d3 11 be 1e 52 e3 3d 63 66 f0 bc 96 01 ec bc
       -0.14240974 0.11099647 -0.029345697 -0.02880935
0003d0 34 7c 57 3c 11 7f 1b 3e cd 72 71 be 4a e2 89 be
       0.013152171 0.1518519 -0.2357895 -0.26930457
0003e0 f3 06 36 bc c4 54 7c bd 0b 51 97 3d f4 ab 90 3d
       -0.011110055 -0.061604276 0.073885046 0.070640475
0003f0 c2 37 60 be b0 3e d6 bd 5c d0 14 3e a4 b3 c0 bd
       -0.2189627 -0.104611754 0.14532608 -0.09409264

arith.constant13 f4 [32, 1, 3, 32]
000000 cd 03 84 bd 68 a7 35 bd d7 50 e7 3d de ba 61 3e
       -0.064460374 -0.044349104 0.11294716 0.2204394
000010 78 b7 35 bc cb 81 16 be 09 d7 66 bc e9 2c cf bc
       -0.011091106 -0.1469795 -0.014089354 -0.02528997
000020 d8 ad bc 3c 81 0d 79 3e ef df 00 be c9 c2 ed 3c
       0.023032114 0.24321558 -0.12585424 0.029023545
000030 36 52 ba 3d f9 d8 da bd 2d db 5b be 47 9c 95 3d
       0.09097712 -0.106859155 -0.21470328 0.07305198
000040 1e 68 5c be c6 ad 3c 3e dd fd a5 bc a6 98 3f bd
       -0.21524093 0.18425664 -0.020262653 -0.046776436
000050 04 0e 74 bd 45 67 af bd e1 40 5a bd 33 a3 36 3e
       -0.05958368 -0.08564619 -0.05328453 0.17835693
000060 43 35 09 be d2 7e f3 3d 5e 35 01 be 57 96 ae bd
       -0.13399224 0.118894234 -0.12618014 -0.08524769
000070 c7 b7 bb 3d d7 d4 d2 bd d0 ed b6 3d 1d 6e 3f 3d
       0.09165912 -0.10294502 0.08932078 0.04673587
000080 4f f1 25 bd 6b d2 1a be 14 11 0c 3e 0c bc 6a 3c
       -0.040513333 -0.1511933 0.1367839 0.01432706
000090 e9 6f 5e 3d 7f 4a f6 bc eb b0 18 be 34 d1 21 3e
       0.054305945 -0.03006482 -0.14911239 0.15802461
0000a0 74 db 7a 3d 14 a3 0d 3e aa a3 ba 3d c9 e5 84 bd
       0.061244443 0.1383174 0.09113248 -0.064891405
0000b0 69 73 84 bd 2d b2 47 be 71 de 79 be 09 62 83 3d
       -0.06467325 -0.19501562 -0.24401261 0.06415183
0000c0 af f0 8a 3d 6e 60 49 be e2 92 20 3e fa 0a 07 3e
       0.06784188 -0.19665691 0.15681031 0.13187781
0000d0 af 58 3a bd 0d f5 01 bd be d5 76 bb 63 69 da bc
       -0.04549473 -0.03172784 -0.0037664021 -0.02666158
0000e0 39 8c 80 bb ad 48 86 bd b1 3b 4e 3e 54 87 c9 bd
       -0.003922966 -0.065568306 0.20139958 -0.09840265
0000f0 fa 08 00 3e 2f 10 c6 bc 4f 85 ac 3d e7 4a 6f 3d
       0.12503424 -0.024177639 0.08423864 0.05842104
000100 b8 e9 22 3b 97 52 ad bd 12 3c 40 be b3 0c 4f be
       0.0024858546 -0.084630184 -0.18772915 -0.20219688
000110 5e 9e 8b 3d e0 e5 5e 3d ee 9c 9e 3c e8 0e 8d 3d
       0.068173155 0.054418445 0.01936194 0.06887609
000120 aa 1e 68 bd 51 3e 43 bd 53 2e 30 3e 05 67 36 3e
       -0.05666987 -0.04766685 0.17205171 0.17812736
000130 37 17 59 3e af 77 71 be 2f e7 da 3d 71 dd 56 3e
       0.21200262 -0.23580812 0.10688626 0.2098291
000140 7c 31 c4 bb f2 67 14 be 24 64 55 bc 22 ec 81 3e
       -0.0059873443 -0.14492777 -0.013024364 0.25375468
000150 aa 62 09 bc c1 e5 3c bd d1 8b 73 be 85 41 66 be
       -0.00838534 -0.046117548 -0.23783804 -0.22485931
000160 65 35 97 bd 85 92 79 3e 3d 4a d0 3d 07 98 00 be
       -0.07383231 0.24372299 0.1017041 -0.12557994
000170 e8 27 06 3d 31 af 97 3d c6 62 08 be 95 2a d2 3d
       0.0327529 0.07406462 -0.13318929 0.10262028
000180 db f6 1b be 5b 08 93 3d c8 fc 91 3e 54 6e 94 3d
       -0.15230887 0.07179328 0.2851317 0.07247606
000190 82 31 39 3e 93 c2 86 3d c5 5e 9e bc 67 b3 1f 3d
       0.18085292 0.06580081 -0.019332299 0.03898945
0001a0 c6 43 2d be 7f 71 27 3d fa d0 fc 3b 53 97 a6 bd
       -0.16920385 0.040879723 0.0077153416 -0.081343316
0001b0 51 e0 29 3e ec 8f 8e bc 0d 8c ca bd b0 2b a6 3d
       0.16589476 -0.017402612 -0.09889994 0.081138015
0001c0 99 17 8d 3d ab 76 80 3e 71 c1 f1 bc f0 6a 34 be
       0.068892665 0.25090536 -0.029511185 -0.17618918
0001d0 5b ed de 3c cf 27 64 3d f4 97 f6 3c 09 9b 04 3d
       0.02721279 0.055702027 0.030101754 0.032374416
0001e0 4f 5f ee 3d d7 5e 01 3e 76 5c 06 3c ac b7 40 3d
       0.116392724 0.12633835 0.008200755 0.047050163
0001f0 dd d7 47 3e 07 d2 a6 bd 8e 88 b7 3d 9b 22 93 be
       0.19515939 -0.08145528 0.089615926 -0.2873734
000200 ff 88 e8 bc d2 cd 46 bc e1 e4 00 be 27 dc 41 be
       -0.028385637 -0.012134032 -0.1258731 -0.18931638
000210 e1 87 f7 3c e8 57 c9 bc 34 3c 2c 3d d4 f9 4f 3d
       0.03021616 -0.02457805 0.0420496 0.050775364
000220 58 17 24 3e 88 5b e3 3d a4 4a 20 be ba 2a a4 bd
       0.1602453 0.111014426 -0.15653473 -0.08015962
000230 c1 2c 52 3b 4a da 07 be 7c 6e 9a bd f7 7c 87 3b
       0.0032070132 -0.13266864 -0.075406045 0.00413477
000240 31 2d d8 bd 31 ed 17 3e ba 15 05 3e 7f 3b 08 3d
       -0.105554946 0.14836575 0.1299657 0.033259865
000250 20 3d 96 3d fe 3b 8c bd f5 2c 29 be 5e d9 52 3d
       0.073358774 -0.0684738 -0.16521056 0.05147683
000260 ff 16 0a 3d 06 41 ad bd 9a 48 67 bd 8d 9e f3 bc
       0.033713337 -0.08459668 -0.056465723 -0.029738689
000270 bb ce b9 3d 91 b8 0e 3d de f8 09 3e 19 bc f4 bd
       0.09072634 0.034843985 0.13473842 -0.11949939
000280 8a 04 0b be 50 43 63 be f5 e7 8e bd 29 74 33 be
       -0.1357595 -0.22193646 -0.06977836 -0.1752478
000290 a4 0b 06 bd b3 89 a0 bd d2 92 47 3d 6b c4 0a be
       -0.032725945 -0.07838764 0.048724003 -0.1355149
0002a0 3d 41 40 be 23 b4 89 bd 73 3c 8a bc af 64 0d bd
       -0.18774886 -0.067238115 -0.016874528 -0.034519847
0002b0 96 3d 12 3e da cd 19 3e f4 7e 83 3d f8 92 3f 3e
       0.14281306 0.15019932 0.06420699 0.18708408
0002c0 31 ec 19 be 71 53 c9 bd e0 54 15 3e e9 92 e1 3c
       -0.15031506 -0.09830368 0.14583158 0.027535873
0002d0 40 8b b3 3c 8c 82 9e bd f3 10 10 3e bf df ef 3d
       0.021916986 -0.077397436 0.14068966 0.11712598
0002e0 04 ab 04 be 1e 25 32 3e e9 cc 1b be b4 7f 8f bb
       -0.12955862 0.17396972 -0.15214886 -0.004379237
0002f0 13 21 8b 3d cf 7e 27 3d 60 5b 16 be 72 7d 00 bd
       0.06793418 0.04089242 -0.14683294 -0.031369634
000300 b1 91 dd bd c9 bc 87 bd 54 4b d7 3d d4 0d 87 3c
       -0.10818804 -0.06627805 0.105124146 0.016486086
000310 88 c1 f9 3d 69 80 08 3d 74 f6 e8 bb ad 95 86 bc
       0.12195116 0.033325586 -0.0071094576 -0.016428793
000320 5e 04 82 3c 5a 1c f8 bd 16 df 1e bb 70 ac 8f bd
       0.015871223 -0.12114783 -0.0024241856 -0.07015312
000330 61 4a 37 3e d2 1c 54 3e 65 c8 39 3e fd aa 2f 3e
       0.17899467 0.20714119 0.1814285 0.1715507
000340 d0 48 fc bd ef 99 ad bd a2 ed 2d 3e 70 d9 85 3d
       -0.123185754 -0.08476626 0.16985181 0.065356135
000350 8f f1 5b be ab 5f 09 3e 1e 8f ef bd 7b 72 2f bd
       -0.21478866 0.134154 -0.11697219 -0.042833786
000360 ce 20 ab bb 93 42 28 3e fa f9 a0 bd d9 cc 41 bd
       -0.0052224165 0.16431646 -0.07860179 -0.0473145
000370 65 51 80 bd b9 5a 33 3d ec 74 06 be 4e 5c fb 3c
       -0.06265525 0.04378769 -0.1313054 0.030683663
000380 f3 db ff bc 10 16 c9 3d d6 1a 0f bd 4c 28 90 3d
       -0.03123281 0.09818661 -0.034937702 0.07038936
000390 29 25 0c 3d 3c c4 ac 3c df 0e 10 bd 8a d3 c8 bd
       0.034215126 0.021089666 -0.035170432 -0.09805973
0003a0 16 ab e4 3d ff a5 5a bd a6 5a 39 3c 95 ba b4 39
       0.111654446 -0.053380962 0.011313116 0.0003447129
0003b0 e1 71 30 3e 9b b0 bd 3d 8b d4 4e be 15 8a fc 3d
       0.17230941 0.092622004 -0.20198266 0.123310246
0003c0 c3 7a a3 bd 75 13 a4 bb cf 2c 9b bd 56 ca 60 3e
       -0.07982399 -0.0050072023 -0.07576906 0.21952185
0003d0 9b 5c 11 bd f7 da 82 3e bf c7 23 be 25 14 19 3e
       -0.035488706 0.25557682 -0.15994166 0.14949091
0003e0 95 ce b1 bd 99 90 15 3e b3 87 89 bb ca cc ed 3d
       -0.086819805 0.14605941 -0.004197085 0.11611326
0003f0 ae bd 14 3e 44 20 0f bd b9 27 ad bd f3 85 54 be
       0.14525482 -0.03494288 -0.08454842 -0.20754223
