common/src/main/assets/tcn_models/tcn_5min.tflite (tflite, 178016 bytes, 39 tensors)

arith.constant f4 [64]
0.018125081 0.023906145 -0.0077052293 0.0039264513 0.0447865 0.014069627 -0.019602101 0.044318907
0.033341005 0.070971705 0.022813888 -0.069953226 -0.037919 0.024423711 0.003508624 0.01618052
-0.015087891 -0.014162199 -0.025125286 -0.023130748 -0.012253268 -0.021672564 -0.014445145 0.07403375
0.033326752 -0.006839293 0.050323274 0.015669798 0.07138183 0.07161742 -0.0315506 -0.033225898
0.044019893 -0.007084505 0.035578318 -0.035085186 -0.011443975 0.043116048 -0.027236484 0.004583686
-0.070049465 -0.015572654 -0.02328716 0.049039166 0.0060430877 -0.02123748 -0.029624164 0.029665979
0.007811534 -0.0125787845 -0.0029872744 -0.023752024 -0.0125920195 -0.047789328 0.02325997 -0.00096857734
0.040663812 -0.03912844 -0.012998323 -0.031364575 0.058507595 0.011585005 -0.032267235 0.015534287
00000000: 0d7b 943c d2d6 c33c 267c fcbb 76a9 803b
00000010: 0d72 373d 4b84 663c 9694 a0bc be87 353d
00000020: 9490 083d 9d59 913d 31e4 ba3c a343 8fbd
00000030: f450 1bbd 3c14 c83c f1f0 653b 038d 843c
00000040: 3433 77bc 9108 68bc 8bd3 cdbc b27c bdbc
00000050: eec1 48bc a98a b1bc 54ab 6cbc 029f 973d
00000060: a281 083d 261c e0bb c71f 4e3d f35d 803c
00000070: a330 923d 27ac 923d 343b 01bd e117 08bd
00000080: 344e 343d 2325 e8bb 92ba 113d 7cb5 0fbd
00000090: 837f 3bbc 749a 303d 0c1f dfbc bf32 963b
000000a0: 1876 8fbd 7224 7fbc b7c4 bebc 4bdd 483d
000000b0: 1805 c63b 39fa adbc 60ae f2bc 1106 f33c
000000c0: e6f7 ff3b 3f17 4ebc 26c6 43bb 9b93 c2bc
000000d0: c24e 4ebc bebe 43bd b18b be3c 20e8 7dba
000000e0: 198f 263d 2545 20bd ebf6 54bc 2478 00bd
000000f0: a9a5 6f3d 08cf 3d3c a62a 04bd 8683 7e3c

arith.constant1 f4 [32]
0.0018492625 0.06768765 -0.03760858 0.02668652 -0.03555246 0.036947675 -0.018067118 -0.038444772
0.02287598 -0.012666923 -0.03597835 0.049220473 0.08327813 0.025085945 -0.041090343 -0.030140309
0.06540169 0.057797536 0.081638396 0.009809397 0.004905007 -0.0069410657 0.03512094 0.044366017
-0.051666528 -0.047418702 -0.012005331 -0.05354053 -0.05122091 0.009715857 0.0222086 0.03600688
00000000: f462 f23a d39f 8a3d 740b 1abd b09d da3c
00000010: 759f 11bd 7256 173d 7e01 94bc 4478 1dbd
00000020: 6866 bb3c ed88 4fbc 095e 13bd 689b 493d
00000030: b98d aa3d 0a81 cd3c 594e 28bd cfe8 f6bc
00000040: 52f1 853d 1cbd 6c3d 0832 a73d 98b7 203c
00000050: 2eba a03b e171 e3bb fada 0f3d 24b9 353d
00000060: 48a0 53bd 1d3a 42bd 02b2 44bc 514d 5bbd
00000070: 04cd 51bd 422f 1f3c cfee b53c f37b 133d

arith.constant2 f4 [32]
0.10594137 -0.052151825 -0.010197936 -0.10052856 -0.05929288 0.028035207 0.039957255 -0.08203703
0.02634111 -0.004915494 0.02671767 -0.036316097 -0.029821439 -0.069744796 0.012315089 0.049541563
0.01623901 -0.0550427 -0.07139633 -0.109791964 -0.1081632 -0.07292597 0.055091582 0.025132835
-0.07393736 -0.045729537 0.09309247 0.053643763 -0.051381823 0.053072523 -0.005280028 0.12826975
00000000: caf7 d83d 279d 55bd 3e15 27bc ebe1 cdbd
00000010: 17dd 72bd 17aa e53c 38aa 233d 0803 a8bd
00000020: 50c9 d73c 2712 a1bb 04df da3c 30c0 14bd
00000030: 174c f4bc 5cd6 8ebd 3ac5 493c 18ec 4a3d
00000040: ac07 853c 7474 61bd 3d38 92bd 9cda e0bd
00000050: ab84 ddbd 365a 95bd b6a7 613d 60e3 cd3c
00000060: 786c 97bd e54e 3bbd 44a7 be3d 90b9 5b3d
00000070: bf75 52bd 9362 593d 1604 adbb 2559 033e

arith.constant3 f4 [32]
0.02249582 0.015984409 0.010965256 0.035519775 0.008915447 -0.07115416 0.02062946 0.10259316
-0.0020645307 0.08967617 -0.036242735 -0.03107649 -0.044089895 0.038605105 0.053336207 -0.03193912
0.059609335 -0.09988864 -0.07444457 -0.007852132 -0.0014338568 0.07169107 -0.053913336 -0.05929474
0.036127433 -0.034092214 0.08031621 -0.045795023 0.04845263 0.028163204 0.001291891 0.04803753
00000000: 2749 b83c bcf1 823c 9ea7 333c 2f7d 113d
00000010: 1812 123c 46b9 91bd 1dff a83c 5d1c d23d
00000020: 144d 07bb 24a8 b73d 4373 14bd 2094 febc
00000030: 9b97 34bd 6320 1e3d 1177 5a3d 98d2 02bd
00000040: eb28 743d 6a92 ccbd 6576 98bd 3ba6 00bc
00000050: 40f0 bbba c5d2 923d 3bd4 5cbd 0bdf 72bd
00000060: 5cfa 133d 47a4 0bbd d37c a43d 9093 3bbd
00000070: 4476 463d 85b6 e63c ab54 a93a 00c3 443d

arith.constant4 f4 [131]
-0.0950938 -0.09767447 -0.10141991 -0.15227354 -0.11085934 -0.117053874 -0.12301606 -0.12874313
-0.11339633 -0.115645036 -0.100059606 -0.097208545 -0.10049842 -0.09672508 -0.14666706 -0.109422915
-0.11830075 -0.11884122 -0.10591349 -0.11961246 -0.10622892 -0.14824474 -0.11688559 -0.1327917
-0.10156096 -0.08139585 -0.10329816 -0.074317634 -0.061840996 -0.08108016 -0.06950107 -0.06442402
-0.051652912 -0.076762214 -0.05099472 -0.07345584 -0.050852563 -0.07047503 -0.040047396 -0.063521005
-0.038828824 -0.024127794 -0.027918724 0.0013859494 0.03471558 0.020429956 0.0034078772 0.055466294
0.055167403 0.04981698 0.057509046 0.07067259 0.06710341 0.08108256 0.08675953 0.094653405
0.09962501 0.1133923 0.116535835 0.11870642 0.09946288 0.12104534 0.11428286 0.112485416
0.09322597 0.1025299 0.07113251 0.07329724 0.063606456 0.06436225 0.05751072 0.051255934
0.018307455 0.03672641 0.06268652 0.035250343 -0.016077885 0.035793576 0.012002995 0.0067416644
-0.005037219 -0.02755125 -0.036217935 -0.07598947 -0.0800848 -0.10191016 -0.10477789 -0.090931155
-0.13282305 -0.10080279 -0.12672879 -0.11931693 -0.117655694 -0.10932742 -0.09695304 -0.106528595
-0.09426382 -0.12576482 -0.119732805 -0.14611447 -0.1293057 -0.16392416 -0.11761364 -0.14305373
-0.13230726 -0.18240367 -0.15489554 -0.15691969 -0.13217105 -0.12837432 -0.118148156 -0.15167569
-0.11810448 -0.16862446 -0.14399394 -0.14591591 -0.14173545 -0.12881717 -0.10585936 -0.13263631
-0.13330942 -0.10987397 -0.120842114 -0.11446031 -0.102071285 -0.11887716 -0.10760789 -0.09751458
-0.1043515 -0.11944118 -0.117873274
00000000: 8ac0 c2bd 8d09 c8bd 3eb5 cfbd 98ed 1bbe
00000010: 390a e3bd f1b9 efbd d8ef fbbd 3dd5 03be
00000020: 563c e8bd 4ed7 ecbd 0dec ccbd 4615 c7bd
00000030: 1ed2 cdbd cc17 c6bd e42f 16be 1f19 e0bd
00000040: aa47 f2bd 0763 f3bd 2ce9 d8bd 61f7 f4bd
00000050: 8c8e d9bd 78cd 17be b661 efbd 8cfa 07be
00000060: 31ff cfbd deb2 a6bd fc8d d3bd d833 98bd
00000070: fc4c 7dbd 5b0d a6bd 9456 8ebd bef0 83bd
00000080: 0192 53bd 8235 9dbd d7df 50bd 0470 96bd
00000090: c74a 50bd 3655 90bd bd08 24bd 4d17 82bd
000000a0: f90a 1fbd a7a7 c5bc cfb5 e4bc bfa8 b53a
000000b0: ed31 0e3d b95c a73c b156 5f3b a030 633d
000000c0: 37f7 613d e40c 4c3d 9b8e 6b3d cabc 903d
000000d0: 836d 893d 9d0e a63d fbae b13d a5d9 c13d
000000e0: 3208 cc3d 393a e83d 57aa ee3d 5a1c f33d
000000f0: 32b3 cb3d 9fe6 f73d 220d ea3d c15e e63d
00000100: 42ed be3d 32fb d13d ecad 913d dd1c 963d
00000110: 1a44 823d 5bd0 833d 5c90 6b3d bef1 513d
00000120: 84f9 953c 6f6e 163d ca61 803d aa62 103d
00000130: c5b5 83bc 499c 123d 36a8 443c 2ee9 dc3b
00000140: 410f a5bb 29b3 e1bc 4259 14bd 5ea0 9bbd
00000150: 8003 a4bd 46b6 d0bd ca95 d6bd 1d3a babd
00000160: c402 08be b171 cebd 31c5 01be 6f5c f4bd
00000170: 78f5 f0bd 0ee7 dfbd 518f c6bd aa2b dabd
00000180: 640d c1bd 7ec8 00be 7936 f5bd 089f 15be
00000190: b768 04be bcdb 27be 6cdf f0bd ad7c 12be
000001a0: 8e7b 07be 07c8 3abe f09c 1ebe 8eaf 20be
000001b0: d957 07be 8f74 03be a9f7 f1bd df50 1bbe
000001c0: c3e0 f1bd e4ab 2cbe 2673 13be fb6a 15be
000001d0: 1923 11be a6e8 03be cbcc d8bd d0d1 07be
000001e0: 4482 08be 9b05 e1bd 127c f7bd 2b6a eabd
000001f0: c00a d1bd de75 f3bd 8761 dcbd b9b5 c7bd
00000200: 3db6 d5bd 949d f4bd 8b67 f1bd

arith.constant9 f4 [32, 1, 3, 32]
0.12210278 0.028812602 0.16126437 0.029455885 0.12699603 0.13608904 -0.08161572 0.02369167
0.053295404 0.17407985 -0.039114505 0.10729323 -0.17353362 0.10644536 0.020845205 0.15917604
-0.03404276 0.13186635 0.16486742 -0.11639775 -0.023055047 -0.10232192 0.080889836 -0.14174289
-0.15225519 0.09286271 0.025022283 -0.13673474 -0.090878464 0.050916508 0.0565612 0.008909464
0.09328489 -0.0651667 0.012331367 0.04340683 0.0055409223 0.016974181 -0.04628323 0.086204454
-0.14353973 0.09799926 0.07180339 -0.010671124 0.06469242 0.10434936 -0.04487881 -0.124377325
0.00772126 -0.1004925 0.037266582 0.094336614 -0.16396248 -0.011445656 0.1602268 -0.0037355572
-0.14215474 0.08103396 0.071061224 0.07705064 0.14156409 0.1682785 -0.14628631 0.16225816
-0.039128866 -0.004083332 -0.06065559 0.015098731 0.13990115 -0.13203621 0.03591074 0.16815045
-0.0443497 0.031251848 0.14908308 0.029335722 -0.032703932 -0.0676457 -0.08385351 -0.08541374
-0.2221389 0.080754116 -0.023558117 0.13263555 -0.023122413 -0.12243525 0.047326263 -0.062149055
0.0321325 -0.11123723 -0.020552345 -0.020360732 -0.077950254 0.13311191 0.12515408 -0.095506445
0.14974688 0.17204033 0.12936486 -0.02334717 0.15117498 -0.13821043 0.07561545 0.05980453
0.11232127 -0.15967792 0.17555983 0.13049828 0.006543249 0.03711818 0.06010528 0.17096044
-0.038028926 0.14316596 -0.08179009 0.14433269 -0.09177333 -0.15384886 -0.038409308 -0.048967555
0.11769833 0.025724247 0.11972059 -0.007955089 -0.14824146 0.05870618 -0.16065417 0.1596572
0.04344 -0.119543925 -0.036353514 -0.16186227 0.07629223 0.1247953 -0.04482229 -0.14241989
-0.15947646 -0.052689247 -0.12771064 -0.1707269 -0.15693703 0.17257254 0.07528113 -0.047480315
-0.020168945 0.12827002 -0.034703583 0.023738116 -0.0029493868 -0.021854281 0.08318137 -0.06859593
0.1159925 -0.077646926 -0.00777255 -0.12623967 -0.17611001 0.13318862 -0.07816095 0.12212537
0.060410537 0.03230208 -0.09216796 0.10586498 0.07874184 -0.114639066 -0.12855868 -0.07745623
0.10728552 -0.0035212245 -0.11215205 -0.028410828 -0.023165662 0.17714982 -0.06736626 -0.010709107
-0.12582251 -0.15017301 0.15111122 0.10682889 0.053142857 0.076544546 -0.111253515 0.19709745
-0.14845887 -0.019256346 0.07555514 -0.15492068 -0.046163246 -0.02644149 -0.17757276 -0.1306303
0.027891904 0.09686799 -0.098978125 -0.013868079 -0.12731054 0.108028695 0.08547996 0.140821
0.09714781 -0.034108773 0.10392009 0.0674433 0.02369672 -0.15317121 -0.15815179 -0.14039937
0.0016363114 -0.08396415 0.1335675 0.06222619 -0.06932516 -0.12555175 0.13553335 0.112839535
0.15606539 -0.024045542 0.07596825 -0.16148734 0.0074724704 0.03527771 0.032310277 0.07599042
-0.0897142 0.008041918 -0.1585156 0.10708396 0.08053891 -0.00252299 -0.10323264 -0.1718083
-0.06016218 0.090991005 -0.023628578 0.11637457 0.007630259 0.17445768 0.08529179 0.11718707
0.16714214 -0.008595422 -0.023169309 -0.13239492 -0.09563322 -0.05044897 0.021968499 -0.1641243
-0.083178364 0.15287681 0.16515003 -0.03524433 0.084907815 -0.15093406 0.037606493 -0.12438133
00000000: 0611 fa3d 6808 ec3c 7d22 253e 784d f13c
00000010: 3f0b 023e ed5a 0b3e 2526 a7bd 0815 c23c
00000020: 484c 5a3d fd41 323e 8836 20bd 8ebc db3d
00000030: ccb2 31be 0600 da3d 90c3 aa3c 0bff 223e
00000040: 6c70 0bbd f907 073e 01d3 283e f261 eebd
00000050: f0dd bcbc 288e d1bd 92a9 a53d 0c25 11be
00000060: c9e8 1bbe ce2e be3d 88fb cc3c 3104 0cbe
00000070: 7d1e babd d48d 503d b8ac 673d 00f9 113c
00000080: 260c bf3d 1e76 85bd 8009 4a3c 5ccb 313d
00000090: a090 b53b 700d 8b3c 7c93 3dbd f68b b03d
000000a0: 14fc 12be d6b3 c83d a80d 933d f0d5 2ebc
000000b0: 767d 843d 1eb5 d53d d8d2 37bd 8ab9 febd
000000c0: a002 fd3b 03cf cdbd d8a4 183d 8e33 c13d
000000d0: c8e5 27be 9086 3bbc 7f12 243e 40d0 74bb
000000e0: 0391 11be 22f5 a53d 8c88 913d bacc 9d3d
000000f0: 2df6 103e 3351 2c3e 14cc 15be 0127 263e
00000100: 9745 20bd 79cd 85bb ff71 78bd ab60 773c
00000110: 3f42 0f3e 8034 07be 2417 133d a22f 2c3e
00000120: 08a8 35bd f001 003d 3ca9 183e 7851 f03c
00000130: 8ff4 05bd d489 8abd 64bb abbd 66ed aebd
00000140: 6178 63be 6a62 a53d f4fc c0bc 9dd1 073e
00000150: 376b bdbc 55bf fabd 2fd9 413d 0290 7ebd
00000160: 5e9d 033d 58d0 e3bd 645d a8bc 8dcb a6bc
00000170: 62a4 9fbd 7d4e 083e 6428 003e e298 c3bd
00000180: 3f57 193e 572b 303e 3978 043e 9042 bfbc
00000190: 9dcd 1a3e 0987 0dbe 46dc 9a3d 98f5 743d
000001a0: b208 e63d 9c82 23be f5c5 333e 57a1 053e
000001b0: c068 d63b 3c09 183d f430 763d 4110 2f3e
000001c0: 38c4 1bbd 199a 123e 9081 a7bd f3cb 133e
000001d0: a8f3 bbbd 8e8a 1dbe 1453 1dbd 3492 48bd
000001e0: d20b f13d a8bb d23c 1230 f53d 1056 02bc
000001f0: 9ccc 17be e475 703d 8782 24be 2d7d 233e
00000200: 24ee 313d 72d3 f4bd 6ce7 14bd 39bf 25be
00000210: 1a3f 9c3d ae94 ff3d 9497 37bd 85d6 11be
00000220: cc4d 23be aed0 57bd 94c6 02be 08d3 2ebe
00000230: 1ab4 20be dbb6 303e fe2c 9a3d b87a 42bd
00000240: 5839 a5bc 3759 033e 5825 0ebd 7076 c23c
00000250: 804a 41bb c007 b3bc fe5a aa3d 067c 8cbd
00000260: 7a8d ed3d 5a05 9fbd e0b0 febb f944 01be
00000270: 2f56 34be 9962 083e d912 a0bd de1c fa3d
00000280: 0a71 773d 304f 043d 8ec2 bcbd bdcf d83d
00000290: 6743 a13d e3c7 eabd e3a4 03be 5fa1 9ebd
000002a0: 83b8 db3d 58c4 66bb f9af e5bd d3bd e8bc
000002b0: eac5 bdbc c366 353e 52f7 89bd 4075 2fbc
000002c0: 9ed7 00be f4c6 19be e6bc 1a3e 1bc9 da3d
000002d0: 53ac 593d 63c3 9c3d e2d8 e3bd ead3 493e
000002e0: 9a05 18be 7cbf 9dbc a7bc 9a3d 87a3 1ebe
000002f0: ac15 3dbd d39b d8bc a2d5 35be f3c3 05be
00000300: 907d e43c ba62 c63d 0bb5 cabd f036 63bc
00000310: b25d 02be 263e dd3d 1e10 af3d 6133 103e
00000320: 6ef5 c63d a4b5 0bbd 0ed4 d43d b61f 8a3d
00000330: a01f c23c ead8 1cbe 8bf2 21be dac4 0fbe
00000340: 8079 d63a 65f5 abbd ebc5 083e e4e0 7e3d
00000350: 59fa 8dbd a390 00be 41c9 0a3e 6a18 e73d
00000360: 9bcf 1f3e 28fb c4bc 3e95 9b3d f05c 25be
00000370: a0db f43b 5c7f 103d c857 043d dea0 9b3d
00000380: 14bc b7bd 40c2 033c ea51 22be d64e db3d
00000390: 96f1 a43d c058 25bb a26b d3bd 84ee 2fbe
000003a0: 9e6c 76bd 7e59 ba3d b890 c1bc ca55 ee3d
000003b0: 4007 fa3b 09a5 323e 76ad ae3d c6ff ef3d
000003c0: 4f27 2b3e d0d3 0cbc 90cd bdbc 8992 07be
000003d0: 5adb c3bd 94a3 4ebd 48f7 b33c 3310 28be
000003e0: 6b59 aabd bd8b 1c3e 171d 293e 5c5c 10bd
000003f0: 26e4 ad3d 758e 1abe 4409 1a3d a4bb febd

arith.constant10 f4 [32, 1, 3, 32]
-0.028113887 -0.16129155 0.15190808 0.013428405 -0.0808903 0.15511845 0.013364688 -0.10011503
-0.16622843 -0.11209873 -0.0077825785 0.05181837 -0.04739514 0.16769595 0.15319557 -0.1458895
0.035182968 -0.17072575 -0.029074252 0.055668816 -0.1338785 0.11229403 0.03906347 -0.0957616
0.08114155 -0.009797201 0.09294395 0.07243273 0.13753636 0.020637631 -0.003974363 0.16963793
-0.097563714 -0.120437525 -0.14546525 0.17598148 -0.10801677 0.10647614 0.053929374 0.015359372
-0.066260956 -0.14586872 -0.10604353 0.059231877 0.1367748 0.16420878 -0.0051377863 0.04039876
-0.09821581 -0.12695275 0.095913485 -0.069334134 0.16960756 -0.08012449 0.016230926 -0.14481737
0.048608214 -0.00030627847 -0.13204843 -0.17538665 -0.12174466 0.17593218 -0.057451084 -0.07428816
0.087660946 0.031666614 0.06469007 -0.031853046 -0.06543051 -0.05056886 0.086298205 0.13097456
0.1978241 0.013229861 -0.037847705 -0.10066775 -0.032609183 -0.098482445 -0.0669895 -0.007479899
-0.008955986 0.058826923 -0.09922572 0.20888646 -0.04111793 -0.1639874 0.13019352 0.035482854
-0.11748235 -0.032232016 0.020136556 0.0075227395 0.12631206 -0.085155204 -0.09569368 -0.060667265
-0.17054874 -0.09259574 -0.16497773 -0.06073188 0.17078055 -0.08883481 -0.07552319 -0.13523304
-0.16490076 -0.10417841 -0.04510568 -0.037497416 0.095465556 -0.10758358 0.021068871 -0.118927196
0.15357552 0.025401056 -0.14911391 -0.0698329 -0.05692859 -0.08009827 0.042453215 0.16390918
0.03840214 -0.17075248 0.15237455 -0.16051838 -0.1320197 0.15580173 -0.018255398 -0.16007613
0.037410125 0.021313235 -0.078541495 -0.09331607 0.16360067 0.110700205 0.05951658 -0.13424075
0.17017607 -0.020555481 0.06981592 -0.12109291 -0.061464727 -0.1108334 0.028379574 0.10851006
0.02964525 -0.14051181 0.107068345 -0.09772067 -0.12505513 -0.054628216 0.06740934 0.108663455
0.14394982 -0.119717196 -0.12384737 -0.03536728 -0.17235604 0.0902337 0.12694032 -0.043651655
-0.07302832 -0.14034688 0.0969374 -0.10501972 -0.053735077 -0.03087102 -0.03842254 0.16852652
-0.040466547 -0.012716214 0.2350102 -0.122602575 -0.12756148 -0.036331367 -0.10156787 -0.09210729
0.20478186 -0.14690953 -0.014234314 0.07003018 -0.10731439 0.039457653 0.09499185 -0.093901366
0.06454443 -0.20283182 -0.06728231 -0.067466274 0.069413595 -0.11727847 0.1169067 -0.052173782
-0.15153457 -0.13181895 0.15159555 -0.0037548244 0.029730886 0.10255779 0.07688461 -0.07951391
-0.15488343 -0.15386668 -0.11288275 -0.00017634034 0.048380837 0.12917508 -0.0869146 0.0137337595
-0.112280086 0.06473014 -0.00061137974 0.15874247 0.11994286 0.15425216 0.12206738 0.02855727
0.097822145 -0.0853759 -0.118881255 -0.1556792 0.023693815 0.13052635 0.008287251 0.15831865
0.13477899 0.11476143 0.012108326 -0.17021114 -0.11272444 -0.105374284 0.13111164 -0.0017392784
-0.025825053 -0.04145311 -0.02564627 0.09852646 -0.045818597 -0.12524256 0.13570194 0.017500177
0.03691584 0.06933907 -0.020315334 0.012280881 -0.13175695 -0.049462155 -0.063100405 0.10808821
-0.099162385 -0.015774012 0.1303301 0.10764207 0.15967362 0.049711958 -0.0122163 -0.10924379
00000000: 184f e6bc 9d29 25be cb8d 1b3e d002 5c3c
00000010: d0a9 a5bd 5fd7 1e3e 90f7 5a3c 1c09 cdbd
00000020: c937 2abe 0594 e5bd 0005 ffbb 803f 543d
00000030: 6821 42bd 7db8 2b3e 4ddf 1c3e 0f64 15be
00000040: 041c 103d bbd2 2ebe 202d eebc fc04 643d
00000050: 7217 09be 6afa e53d 0401 203d a81e c4bd
00000060: 8a2d a63d 7084 20bc 6659 be3d 9c57 943d
00000070: 55d6 0c3e 4010 a93c 603b 82bb 91b5 2d3e
00000080: 7ccf c7bd f3a7 f6bd d8f4 14be 7d34 343e
00000090: e537 ddbd 2a10 da3d 0ce5 5c3d e0a5 7b3c
000000a0: d3b3 87bd 9c5e 15be 5a2d d9bd 209d 723d
000000b0: b10e 0c3e 5926 283e e05a a8bb 2c79 253d
000000c0: 5f25 c9bd e7ff 01be 4a6e c43d 0eff 8dbd
000000d0: 9bad 2d3e 4f18 a4bd b8f6 843c 014b 14be
000000e0: 6819 473d 0094 a0b9 b437 07be 8f98 33be
000000f0: 4455 f9bd 9127 343e d451 6bbd 6424 98bd
00000100: 9587 b33d dab4 013d 3a7c 843d 5778 02bd
00000110: 6e00 86bd 4b21 4fbd 1dbd b03d 321e 063e
00000120: 6792 4a3e 0fc2 583c 3206 1bbd e52a cebd
00000130: 3591 05bd 2ab1 c9bd ca31 89bd f119 f5bb
00000140: 21bc 12bc 80f4 703d db36 cbbd 55e6 553e
00000150: 466b 28bd 50ec 27be 7351 053e 7856 113d
00000160: 969a f0bd b805 04bd 6bf5 a43c 5081 f63b
00000170: f357 013e da65 aebd 0cfb c3bd 3d7e 78bd
00000180: 54a4 2ebe d6a2 bdbd ecef 28be fec1 78bd
00000190: 19e1 2e3e 06ef b5bd e7ab 9abd 887a 0abe
000001a0: bfdb 28be 7d5b d5bd bcc0 38bd e496 19bd
000001b0: 7283 c33d c854 dcbd a098 ac3c 1a90 f3bd
000001c0: e742 1d3e e015 d03c 51b1 18be 8d04 8fbd
000001d0: f42d 69bd 900a a4bd 6ce3 2d3d cfd7 273e
000001e0: 904b 1d3d bdd9 2ebe 1308 1c3e ee5e 24be
000001f0: 2c30 07be 7d8a 1f3e 588c 95bc ffea 23be
00000200: 5c3b 193d 1899 ae3c 5dda a0bd 7f1c bfbd
00000210: ef86 273e cab6 e23d a8c7 733d 6876 09be
00000220: a342 2e3e f863 a8bc a6fb 8e3d 8fff f7bd
00000230: 70c2 7bbd 9ffc e2bd 487c e83c 863a de3d
00000240: 98da f23c 54e2 0fbe a646 db3d c621 c8bd
00000250: 740e 00be d6c1 5fbd e80d 8a3d f28a de3d
00000260: 9567 133e 4a2e f5bd b1a3 fdbd 48dd 10bd
00000270: 1a7e 30be 72cc b83d a5fc 013e 14cc 32bd
00000280: df8f 95bd 18b7 0fbe 1e87 c63d 9414 d7bd
00000290: 5019 5cbd 39e5 fcbc f460 1dbd 3792 2c3e
000002a0: 40c0 25bd ab57 50bc 84a6 703e 0f17 fbbd
000002b0: 7a9f 02be 33d0 14bd d102 d0bd bfa2 bcbd
000002c0: 56b2 513e 746f 16be 0a37 69bc fc6b 8f3d
000002d0: a6c7 dbbd 599e 213d 168b c23d 5c4f c0bd
000002e0: df2f 843d 25b3 4fbe 4fcb 89bd c22b 8abd
000002f0: b728 8e3d b22f f0bd c86c ef3d 2db4 55bd
00000300: e12b 1bbe 8cfb 06be dd3b 1b3e 8013 76bb
00000310: 308e f33c d209 d23d ae75 9d3d 30d8 a2bd
00000320: c399 1ebe 3a8f 1dbe 122f e7bd 00e8 38b9
00000330: fc2a 463d 7946 043e 4800 b2bd 9003 613c
00000340: 1af3 e5bd 3c91 843d 0045 20ba 638d 223e
00000350: 9aa4 f53d 47f4 1d3e 76fe f93d f0f0 e93c
00000360: fa56 c83d 8fd9 aebd 0478 f3bd 5e6a 1fbe
00000370: 8819 c23c b3a8 053e 40c7 073c 491e 223e
00000380: 8103 0a3e 0a08 eb3d 0062 463c d44b 2ebe
00000390: 12dc e6bd 79ce d7bd 2142 063e 80f8 e3ba
000003a0: 108f d3bc bcca 29bd 2018 d2bc 3ec8 c93d
000003b0: 48ac 3bbd 963f 00be 73f5 0a3e 885c 8f3c
000003c0: 1035 173d a401 8e3d 586c a6bc c035 493c
000003d0: 4beb 06be d498 4abd c93a 81bd 5a5d dd3d
000003e0: a615 cbbd 8038 81bc 4175 053e 7273 dc3d
000003f0: 7b81 233e c49e 4b3d e026 48bc 35bb dfbd

arith.constant11 f4 [32, 1, 3, 32]
-0.11089409 0.03392361 0.13544072 0.12674938 0.041554347 0.068159625 -0.16220121 -0.10251799
-0.15106665 0.029306263 -0.081525534 0.029041573 0.16194828 0.017270893 0.12142868 -0.084136575
-0.008439615 -0.0052083433 0.011841416 -0.084685326 0.16931157 0.16922532 0.07492097 -0.17410664
-0.13057548 0.006091237 -0.083523504 0.1521581 0.08874874 0.0690971 0.019374192 0.1113105
0.029804517 0.13865133 -0.28772247 -0.048812356 0.08589954 0.2054488 0.11068422 0.13910514
-0.03324228 0.14802907 0.10291503 0.13614666 0.0014642704 -0.036102593 0.030566106 -0.05124947
0.15621664 -0.085889734 -0.06038311 0.09932893 -0.16857715 0.024575727 -0.12522505 -0.005418549
-0.015486599 0.02938181 0.08175799 0.056571934 -0.043221798 0.062387127 0.07453118 -0.1503387
0.18457408 -0.06204046 0.015423609 -0.1774115 0.10443482 0.023376692 -0.07243268 -0.106886536
0.024261046 -0.108130194 0.10186306 0.17214994 0.07456976 0.101693854 -0.017825041 0.029792191
0.19273232 -0.15196645 -0.0028380854 0.10846835 0.078822054 -0.07831969 0.14919885 -0.115785494
-0.08907389 -5.78936e-05 0.03169409 0.052077033 0.029956058 -0.08033422 -0.12246612 -0.0094560245
0.10631202 0.13768028 -0.0949748 -0.09250504 0.14744557 0.023285076 -0.08306794 -0.12502436
0.00887996 0.04814127 -0.11053192 -0.0036082715 -0.016974181 0.010782808 0.06418902 0.062796146
-0.055925667 0.16505347 0.10581796 0.043960378 -0.11066207 0.117873445 -0.053005688 -0.15381673
-0.024053916 -0.083073586 0.018120527 -0.16257507 0.04336776 -0.16118632 -0.029684067 0.02833739
0.055698838 0.073051795 -0.1376761 -0.023004197 -0.017966213 0.078593954 0.0060180672 0.16707352
-0.13406025 0.19094047 -0.16441593 -0.07796234 -0.11932417 0.09465583 -0.054195244 -0.11453489
0.057273913 -0.096914664 0.13000004 -0.16897084 -0.013230652 -0.13130857 -0.066236 -0.14233138
0.13874349 0.035785425 -0.14537925 -0.061175313 0.12021129 0.05186539 -0.12529115 0.03780976
0.2604062 0.18388836 0.098346084 -0.0694324 0.06785198 0.05081517 0.058305927 -0.106792346
-0.016622206 -0.049428318 0.12224134 0.037135985 0.09394192 -0.0069401492 -0.19965439 -0.117866136
-0.05993991 -0.04823284 -0.04287955 -0.10872588 0.11305788 -0.13585676 -0.10101665 -0.11596084
-0.067113735 0.12892163 0.06991694 0.14080067 0.008266522 0.13140018 0.18655005 -0.20123175
0.09134044 -0.17025578 0.01344274 0.09447394 -0.034255907 -0.079472855 0.06662236 0.00358589
0.11870663 0.029086262 -0.085074425 0.04430388 -0.014141828 0.039566234 0.0901535 0.014914677
0.086967275 0.16696446 -0.042924076 0.072913244 -0.060371816 0.034606487 0.0755436 -0.018167734
0.10397951 -0.0005777031 0.025001347 -0.026175886 -0.08015411 -0.074511245 0.028550237 0.16244517
-0.010044127 0.0082103945 -0.07790382 0.1420882 0.035583444 -0.087902114 -0.20452982 -0.16138907
-0.12588714 -0.075661 -0.07841307 0.012062291 -0.10002652 -0.029182859 -0.17497936 0.010606733
-0.00100851 0.17941058 0.14239265 -0.077018745 -0.10454628 0.117951326 -0.14782505 -0.021032386
0.017286189 0.027874008 0.07997624 0.064934306 -0.06284425 -0.055706937 0.0022227652 0.12581472
00000000: 711c e3bd 7cf3 0a3d f9b0 0a3e 97ca 013e
00000010: e434 2a3d 4697 8b3d 1318 26be f4f4 d1bd
00000020: 37b1 1abe b013 f03c dcf6 a6bd 98e8 ed3c
00000030: c5d5 253e b07b 8d3c 9aaf f83d cc4f acbd
00000040: 5046 0abc c0aa aabb 8002 423c 806f adbd
00000050: 0360 2d3e 6749 2d3e 2a70 993d 0349 32be
00000060: 94b5 05be 0099 c73b 5f0e abbd 55cf 1b3e
00000070: e6c1 b53d c882 8d3d a0b6 9e3c c2f6 e33d
00000080: 9a28 f43c 9dfa 0d3e 5c50 93be 77ef 47bd
00000090: 19ec af3d 2c61 523e 69ae e23d 9471 0e3e
000000a0: 0f29 08bd ef94 173e 1ec5 d23d 086a 0b3e
000000b0: c3ec bf3a 50e0 13bd c565 fa3c f7ea 51bd
000000c0: 41f7 1f3e f5e6 afbd 4854 77bd f76c cb3d
000000d0: 7d9f 2cbe 0953 c93c ff3a 00be 158e b1bb
000000e0: 81bb 7dbc 1fb2 f03c bc70 a73d f9b7 673d
000000f0: 5709 31bd a589 7f3d cea3 983d 63f2 19be
00000100: fd00 3d3e 231e 7ebd 4eb3 7c3c 5cab 35be
00000110: ece1 d53d 7a80 bf3c 9657 94bd 54e7 dabd
00000120: 1abf c63c 5d73 ddbd 949d d03d 1348 303e
00000130: 08b8 983d de44 d03d d205 92bc c10e f43c
00000140: 9f5b 453e 189d 1bbe 2cff 39bb a724 de3d
00000150: 756d a13d 1366 a0bd 95c7 183e f220 edbd
00000160: 5f6c b6bd c8d2 72b8 aad1 013d ba4e 553d
00000170: 6866 f53c 4486 a4bd 84cf fabd 71ed 1abc
00000180: 1eba d93d 0ffc 0c3e 2682 c2bd 4873 bdbd
00000190: f9fb 163e 58c0 be3c 861f aabd 6306 00be
000001a0: 407d 113c c82f 453d 8f5e e2bd c078 6cbb
000001b0: 700d 8bbc 60aa 303c 8875 833d 449b 803d
000001c0: 5012 65bd c703 293e 16b7 d83d cc0f 343d
000001d0: cca2 e2bd a267 f13d 7e1c 59bd 2282 1dbe
000001e0: b80c c5bc 7c22 aabd 8071 943c 147a 26be
000001f0: 64a2 313d 070e 25be 002c f3bc d023 e83c
00000200: 7724 643d 2e9c 953d f7fa 0cbe 4c73 bcbc
00000210: e12d 93bc def5 a03d 3533 c53b 5215 2b3e
00000220: 1747 09be e685 433e a65c 28be b8aa 9fbd
00000230: 3b60 f4bd eada c13d d5fb 5dbd 4591 eabd
00000240: 0d98 6a3d 327b c6bd bb1e 053e b106 2dbe
00000250: 60c5 58bc c175 06be bda6 87bd 51bf 11be
00000260: c612 0e3e bd93 123d 4cde 14be f792 7abd
00000270: 5631 f63d ce70 543d 534c 00be 68de 1a3d
00000280: f653 853e 3b4d 3c3e ac69 c93d 9332 8ebd
00000290: fbf5 8a3d 9123 503d 32d2 6e3d f2b5 dabd
000002a0: 4b2b 88bc 5975 4abd ab59 fa3d e71b 183d
000002b0: 9f64 c03d 316a e3bb 3372 4cbe cd63 f1bd
000002c0: 8d83 75bd cc8f 45bd 78a2 2fbd adab debd
000002d0: e48a e73d 091e 0bbe d1e1 cebd e07c edbd
000002e0: ed72 89bd 0804 043e 9d30 8f3d 0d2e 103e
000002f0: 4e70 073c c58d 063e fa06 3f3e b20f 4ebe
00000300: b210 bb3d 8857 2ebe f03e 5c3c 8e7b c13d
00000310: ec4f 0cbd aac2 a2bd 4e71 883d 4001 6b3b
00000320: 761c f33d 5046 ee3c 803b aebd fc77 353d
00000330: 20b3 67bc 3410 223d 66a2 b83d b05c 743c
00000340: e61b b23d bbf8 2a3e 28d1 2fbd 8a53 953d
00000350: 7048 77bd 88bf 0d3d 9ab6 9a3d 80d4 94bc
00000360: 36f3 d43d 0071 17ba a0cf cc3c d06e d6bc
00000370: d727 a4bd 5a99 98bd 30e2 e93c 0758 263e
00000380: 1f90 24bc e484 063c 0a8c 9fbd 927f 113e
00000390: f2bf 113d 0606 b4bd 4470 51be 2d43 25be
000003a0: 8fe8 00be 28f4 9abd 0897 a0bd eaa0 453c
000003b0: b4da ccbd e410 efbc ca2d 33be ddc7 2d3c
000003c0: fb2f 84ba 68b7 373e 61cf 113e 01bc 9dbd
000003d0: 5c1c d6bd 7790 f13d 735f 17be 1c4c acbc
000003e0: c49b 8d3c 0858 e43c 95ca a33d 47fc 843d
000003f0: 7cb4 80bd f52c 64bd d0ab 113b 93d5 003e

arith.constant12 f4 [32, 1, 3, 32]
-0.0009422302 0.080475226 0.0009524375 -0.11567367 -0.11037012 -0.05587066 -0.13808745 0.03951785
0.06823844 0.08596127 -0.10113587 0.08345334 -0.036363885 -0.11834569 0.039865643 -0.029153943
-0.08794711 0.161463 0.14760853 -0.11278497 0.17424957 0.041601047 -0.019330233 -0.14623594
0.15033676 0.16844265 -0.15966637 -0.13150634 -0.121006 0.13715874 -0.03914371 0.17004533
0.121672936 -0.072541185 -0.021571193 0.002046815 0.049895898 0.116021805 0.16310444 -0.101332836
0.020578483 -0.11566351 -0.0747585 0.10776708 -0.059842248 -0.20966537 0.059574503 0.081863135
0.07921536 0.006443943 0.15932433 0.1252499 -0.06427318 0.02019377 0.07458755 0.15427431
0.014609762 0.1482501 0.028599244 -0.04339501 -0.027362902 -0.006513845 0.019570632 -0.05229433
-0.17887779 -0.17900139 0.10730582 -0.091059886 -0.1321999 -0.04700934 -0.09278286 0.33259308
0.20568952 -0.098435566 -0.048130773 -0.3368146 0.14758073 -0.097068705 -0.03298768 -0.003505824
0.18374452 0.07125793 -0.26548034 0.02435291 0.08672493 -0.01562041 -0.0728584 0.0032416398
0.03933727 -0.055701114 0.0751476 -0.14919604 0.10548464 0.06401277 -0.09194543 -0.059032638
0.057632357 -0.10055859 -0.15640315 -0.0053133667 -0.027550593 -0.14870512 -0.16525812 -0.05813475
-0.016173854 -0.118676424 -0.105386384 0.06312531 0.0028779954 0.1377381 0.051491305 -0.055504024
-0.030646741 0.10933985 0.03859265 0.11155166 0.12208818 -0.14594877 0.020967767 -0.083507404
0.10875581 -0.050398737 -0.021608442 -0.061083555 -0.022309676 -0.02858074 -0.10791464 -0.16593269
-0.15673631 0.07203453 -0.16008814 -0.15952156 0.10321499 -0.03695218 -0.09723299 -0.026593942
0.13143471 -0.12073611 0.16031739 0.124439426 0.1498967 -0.04089267 0.11174633 0.16416949
-0.078352034 -0.012213574 -0.15667105 0.019732699 -0.20060009 0.09751932 -0.16462591 -0.17539056
0.0043130354 -0.20315757 0.12127523 -0.17621033 0.13296957 0.046447445 0.05801795 -0.060906753
-0.089817815 -0.18339777 0.17677592 -0.0842783 0.11425374 -0.1728199 -0.09420389 0.031050514
0.0015051741 -0.012251864 0.0489635 0.06277828 0.07972604 -0.09954241 0.06365764 0.11526979
0.040435664 0.01932602 -0.19432564 -0.15782313 0.058669005 0.1056665 0.2667492 -0.021501124
-0.01535055 0.19189441 0.0122674685 0.05437505 0.113547176 0.01862189 0.10205507 0.1182688
0.15949585 0.0063281357 -0.11801694 -0.12682521 0.010647982 0.04261139 0.0493218 0.15197124
0.045514345 0.14159651 0.10428326 0.08024441 -0.0063830614 0.099917695 -0.00063726306 -0.13862866
-0.01697582 0.03960994 0.07336627 0.084410444 0.043046847 0.03522414 0.029237822 -0.019004598
-0.056369387 0.10463123 -0.01262252 -0.11121731 -0.1361618 0.116964385 -0.011636317 0.09794922
0.16490111 -0.13215584 0.0065317806 -0.06012473 -0.0016543623 -0.03341976 0.05605664 0.2744707
0.16917197 -0.16559654 -0.03262218 0.04430341 0.066318735 0.13648307 0.04340079 0.19114386
0.08580311 0.2453662 -0.12826072 -0.06418478 0.03196392 -0.08976484 0.12308104 -0.24937959
0.0338062 -0.21139704 -0.049107987 -0.08020058 -0.0036010107 -0.12616189 0.017541064 -0.14780435
00000000: 0000 77ba 32d0 a43d 00ad 793a 51e6 ecbd
00000010: bb09 e2bd a2d8 64bd cc66 0dbe 78dd 213d
00000020: 98c0 8b3d 760c b03d 5320 cfbd 96e9 aa3d
00000030: 4cf2 14bd 3a5f f2bd 284a 233d 40d4 eebc
00000040: 9d1d b4bd 8f56 253e b126 173e cefb e6bd
00000050: 7b6e 323e dc65 2a3d 705a 9ebc e0be 15be
00000060: e1f1 193e 3b7c 2c3e 957f 23be 99a9 06be
00000070: fed1 f7bd 5773 0c3e 2855 20bd 5d20 2e3e
00000080: a92f f93d 7990 94bd 12b6 b0bc db23 063b
00000090: a45f 4c3d d79c ed3d da04 273e 9787 cfbd
000000a0: 3594 a83c fee0 ecbd fc1a 99bd fdb4 dc3d
000000b0: 251d 75bd 85b2 56be 6504 743d dca7 a73d
000000c0: aa3b a23d b627 d33b eb25 233e 8341 003e
000000d0: a8a1 83bd 686d a53c 5bc1 983d 16fa 1d3e
000000e0: c85d 6f3c e0ce 173e f648 ea3c f7be 31bd
000000f0: 2a28 e0bc 1872 d5bb 9752 a03c 9432 56bd
00000100: bd2b 37be 244c 37be 27c3 db3d 9b7d babd
00000110: 695f 07be de8c 40bd f104 bebd a449 aa3e
00000120: 46a0 523e 9698 c9bd c624 45bd f772 acbe
00000130: 671f 173e f5cb c6bd 171e 07bd f7c1 65bb
00000140: 8627 3c3e adef 913d 0aed 87be c17f c73c
00000150: d79c b13d c0ec 7fbc c936 95bd b171 543b
00000160: 1e20 213d da26 64bd fce6 993d d9c6 18be
00000170: 5508 d83d 2119 833d e34d bcbd 35cc 71bd
00000180: e80f 6c3d a9f1 cdbd 2628 20be c01b aebb
00000190: c8b1 e1bc 2846 18be 6d39 29be b41e 6ebd
000001a0: 087f 84bc a00c f3bd d1d4 d7bd d847 813d
000001b0: c09c 3c3b 370b 0d3e 8ce8 523d 3058 63bd
000001c0: e00e fbbc 92ed df3d 5413 1e3d 3275 e43d
000001d0: 5e09 fa3d 9873 15be 98c4 ab3c ee05 abbd
000001e0: 5ebb de3d e86e 4ebd 3004 b1bc c032 7abd
000001f0: c8c2 b6bc 2822 eabc 5a02 ddbd 42ea 29be
00000200: 7c7f 20be d786 933d 25ee 23be 9f59 23be
00000210: 6162 d33d 2b5b 17bd 1722 c7bd 8adb d9bc
00000220: d296 063e 7e44 f7bd 3e2a 243e 19da fe3d
00000230: 857e 193e 137f 27bd 43db e43d 0c1c 283e
00000240: 0877 a0bd 711b 48bc 606e 20be 78a6 a13c
00000250: 1c6a 4dbe 36b8 c73d b293 28be 9599 33be
00000260: 5d54 8d3b 8a08 50be 265f f83d 7b70 34be
00000270: 2d29 083e ad3f 3e3d 3ba4 6d3d 5c79 79bd
00000280: 67f2 b7bd a0cc 3bbe bf04 353e 1a9a acbd
00000290: ddfd e93d b3f7 30be f8ed c0bd a65d fe3c
000002a0: 4349 c53a 0bbc 48bc f38d 483d e691 803d
000002b0: 6847 a33d e4dc cbbd f05e 823d 9112 ec3d
000002c0: de9f 253d 9a51 9e3c 4dfd 46be 639c 21be
000002d0: e94e 703d ae67 d83d 5a93 883e 2023 b0bc
000002e0: e080 7bbc f87f 443e 7efd 483c 5fb8 5e3d
000002f0: 6c8b e83d ef8c 983c 4002 d13d ea36 f23d
00000300: e152 233e 405c cf3b deb2 f1bd 78de 01be
00000310: e074 2e3c 4889 2e3d a805 4a3d 599e 1b3e
00000320: 406d 3a3d adfe 103e 7692 d53d 2e57 a43d
00000330: 0029 d1bb a6a1 cc3d 000e 27ba acf4 0dbe
00000340: e010 8bbc 083e 223d 0e41 963d 62df ac3d
00000350: e451 303d 3047 103d 2884 ef3c 88af 9bbc
00000360: 96e3 66bd e648 d63d b0ce 4ebc e7c5 e3bd
00000370: 006e 0bbe 068b ef3d 40a6 3ebc 9a99 c83d
00000380: d6db 283e dc53 07be 8c08 d63b 5945 76bd
00000390: 30d7 d8ba 29e3 08bd a69b 653d 6c87 8c3e
000003a0: 6b3b 2d3e 2492 29be d69e 05bd 7e77 353d
000003b0: 1ed2 873d 38c2 0b3e 07c5 313d 37bb 433e
000003c0: 8ab9 af3d 4741 7b3e c756 03be 4f73 83bd
000003d0: 99ec 023d a1d6 b7bd ea11 fc3d 5d5d 7fbe
000003e0: 5f78 0a3d 7778 58be 7525 49bd 3440 a4bd
000003f0: effe 6bbb 9530 01be 47b2 8f3c 065a 17be

arith.constant13 f4 [32, 1, 3, 32]
-0.06295525 0.06640381 -0.06447296 -0.15317102 0.0034001733 0.24013557 -0.005753675 0.0362202
0.08821376 -0.084586605 -0.09138102 -0.0064255525 -0.089844674 0.017219076 0.09765559 -0.16301453
0.08101566 0.0948109 0.10324609 0.16165788 0.03333861 -0.01781329 -0.0114556225 -0.20220855
0.15006477 -0.022853594 0.078011915 0.17616458 -0.172588 -0.026404323 -0.009259067 -0.04226929
0.06871309 0.034589685 -0.109444514 -0.13574488 0.098148294 -0.10550736 -0.1272858 0.020992672
-0.08422722 -0.12821917 -0.04055806 0.18984234 -0.088346735 -0.010715645 -0.002596074 -0.015847083
-0.12969173 -0.092549145 -0.077723354 0.1413127 -0.004033086 0.11915858 0.035470944 0.004280793
-0.08378656 0.13274424 0.035762195 -0.041189045 -0.08545049 0.062847614 -0.041105848 -0.05162927
0.020260934 0.06915861 -0.088105164 0.12689261 0.14986263 0.19559997 0.12774482 -0.17341182
0.043255903 0.072284676 0.14759319 -0.03499591 -0.15876447 -0.11025384 0.07268481 -0.09512672
-0.044061247 -0.019539189 -0.07085093 0.13345057 -0.28108695 -0.11750122 -0.082731344 -0.01069599
-0.08914727 -0.061991815 0.028380381 -0.022764117 0.015626593 0.03787575 -0.0031454992 -0.14721096
0.017069105 0.15030672 -0.13153797 -0.013105797 0.03262925 -0.023000171 0.12372094 -0.0672343
0.06545573 -0.14927627 -0.032947116 0.12865587 0.019831358 -0.11224292 0.056079626 -0.11374875
0.057485722 -0.007577814 0.039609484 0.120923474 0.21123165 0.023821404 0.03832386 0.100724995
-0.21082658 -0.2595761 -0.08572687 0.09036079 -0.018076388 0.07482134 0.012972715 0.10680302
-0.04503053 -0.046646014 -0.064615816 -0.21133532 0.0614649 -0.04987531 -0.18507001 -0.14728649
-0.06918381 -0.04153586 0.07776267 0.16554287 -0.12730208 0.09005006 -0.045352284 0.2710726
0.12508748 -0.088599 -0.036712725 0.05353253 -0.10529075 -0.059799615 -0.262708 0.07152754
0.09716629 -0.035604537 0.016888388 0.048932448 -0.03409896 0.0069521354 0.048244968 0.18593664
-0.23339519 0.036037114 -0.14957209 0.09480379 0.1151216 0.12605734 -0.09484719 -0.129666
0.06681912 0.031605877 0.037751045 -0.18948732 -0.017320605 0.14170231 -0.06287316 -0.1001052
-0.09034443 0.11112675 -0.059214976 0.055042706 -0.17493182 0.27016708 0.18864669 -0.19536686
0.037435386 0.19213195 -0.16281947 0.006868705 -0.050054263 0.06444947 0.010480702 -0.038053185
-0.01956518 -0.23358057 0.06639714 -0.18684451 -0.048705064 -0.16378427 -0.08358513 -0.13719861
-0.15993758 -0.07818339 0.008626357 0.12901214 0.095664605 0.06766727 -0.02576624 0.22095951
-0.04455254 -0.03484238 0.0050087357 0.0770398 -0.0723804 -0.14997923 0.0076281056 -0.007836334
0.015114138 0.16590545 -0.10443548 0.013031364 -0.058647912 -0.06830305 0.0005675564 0.014103446
-0.075742766 0.024356147 0.16971114 0.09682385 -0.12276685 -0.21851248 0.12586491 -0.21868838
-0.20272002 0.120019525 0.09731367 -0.14392109 -0.06718754 -0.012935408 0.051568538 -0.09785161
0.051782127 -0.120979466 -0.17065497 0.03852306 0.06434451 0.1839561 0.07928106 0.1644654
0.048675492 0.1815701 0.15292943 0.05946779 0.1162462 0.07144501 0.11055985 -0.1071062
00000000: afee 80bd b9fe 873d 660a 84bd ddd8 1cbe
00000010: 71d5 5e3b 19e6 753e 5389 bcbb a25b 143d
00000020: 6aa9 b43d be3b adbd f925 bbbd 718d d2bb
00000030: 7c00 b8bd 050f 8d3c a7ff c73d 48ed 26be
00000040: 8aeb a53d 382c c23d b072 d33d a589 253e
00000050: 118e 083d 2ded 91bc 5db0 3bbc c20f 4fbe
00000060: 94aa 193e 7637 bbbc b6c4 9f3d 7d64 343e
00000070: e9ba 30be e14d d8bc 57b3 17bc 9022 2dbd
00000080: 73b9 8c3d eaad 0d3d 7224 e0bd b500 0bbe
00000090: f901 c93d 3e14 d8bd 3557 02be d3f8 ab3c
000000a0: 527f acbd e34b 03be 3520 26bd 0866 423e
000000b0: 22ef b4bd ac90 2fbc e522 2abb bed1 81bc
000000c0: e9cd 04be 688a bdbd 6c2d 9fbd 47b4 103e
000000d0: fa27 84bb 6a09 f43d fb49 113d e545 8c3b
000000e0: 4a98 abbd 1bee 073e 617b 123d d8b5 28bd
000000f0: ab00 afbd 40b6 803d 9b5e 28bd 3779 53bd
00000100: 42fa a53c 08a3 8d3d 7b70 b4bd 23f0 013e
00000110: 9775 193e 5c4b 483e 8acf 023e de92 31be
00000120: 1a2d 313d fd09 943d ab22 173e df57 0fbd
00000130: 2793 22be c4cc e1bd c6db 943d ccd1 c2bd
00000140: 9179 34bd a610 a0bc 4b1a 91bd 44a7 083e
00000150: a1ea 8fbe 7ba4 f0bd 0d6f a9bd 3c3e 2fbc
00000160: d892 b6bd 21eb 7dbd f97d e83c d07b babc
00000170: 5703 803c 9a23 1b3d b824 4ebb 78be 16be
00000180: 82d4 8b3c 01ea 193e e4b1 06be b2b9 56bc
00000190: 40a6 053d db6a bcbc 6761 fd3d 23b2 89bd
000001a0: a70d 863d e1db 18be 8ef3 06bd 5dbe 033e
000001b0: 5f75 a23c 9edf e5bd c0b3 653d 1bf5 e8bd
000001c0: 2676 6b3d 504f f8bb 8e3d 223d baa6 f73d
000001d0: 1c4d 583e 1b25 c33c 7bf9 1c3d e848 ce3d
000001e0: ece2 57be 29e7 84be 9291 afbd 140f b93d
000001f0: ef14 94bc ee3b 993d 838b 543c 8bbb da3d
00000200: ef71 38bd e40f 3fbd 4c55 84bd 4968 58be
00000210: 9ec2 7b3d 0e4a 4cbd fe82 3dbe 45d2 16be
00000220: 3eb0 8dbd 8221 2abd 0942 9f3d 1284 293e
00000230: 7a5b 02be 2a6c b83d 51c3 39bd 07ca 8a3e
00000240: ef16 003e 6473 b5bd 1560 16bd ed44 5b3d
00000250: ada2 d7bd 71f0 74bd aa81 86be 087d 923d
00000260: 1fff c63d 10d6 11bd 8459 8a3c 646d 483d
00000270: 5aab 0bbd bdce e33b 849c 453d 2d66 3e3e
00000280: 26ff 6ebe a79b 133d 6d29 19be 7d28 c23d
00000290: e0c4 eb3d 2d15 013e 3e3f c2bd 2ac7 04be
000002a0: 76d8 883d 2a75 013d d7a0 1a3d f708 42be
000002b0: f1e3 8dbc 691a 113e a5c3 80bd f503 cdbd
000002c0: 8006 b9bd 6c96 e33d 678b 72bd 7674 613d
000002d0: 5421 33be 5753 8a3e 992c 413e 400e 48be
000002e0: d955 193d 3dbe 443e 26ba 26be e012 e13b
000002f0: b305 4dbd 15fe 833d 40b7 2b3c a8dd 1bbd
00000300: 2847 a0bc bf2f 6fbe 39fb 873d 2b54 3fbe
00000310: f67e 47bd 10b7 27be ae2e abbd cb7d 0cbe
00000320: adc6 23be 9d1e a0bd 9055 0d3c c21b 043e
00000330: ceeb c33d 2395 8a3d b913 d3bc 3643 623e
00000340: b97c 36bd e2b6 0ebd 5220 a43b 0bc7 9d3d
00000350: 2d3c 94bd 2894 19be 30f5 f93b f863 00bc
00000360: 4aa1 773c 1ee3 293e 45e2 d5bd 8181 553c
00000370: cb38 70bd 78e2 8bbd 11c8 143a 2412 673c
00000380: 061f 9bbd 8b86 c73c c2c8 2d3e 954b c63d
00000390: 306d fbbd bcc1 5fbe bbe2 003e d9ef 5fbe
000003a0: d695 4fbe cccc f53d 644c c73d 0d60 13be
000003b0: 9f99 89bd 09ef 53bc 8839 533d 6d66 c8bd
000003c0: 7f19 543d 15c4 f7bd 2dc0 2ebe 5bca 1d3d
000003d0: 0ec7 833d fd5e 3c3e 1c5e a23d 9e69 283e
000003e0: f45f 473d 83ed 393e 8899 1c3e 7f94 733d
000003f0: 7d12 ee3d c351 923d 346d e23d 7f5a dbbd

arith.constant14 f4 [32, 1, 3, 32]
0.1932123 -0.041235607 0.038570218 -0.10133923 0.1366769 0.09075842 -0.07540039 -0.085566394
0.094044924 0.05902948 0.132017 -0.15545227 -0.17737514 -0.019631416 -0.14193994 0.035506424
0.06296175 -0.12197875 -0.051481742 -0.034704 -0.24228983 0.0712676 -0.035721555 0.042932425
0.14248365 -0.09217927 0.08134405 -0.0657282 0.10304677 0.07752432 0.1260261 -0.18613343
0.14236857 -0.13615432 0.13801767 -0.051213358 0.051151138 0.0055944743 0.1180476 -0.1034311
-0.09955613 0.14514054 0.08567548 -0.04973465 0.0048555196 -0.06588627 0.018656068 0.04530501
-0.17959137 -0.06886523 -0.06491726 0.036049556 0.053526685 -0.04831987 0.048975285 0.19642898
0.191931 0.07030078 -0.13937102 0.05113226 -0.044536106 0.06578121 -0.09751399 -0.0073087425
-0.16620617 0.14190172 0.003730262 0.05808798 -0.13152303 0.012652425 -0.28487638 -0.2044227
-0.13864784 -0.0814157 -0.13727668 -0.06246583 -0.043320093 -0.102850996 -0.057322957 -0.14449783
0.113656856 0.1907849 0.13625093 0.052380282 -0.0034033745 0.10002183 -0.039859492 -0.08514113
-0.2209321 -0.17869456 -0.09768107 -0.08682252 -0.16824059 0.0019357373 0.095459014 0.035154022
0.12258905 0.16295248 0.060743596 -0.26537767 0.09856694 0.06166073 0.010965374 -0.048535716
0.09229752 0.07170026 0.14339541 -0.08651355 -0.010215027 0.07161419 -0.14590396 -0.03932529
0.16561708 -0.15017956 -0.04955491 0.023157222 0.080560945 -0.16507089 -0.05285603 -0.018254751
-0.169602 0.012297716 0.18778844 -0.11372593 0.020850698 0.108096965 -0.051579457 0.10816797
-0.06639416 -0.09017891 0.04651222 0.024039028 0.11695535 -0.012983025 -0.13459678 0.2054448
-0.24653602 -0.07725943 0.13461185 -0.15288097 -0.122321315 -0.012978426 0.15865564 -0.011186372
0.046681546 0.1459313 0.1207468 -0.15396298 -0.07944519 -0.0074717263 -0.021070886 -0.18057328
-0.029718861 -0.03675715 -0.025129644 0.025531268 0.1483211 -0.13602136 0.060737867 -0.18450315
-0.13994756 0.0027879186 -0.20864525 -0.10426384 0.09907531 -0.0019759939 -0.09087877 0.24990432
0.08355058 -0.10054865 -0.18181252 -0.24367495 -0.022568807 -0.08765734 -0.02532792 -0.104053855
0.010436067 -0.111718774 -0.11266614 0.072759196 0.15075538 -0.018550705 0.119975336 -0.179963
0.14111756 0.22047974 0.09105207 -0.1466538 0.027670817 -0.13505459 -0.20117986 -0.10302159
-0.065247476 -0.024883118 0.029213747 0.15710406 0.09030523 -0.23716263 0.27092052 0.097566254
0.17645968 -0.099674955 0.0214821 -0.07429067 0.14476068 0.07261725 -0.061315335 -0.15574354
-0.10733519 0.014311603 0.14181052 0.013958311 -0.18602018 0.027361618 0.16484946 0.12710491
-0.14525202 0.13875276 0.08276968 -0.09712292 -0.1575558 -0.051022798 0.08001906 -0.015884224
-0.14619723 -0.08255364 -0.14298104 0.005196086 0.18830001 0.08720537 -0.040877692 -0.123398215
-0.09313617 -0.020810714 0.16948889 -0.09345171 0.047955196 -0.15948306 0.096805535 0.0987516
0.016308721 -0.07845885 0.07059976 -0.034324035 -0.122639894 0.074678764 0.06528218 0.16773304
-0.02739043 -0.08681812 0.0873016 -0.08616726 0.078059405 -0.22903197 0.028040087 -0.047878306
00000000: 72d9 453e abe6 28bd cefb 1d3d f18a cfbd
00000010: 07f5 0b3e 8ddf b93d 856b 9abd 6f3d afbd
00000020: a09a c03d e5c8 713d 772f 073e e12e 1fbe
00000030: d4a1 35be 10d2 a0bc b458 11be 2f6f 113d
00000040: 17f2 803d ffcf f9bd 85de 52bd c825 0ebd
00000050: d31a 78be bff4 913d c450 12bd e9d9 2f3d
00000060: 3ce7 113e 7cc8 bcbd b697 a63d 829c 86bd
00000070: 2f0a d33d 12c5 9e3d fc0c 013e c399 3ebe
00000080: 11c9 113e 0a6c 0bbe 8154 0d3e 19c5 51bd
00000090: db83 513d da51 b73b f1c2 f13d afd3 d3bd
000000a0: 16e4 cbbd b99f 143e a076 af3d 8fb6 4bbd
000000b0: 0d1b 9f3b 61ef 86bd 9cd4 983c bf91 393d
000000c0: cde6 37be 3709 8dbd 57f3 84bd b3a8 133d
000000d0: cc3e 5b3d 0eeb 45bd 4f9a 483d ae24 493e
000000e0: 8f89 443e dbf9 8f3d 47b7 0ebe 1070 513d
000000f0: 7e6b 36bd 4db8 863d 6ab5 c7bd 2d7e efbb
00000100: f331 2abe af4e 113e 6977 743b a9ed 6d3d
00000110: f9ad 06be 1e4c 4f3c 51db 91be 2f54 51be
00000120: b3f9 0dbe 46bd a6bd 4292 0cbe 2cdc 7fbd
00000130: 6970 31bd 8ba3 d2bd 7acb 6abd 3df7 13be
00000140: edc4 e83d 1e5d 433e 5d85 0b3e b58c 563d
00000150: 260b 5fbb 3fd8 cc3d b543 23bd 795e aebd
00000160: 063c 62be b5fb 36be 030d c8bd 01d0 b1bd
00000170: 4347 2cbe 91b8 fd3a 0480 c33d aafd 0f3d
00000180: f80f fb3d 04dd 263e 47ce 783d 95df 87be
00000190: 77dd c93d f68f 7c3d 1da8 333c 63cd 46bd
000001a0: 7b06 bd3d 96d7 923d 3fd6 123e 042e b1bd
000001b0: ee5c 27bc 76aa 923d d967 15be 8e13 21bd
000001c0: 8697 293e acc8 19be 17fa 4abd 37b4 bd3c
000001d0: 23fd a43d 5808 29be 917f 58bd fd8a 95bc
000001e0: 26ac 2dbe 5c7c 493c 9d4b 403e 24e9 e8bd
000001f0: 15cf aa3c f161 dd3d fb44 53bd 2b87 dd3d
00000200: a9f9 87bd b8af b8bd 9983 3e3d 7fed c43c
00000210: 4986 ef3d c1b6 54bc bdd3 09be 1f60 523e
00000220: f073 7cbe 313a 9ebd b0d7 093e d48c 1cbe
00000230: 9983 fabd 77a3 54bc a076 223e 0b47 37bc
00000240: 2635 3f3d 046f 153e 194a f73d 79a8 1dbe
00000250: 29b4 a2bd 62d5 f4bb da9c acbc 34e8 38be
00000260: f874 f3bc aa8e 16bd afdc cdbc f326 d13c
00000270: 7de1 173e 2f49 0bbe 45c8 783d 65ee 3cbe
00000280: 6a4e 0fbe 83b5 363b 1aa7 55be 4888 d5bd
00000290: ffe7 ca3d ad7f 01bb a61e babd ebe6 7f3e
000002a0: 911c ab3d 73ec cdbd 102d 3abe ed85 79be
000002b0: 38e2 b8bc b185 b3bd 807c cfbc 301a d5bd
000002c0: 0afc 2a3c d0cc e4bd 81bd e6bd c602 953d
000002d0: 9e5f 1a3e a6f7 97bc a1b5 f53d 3848 38be
000002e0: 1f81 103e 71c5 613e 8279 ba3d 6a2c 16be
000002f0: e9ad e23c c04b 0abe 1802 4ebe fcfc d2bd
00000300: 78a0 85bd aed7 cbbc ab51 ef3c e3df 203e
00000310: f3f1 b83d c3da 72be 18b6 8a3e d1d0 c73d
00000320: d9b1 343e 6222 ccbd 3bfb af3c b525 98bd
00000330: 253c 143e 5ab8 943d ca25 7bbd 3c7b 1fbe
00000340: 8dd2 dbbd 377b 6a3c c736 113e 66b1 643c
00000350: 137c 3ebe 7925 e03c 4cce 283e ca27 023e
00000360: f2bc 14be 3415 0e3e 2683 a93d 62e8 c6bd
00000370: 4f56 21be 48fd 50bd 08e1 a33d a21f 82bc
00000380: bab4 15be e211 a9bd 9f69 12be ee43 aa3b
00000390: b8d1 403e bb98 b23d 5e6f 27bd 34b8 fcbd
000003a0: 2dbe bebd 3b7b aabc 7f8e 2d3e 9c63 bfbd
000003b0: ab6c 443d 874f 23be fb41 c63d 473e ca3d
000003c0: de99 853c 09af a0bd 9b96 903d 5c97 0cbd
000003d0: a02a fbbd 2ef1 983d aab2 853d 36c2 2b3e
000003e0: e561 e0bc b3cd b1bd 2ecb b23d 7678 b0bd
000003f0: 9cdd 9f3d 5b87 6abe 53b4 e53c 0b1c 44bd
