common/src/main/assets/tcn_models/tcn_25min.tflite (tflite, 224816 bytes, 39 tensors)

arith.constant f4 [64]
0.024952864 -0.023026546 -0.041322462 0.023081755 0.022869466 -0.009547971 -0.006821139 0.03037197
0.011365595 0.020166855 0.051844053 0.032352526 -0.02229452 -0.027226476 0.052904934 0.01726497
-0.012219039 0.047462493 0.051718734 0.067476965 -0.004423025 0.04198242 0.09190654 0.009111926
0.006715805 0.009906629 -0.0003180144 -0.02126044 -0.02957735 0.07811829 -0.051828824 0.022411814
0.03757374 -0.048926312 0.053674866 -0.036996506 -0.0011654756 -0.035664614 -0.0259093 0.024822421
-0.04665638 -0.02235654 -0.05774579 -0.02951047 -0.016390644 0.03944162 -0.022362739 0.07376166
-0.033580918 0.021247637 0.017193707 0.00670857 0.042991046 0.042541463 0.010904199 0.032736436
0.06649362 -0.0058005294 -0.030622948 -0.037224147 -0.024419159 -0.017821599 -0.073303744 0.021397367
00000000: f369 cc3c 2ba2 bcbc be41 29bd f315 bd3c
00000010: bf58 bb3c 186f 1cbc dc83 dfbb a3ce f83c
00000020: c336 3a3c f634 a53c 6e5a 543d 1584 043d
00000030: ffa2 b6bc 0f0a dfbc d8b2 583d 446f 8d3c
00000040: 5d32 48bc 0868 423d 06d7 533d 5d31 8a3d
00000050: 06ef 90bb c2f5 2b3d 7f39 bc3d 304a 153c
00000060: 4110 dc3b 6a4f 223c 2cbb a6b9 602a aebc
00000070: 334c f2bc 7bfc 9f3d 764a 54bd fb98 b73c
00000080: ece6 193d f566 48bd 2dda 5b3d a689 17bd
00000090: dfc2 98ba 0f15 12bd be3f d4bc 6458 cb3c
000000a0: c31a 3fbd 1025 b7bc d986 6cbd f1bf f1bc
000000b0: ac45 86bc 898d 213d 1032 b7bc 5a10 973d
000000c0: 258c 09bd 860f ae3c d1d9 8c3c 90d3 db3b
000000d0: 6117 303d f53f 2e3d 87a7 323c a416 063d
000000e0: cf2d 883d 5e12 bebb fadc fabc 5978 18bd
000000f0: b00a c8bc 9afe 91bc 4620 96bd 8849 af3c

arith.constant1 f4 [32]
-0.026610376 -0.004573413 0.050187524 -0.08313892 0.033607867 -0.015916541 -0.03836064 0.03211175
0.013780996 -0.0011611034 0.066413246 -0.025716305 -0.019411582 0.022241697 -0.06521946 -0.034230635
-0.05312867 -0.042916853 -0.01409748 -0.028923072 -0.044382695 -0.11264632 0.035076343 0.06035042
-0.03410211 0.002696165 0.0052465172 0.028635468 0.015170374 -0.052743997 0.06659238 -0.0049580964
00000000: 01fe d9bc 92dc 95bb 6f91 4d3d bd44 aabd
00000010: 67a8 093d 6863 82bc 0c20 1dbd 9c87 033d
00000020: b0c9 613c 2a30 98ba ab03 883d 00ab d2bc
00000030: 0a05 9fbc 3834 b63c c891 85bd 6c35 0cbd
00000040: 739d 59bd 95c9 2fbd 1ef9 66bc 14f0 ecbc
00000050: a1ca 35bd 1db3 e6bd 36ac 0f3d 0132 773d
00000060: a7ae 0bbd 24b2 303b faea ab3b ee94 ea3c
00000070: 298d 783c 170a 58bd 9661 883d 8777 a2bb

arith.constant2 f4 [32]
-0.085963495 -0.09965675 -0.062118176 -0.027752113 0.07311412 0.06883292 0.09140467 -0.015815323
0.020188121 -0.05943168 0.058078725 -0.05391426 -0.020433893 -0.09932348 0.018922849 -0.014994912
-0.013167084 0.037616607 0.046804003 -0.0018577178 0.047380034 -0.061715618 -0.07522318 0.0025647602
-0.06790119 -0.027190786 -0.02144579 -0.05745606 0.031850714 -0.0592962 0.03466719 -0.06065433
00000000: a10d b0bd d718 ccbd a16f 7ebd 6658 e3bc
00000010: dbbc 953d 46f8 8c3d 5f32 bb3d 238f 81bc
00000020: 8f61 a53c a26e 73bd f5e3 6d3d 33d5 5cbd
00000030: fb64 a7bc 1c6a cbbd 1704 9b3c 38ad 75bc
00000040: c1ba 57bc df13 1a3d 8eb5 3f3d aa7e f3ba
00000050: 9111 423d 84c9 7cbd 9c0e 9abd 8915 283b
00000060: c70f 8bbd 36bf debc 15af afbc 0c57 6bbd
00000070: e575 023d 92e0 72bd 2fff 0d3d ad70 78bd

arith.constant3 f4 [32]
-0.05632295 -0.018710066 0.05597906 0.035283085 -0.03371978 0.0751184 0.032163125 0.07338698
-0.003822255 0.028973116 -0.04681528 0.046895582 -0.0141133005 -0.022336194 0.037538063 -0.057806335
-0.011235479 0.039883003 0.017467387 -0.024567774 0.033971965 -0.059578557 -0.0028501716 0.08342823
0.07256564 0.050695565 0.055665236 0.017207934 -0.007031969 0.08485303 -0.022777982 -0.021312287
00000000: e5b2 66bd da45 99bc 4c4a 653d ff84 103d
00000010: c11d 0abd add7 993d 7bbd 033d ea4b 963d
00000020: cc7e 7abb 0759 ed3c 61c1 3fbd 9515 403d
00000030: 793b 67bc 65fa b6bc 83c1 193d 56c6 6cbd
00000040: 0415 38bc 5c5c 233d c417 8f3c 5b42 c9bc
00000050: 3026 0b3d a508 74bd f2c9 3abb 6bdc aa3d
00000060: 4b9d 943d 27a6 4f3d 3b01 643d a7f7 8c3c
00000070: 6e6c e6bb 6dc7 ad3d e498 babc 1b97 aebc

arith.constant4 f4 [311]
-0.10397399 -0.1053866 -0.12610555 -0.12801835 -0.11595709 -0.10817214 -0.12539035 -0.11279062
-0.11107602 -0.12029048 -0.09935222 -0.1116486 -0.10917093 -0.123715855 -0.100776024 -0.104812704
-0.118704535 -0.11011004 -0.11418729 -0.123038925 -0.09620297 -0.10225893 -0.11858333 -0.115542755
-0.1210462 -0.09913629 -0.10852165 -0.11749674 -0.122104526 -0.10578155 -0.11191285 -0.10668645
-0.116168804 -0.14053448 -0.12547772 -0.12528245 -0.115957275 -0.10742431 -0.105220914 -0.10537485
-0.10522434 -0.09097281 -0.09590313 -0.111087844 -0.10604239 -0.1112922 -0.10028584 -0.102253415
-0.09262799 -0.08874862 -0.07472323 -0.0744033 -0.07935725 -0.07921394 -0.08519971 -0.091376245
-0.09063302 -0.09102751 -0.083091564 -0.096607916 -0.09306941 -0.10960979 -0.08654398 -0.09034401
-0.07062706 -0.058206305 -0.062302332 -0.071404725 -0.040659726 -0.05805474 -0.05262698 -0.03342997
-0.04470856 -0.045283392 -0.056370057 -0.016020589 -0.059233807 -0.035776738 -0.040037554 -0.060636897
-0.034011267 -0.02379776 -0.0144026 -0.033559732 -0.009796459 -0.024689842 -0.0059741205 -0.0072594164
-0.019880189 0.010216527 0.0024241316 0.01696401 -0.006934174 0.0022519303 -0.0012158981 0.006213926
0.020013127 0.020140423 0.02736007 0.021891713 0.03548978 0.015089523 0.027372418 0.047912277
0.041340355 0.015627157 0.04962313 0.03292312 0.050250545 0.03436248 0.04543037 0.040295873
0.03206284 0.05612605 0.06402513 0.06800494 0.072152704 0.07435321 0.07742759 0.08386828
0.07486164 0.08416854 0.08588853 0.09083198 0.072957166 0.064777054 0.06712353 0.06842748
0.06867426 0.0603937 0.078469664 0.06023433 0.07501796 0.06938162 0.067566656 0.07004257
0.07242938 0.0804466 0.07966007 0.08248708 0.0883167 0.07967155 0.08982254 0.07797166
0.08839471 0.08174631 0.084589526 0.09210266 0.082776904 0.06350507 0.06703246 0.06320345
0.07044781 0.06303557 0.058821205 0.051410057 0.058141857 0.044922363 0.05713454 0.06735309
0.030513512 0.052844226 0.042186335 0.048223227 0.06447045 0.060745053 0.051165104 0.057765286
0.05351164 0.048736036 0.055153813 0.060163375 0.067056835 0.04887679 0.060414497 0.027355755
0.058266144 0.014745478 0.068001755 0.0409262 0.046611 0.06252314 0.0419538 0.044961378
0.037423998 0.014768872 -0.009075942 0.01038366 -0.014033346 -0.024176536 -0.023585701 -0.005715829
-0.032806467 -0.0060608736 -0.026175583 -0.02450327 -0.028562706 -0.03933173 -0.036826614 -0.049048528
-0.039996967 -0.024628444 -0.009554548 -0.034368657 -0.03142639 -0.02964336 -0.03352228 -0.038032945
-0.04842168 -0.066290036 -0.05890285 -0.075232215 -0.0551255 -0.051336516 -0.045676727 -0.061616965
-0.051515922 -0.06496316 -0.071289934 -0.06209522 -0.066381596 -0.06568334 -0.06964037 -0.075235374
-0.084475264 -0.07272687 -0.06561224 -0.07233736 -0.064331874 -0.0582915 -0.066048756 -0.06541392
-0.06199259 -0.0747017 -0.083387755 -0.07065521 -0.07730439 -0.07269444 -0.06791939 -0.0837012
-0.083653316 -0.07257424 -0.072521545 -0.09828577 -0.08319814 -0.10147698 -0.10190209 -0.10559988
-0.095958345 -0.096943416 -0.110202946 -0.10201257 -0.08264334 -0.08641441 -0.08163516 -0.09316309
00000000: 51f0 d4bd eed4 d7bd d021 01be 3e17 03be
00000010: e97a edbd 5b89 ddbd 5466 00be c5fe e6bd
00000020: d37b e3bd db5a f6bd 2d79 cbbd 05a8 e4bd
00000030: 0295 dfbd bd5e fdbd a963 cebd 0ba8 d6bd
00000040: 5d1b f3bd 5f81 e1bd 07db e9bd d5fb fbbd
00000050: 1006 c5bd 216d d1bd d1db f2bd aea1 ecbd
00000060: 12e7 f7bd f807 cbbd 9940 debd 21a2 f0bd
00000070: f011 fabd ffa3 d8bd 9032 e5bd 6d7e dabd
00000080: e9e9 edbd 45e8 0fbe 3b7d 00be 0b4a 00be
00000090: 027b edbd 4701 dcbd 107e d7bd c5ce d7bd
000000a0: dc7f d7bd f44f babd dc68 c4bd 0682 e3bd
000000b0: c12c d9bd 2aed e3bd aa62 cdbd 3d6a d1bd
000000c0: beb3 bdbd d6c1 b5bd 7e08 99bd c260 98bd
000000d0: 0e86 a2bd eb3a a2bd 307d aebd 7823 bbbd
000000e0: ce9d b9bd a26c babd e92b aabd 5fda c5bd
000000f0: 2d9b bebd 197b e0bd f83d b1bd 4806 b9bd
00000100: eca4 90bd bc69 6ebd bb30 7fbd a43c 92bd
00000110: d08a 26bd cfca 6dbd 638f 57bd dded 08bd
00000120: 5320 37bd 147b 39bd 4ae4 66bd 9c3d 83bc
00000130: 269f 72bd a18a 12bd 6bfe 23bd 655e 78bd
00000140: 664f 0bbd 85f3 c2bc e2f8 6bbc ee75 09bd
00000150: 5481 20bc 5a42 cabc 8ec2 c3bb 66e0 edbb
00000160: c7db a2bc 3863 273c 2ede 1e3b 1cf8 8a3c
00000170: 1138 e3bb 1f95 133b c55e 9fba 309e cb3b
00000180: 92f2 a33c 87fd a43c 3a22 e03c 4056 b33c
00000190: bb5d 113d 0c3a 773c 1f3c e03c aa3f 443d
000001a0: 8154 293d 8604 803c a041 4b3d 65da 063d
000001b0: 84d3 4d3d acbf 0c3d 3215 3a3d 490d 253d
000001c0: 5354 033d 6ee4 653d 9b1f 833d 2d46 8b3d
000001d0: ccc4 933d 7f46 983d 5b92 9e3d 22c3 ab3d
000001e0: 0f51 993d 8e60 ac3d 53e6 af3d 1e06 ba3d
000001f0: 916a 953d d5a9 843d 1078 893d b523 8c3d
00000200: 17a5 8c3d 625f 773d b4b4 a03d 46b8 763d
00000210: 04a3 993d f317 8e3d 6360 8a3d 7b72 8f3d
00000220: db55 943d 30c1 a43d d224 a33d fcee a83d
00000230: 63df b43d d62a a33d e1f4 b73d 9baf 9f3d
00000240: 4908 b53d 9c6a a73d 463d ad3d 52a0 bc3d
00000250: f086 a93d f20e 823d 5048 893d cf70 813d
00000260: f146 903d cb18 813d 81ee 703d 5a93 523d
00000270: 2826 6e3d 8300 383d e805 6a3d 6bf0 893d
00000280: 79f7 f93c 3073 583d 94cb 2c3d b885 453d
00000290: 1509 843d cecf 783d 8092 513d 4b9b 6c3d
000002a0: 052f 5b3d 709f 473d f7e8 613d df6d 763d
000002b0: 1855 893d 0733 483d 3175 773d 2d19 e03c
000002c0: 7ba8 6e3d 0497 713c 8144 8b3d 3ba2 273d
000002d0: 2deb 3e3d 220c 803d bfd7 2b3d 6c29 383d
000002e0: e849 193d 24f9 713c 43b3 14bc 3a20 2a3c
000002f0: 1fec 65bc df0d c6bc cd36 c1bc d94b bbbb
00000300: 1360 06bd 4b9a c6bb 2d6e d6bc 15bb c8bc
00000310: 56fc e9bc 4f1a 21bd 81d7 16bd 1ce7 48bd
00000320: dcd3 23bd 97c1 c9bc ae8a 1cbc 26c6 0cbd
00000330: f5b8 00bd a2d6 f2bc a94e 09bd 6fc8 1bbd
00000340: d055 46bd 12c3 87bd 1d44 71bd 5913 9abd
00000350: 47cb 61bd 3d46 52bd 8517 3bbd 1262 7cbd
00000360: 5c02 53bd 680b 85bd 7500 92bd 8f57 7ebd
00000370: 13f3 87bd fd84 86bd 9c9f 8ebd 0115 9abd
00000380: 5e01 adbd d3f1 94bd b65f 86bd 9c25 94bd
00000390: 6ec0 83bd 11c3 6ebd 9244 87bd bcf7 85bd
000003a0: f1eb 7dbd 34fd 98bd 33c7 aabd aeb3 90bd
000003b0: c451 9ebd d3e0 94bd 5219 8bbd 896b abbd
000003c0: 6e52 abbd cea1 94bd 2d86 94bd 0d4a c9bd
000003d0: c963 aabd 2ad3 cfbd 0bb2 d0bd c044 d8bd
000003e0: cf85 c4bd 458a c6bd 15b2 e1bd f7eb d0bd
000003f0: e940 a9bd 0afa b0bd 5630 a7bd 4acc bebd

arith.constant9 f4 [32, 1, 3, 32]
0.13309617 0.009431958 0.07157631 0.05985506 -0.09972344 0.014014199 0.07729383 0.018758759
-0.03541085 -0.060653403 0.09118639 -0.16850546 0.08692862 -0.044542342 0.037489325 0.075349286
0.081669256 0.0018498302 0.17061289 0.0046168566 0.06117779 0.10016735 0.16803987 -0.16406289
0.13831998 -0.07608147 -0.10521046 -0.007134959 0.11960088 0.12971704 0.16037239 -0.17000277
-0.0506351 0.06590612 -0.01822953 -0.0959382 -0.094200484 0.046043873 0.029833227 0.09630589
-0.07105849 0.029823273 -0.050348207 -0.020393804 0.029410705 -0.11447623 -0.044108063 0.038535953
-0.16767773 0.035319477 -0.16881979 0.08752416 0.16146024 -0.0052378476 0.007611096 0.032600075
-0.01775752 0.11259858 -0.14762346 0.07553591 0.023834929 -0.1541296 -0.032308638 0.00933376
0.17942005 -0.09817651 -0.2031717 0.09195567 0.12669648 0.094726086 -0.11952196 0.13226421
0.22186512 -0.048692122 0.16693962 0.13756678 -0.046134796 0.1872851 -0.09995625 0.037561778
0.09176052 0.021885691 -0.052691814 -0.10490058 0.037690222 -0.14965987 -0.011234398 -0.00096575444
0.1476018 0.05307228 -0.07227578 -0.009126554 0.11453253 -0.11001536 0.06470039 0.0885233
0.094496265 0.07669024 -0.028275222 0.015849113 -0.033501476 -0.018130139 0.0969329 0.009898603
0.09696223 0.045271024 0.15139295 0.122341976 -0.042636678 -0.03484866 0.09185062 -0.17471795
-0.009919718 -0.08900816 0.09495132 0.113787636 0.057668686 -0.10824183 -0.14984642 0.10645123
0.026709557 0.09199177 0.09889437 -0.14047122 0.0074456185 -0.16980375 -0.005864486 0.10715981
-0.14643192 -0.12205011 -0.079129525 -0.1144592 0.14451869 0.04729508 0.13994639 0.10447903
0.058157966 0.025489315 -0.11649857 0.039434567 -0.031512693 -0.04212852 0.15905403 0.12177022
-0.115940414 0.020562947 0.13443191 -0.11392466 0.007430956 0.04020396 -0.08082826 -0.0058957934
-0.058116205 0.056629643 -0.07684723 -0.11349467 -0.04567547 0.029208869 0.17108177 0.13145824
0.05787579 -0.09733944 -0.12334374 0.049805447 -0.23653583 0.02307203 0.09279196 0.02635542
-0.115703285 -0.030907312 -0.0881277 0.17884794 -0.1103044 -0.006591321 -0.1207015 0.08255572
0.059135854 -0.10668378 -0.17366706 0.024449281 0.120956294 -0.021493765 0.17729071 0.10124412
-0.13859534 0.091210745 0.07632203 0.004469199 0.052571118 0.09622585 0.06929986 0.058836706
-0.03689143 0.057040244 0.088402465 0.014915973 -0.04920295 0.03122808 -0.004383743 0.0669176
0.1483816 -0.002076745 -0.034590513 0.1371031 0.035247877 0.03925325 -0.17544498 -0.03162679
0.011979401 -0.01307404 -0.005336806 -0.119110785 0.12763165 -0.1323548 -0.15120278 0.017537221
-0.004580766 0.1453066 0.10209824 -0.057178564 0.13904725 -0.17677042 0.09368895 0.09842305
-0.010823101 0.03535311 -0.10112791 -0.14954068 0.03933561 0.048328564 -0.07580321 -0.094244696
-0.07187395 -0.05073288 -0.09894567 -0.021073759 0.11013658 0.15907998 -0.028123498 0.11049597
0.027833655 -0.026112288 -0.08127986 -0.16100994 -0.028300807 -0.09288693 -0.1391619 -0.15427878
-0.02908887 -0.11524904 0.11748989 0.13270526 -0.032749698 0.14285694 0.14861618 -0.107185416
00000000: 5d4a 083e 8088 1a3c 9a96 923d 942a 753d
00000010: ce3b ccbd d09b 653c 3a4c 9e3d f8ab 993c
00000020: f80a 11bd b46f 78bd eebf ba3d b28c 2cbe
00000030: a207 b23d 0872 36bd 688e 193d ba50 9a3d
00000040: 3642 a73d 0076 f23a 25b5 2e3e 0049 973b
00000050: 9095 7a3d 8a24 cd3d a512 2c3e 1a00 28be
00000060: c1a3 0d3e 9ad0 9bbd 9578 d7bd 60cc e9bb
00000070: 4ef1 f43d 8bd4 043e a938 243e 3515 2ebe
00000080: c066 4fbd caf9 863d 1856 95bc 3f7b c4bd
00000090: 2fec c0bd 8098 3c3d d064 f43c 063c c53d
000000a0: 1d87 91bd f04f f43c ec39 4ebd e810 a7bc
000000b0: b8ee f03c 8472 eabd a8aa 34bd e0d7 1d3d
000000c0: b6b3 2bbe 28ab 103d 18df 2cbe de3f b33d
000000d0: d555 253e 40a2 abbb 8066 f93b a887 053d
000000e0: 3878 91bc 169a e63d 9b2a 17be 92b2 9a3d
000000f0: 7841 c33c 26d4 1dbe 1056 04bd a0ec 183c
00000100: e4b9 373e c410 c9bd 3e0c 50be 4153 bc3d
00000110: b9bc 013e c0ff c13d eec7 f4bd 4570 073e
00000120: 9c30 633e 6471 47bd 38f2 2a3e 4ede 0c3e
00000130: d7f7 3cbd aac7 3f3e ddb5 ccbd 61da 193d
00000140: f1ec bb3d 9f49 b33c 5fd3 57bd 1ed6 d6bd
00000150: 1061 1a3d 7040 19be 7b10 38bc af2a 7dba
00000160: ed24 173e 5262 593d 5305 94bd 8b87 15bc
00000170: 0890 ea3d bc4f e1bd a381 843d b44b b53d
00000180: 4287 c13d c60f 9d3d 70a1 e7bc 00d6 813c
00000190: d838 09bd a885 94bc c284 c63d c02d 223c
000001a0: 2294 c63d 1c6e 393d c106 1b3e 6e8e fa3d
000001b0: cca3 2ebd 78bd 0ebd 2e1c bc3d 43e9 32be
000001c0: 5086 22bc e949 b6bd d675 c23d 7e09 e93d
000001d0: 0036 6c3d e4ad ddbd 5771 19be 1a03 da3d
000001e0: 00ce da3c 2e66 bc3d 2289 ca3d b0d7 0fbe
000001f0: 60fa f33b 09e1 2dbe e02a c0bb 9a76 db3d
00000200: 40f2 15be 68f5 f9bd a90e a2bd 9669 eabd
00000210: b5fc 133e 7cb8 413d 1b4e 0f3e 1af9 d53d
00000220: 0c37 6e3d f8ce d03c cd96 eebd 2486 213d
00000230: 7413 01bd f48e 2cbd 0fdf 223e aa62 f93d
00000240: 2b72 edbd a073 a83c 85a8 093e 5551 e9bd
00000250: 607f f33b e8ac 243d 4989 a5bd 8031 c1bb
00000260: 420b 6ebd 7cf4 673d 1562 9dbd e56f e8bd
00000270: 3416 3bbd 7047 ef3c 0f30 2f3e fd9c 063e
00000280: 2a0f 6d3d e659 c7bd a59b fcbd cc00 4c3d
00000290: 7336 72be 8e01 bd3c b609 be3d 52e7 d73c
000002a0: d8f5 ecbd 5531 fdbc 4c7c b4bd ea23 373e
000002b0: 46e7 e1bd 02fc d7bb 5932 f7bd f912 a93d
000002c0: 7038 723d 077d dabd c7d5 31be dc49 c83c
000002d0: efb7 f73d b113 b0bc b28b 353e 1459 cf3d
000002e0: f0eb 0dbe b3cc ba3d b94e 9c3d 5c72 923b
000002f0: d054 573d 0f12 c53d 16ed 8d3d c2fe 703d
00000300: 781b 17bd 08a3 693d 5a0c b53d 2062 743c
00000310: 0889 49bd 08d2 ff3c 80a5 8fbb 180c 893d
00000320: 59f1 173e 001a 08bb c8ae 0dbd c164 0c3e
00000330: 1460 103d 04c8 203d d9a7 33be 188b 01bd
00000340: 4045 443c 8034 56bc 60e0 aebb 5bf0 f3bd
00000350: dfb1 023e 0488 07be e7d4 1abe 38aa 8f3c
00000360: 401a 96bb 41cb 143e e218 d13d 1234 6abd
00000370: 6762 0e3e 4e03 35be fedf bf3d 0692 c93d
00000380: 6053 31bc 6cce 103d 261c cfbd 3121 19be
00000390: 601e 213d 2cf4 453d b73e 9bbd 5d03 c1bd
000003a0: a632 93bd 48cd 4fbd 07a4 cabd e0a2 acbc
000003b0: 4a8f e13d dde5 223e 4063 e6bc b64b e23d
000003c0: 6803 e43c 70e9 d5bc 0e76 a6bd cadf 24be
000003d0: 18d7 e7bc 813b bebd 7580 0ebe 42fb 1dbe
000003e0: c84b eebc b007 ecbd 8a9e f03d e3e3 073e
000003f0: 8c24 06bd 1749 123e d72e 183e 0784 dbbd

arith.constant10 f4 [32, 1, 3, 32]
0.1426696 0.06874728 0.03681624 0.100164905 0.09485848 -0.14637819 0.08361767 0.053448737
0.08544336 0.16022529 -0.12979981 -0.13362128 -0.17631872 0.1759987 0.06728597 -0.06349389
-0.14292131 -0.15875529 -0.028918087 -0.016890183 0.07623248 0.097018406 0.13752715 0.052156433
-0.10358836 -0.15419833 -0.16366962 -0.10571449 0.026164085 -0.15495293 -0.09444114 0.0121008605
-0.0049696118 -0.02576445 0.055532306 -0.14711964 0.16373833 0.029245153 0.08884977 -0.11537839
0.15425901 -0.043850258 -0.07779141 -0.14728752 0.017725736 0.017604277 0.021534264 -0.17326397
-0.10664531 -0.024845898 0.00046403706 0.09534 -0.17634802 0.16332658 -0.14261098 -0.0031983554
0.036334664 -0.0046562105 -0.036836937 -0.120596334 -0.14163452 -0.10507361 -0.16389446 0.15146394
0.032943472 0.068648584 0.02407209 -0.011514805 0.021503761 -0.23151678 -0.018844973 0.1239235
-0.2285178 0.035588562 0.14572662 0.13422598 0.13570201 0.11091162 0.13478017 0.020625493
0.18073374 -0.15250055 0.0999759 0.13604496 0.16213569 0.07185384 -0.1358747 0.25047457
-0.0846209 -0.04322955 0.026427463 0.1934583 0.07158787 0.009196796 0.1057156 -0.14088242
0.16076739 0.092973664 -0.0668602 0.030522332 -0.119387686 -0.06893395 0.0008070767 0.15413548
0.14623235 -0.03371288 -0.16621508 0.15879904 0.11868332 0.14110793 -0.06431255 0.1419278
0.121303186 0.109097704 0.09833537 0.16533698 -0.13034667 0.039594308 -0.062033333 -0.04019393
0.12033413 -0.17277734 -0.055051453 -0.13590142 -0.10314606 -0.13827929 0.06726444 0.07903387
-0.044843704 0.033894792 -0.16031855 -0.15896666 -0.041420147 -0.1304772 0.16396017 0.004066497
0.04605812 0.022486433 0.12696873 0.118199095 -0.09001129 0.021210313 0.09721209 -0.05960255
0.15819435 0.12571158 0.14115183 0.0015370995 -0.11989872 -0.003556177 -0.120366886 0.107843384
0.08197953 -0.068969056 0.09945051 -0.13330424 0.084342405 0.02082926 -0.15118344 0.11469425
-0.099845394 0.11253825 0.04276598 -0.12217281 0.058471147 -0.06141466 -0.02089806 -0.2008387
-0.06107302 -0.10166931 0.17766514 0.20756835 0.13050103 0.009318722 -0.0014796231 0.00053429743
-0.09535878 -0.08284974 -0.102928825 -0.14187473 0.2736766 -0.055521354 -0.15229093 0.019817892
-0.040779464 0.10400811 0.015317878 0.04381387 0.09646213 0.090526596 0.07458583 -0.0035256871
-0.120100014 0.052693427 -0.11637837 -0.046625927 -0.10940095 0.09580071 0.14350809 0.040683925
-0.11488949 0.0045001507 0.012989834 0.17612989 0.15402792 0.078619674 0.0015850216 0.1298201
0.16502063 -0.15071945 -0.03565754 0.03357111 -0.17598787 -0.12213427 -0.07723334 0.12040873
0.14706661 0.14409564 -0.06022477 -0.02278708 0.15336539 0.12842207 0.0051292777 0.08567922
0.1393492 0.096218094 0.087188646 -0.15156429 0.11626898 0.055529654 -0.04857394 0.02712281
-0.13131395 -0.13470432 -0.105873264 0.16823973 0.10476501 -0.17015766 -0.038775265 -0.014457598
0.1337545 0.06864406 0.0126775205 -0.1747276 0.17273535 -0.10971861 0.10474722 0.08730425
0.052979395 0.04368335 -0.0999612 0.16600658 0.16139196 0.06666936 -0.12377897 0.16997735
00000000: fb17 123e 60cb 8c3d a0cc 163d 4223 cd3d
00000010: 2a45 c23d 2ae4 15be be3f ab3d 10ed 5a3d
00000020: eefc ae3d 1912 243e 3eea 04be 04d4 08be
00000030: e58c 34be 0139 343e 3acd 893d 1609 82bd
00000040: f759 12be bf90 22be a0e5 ecbc 485d 8abc
00000050: c61f 9c3d 96b1 c63d ebd3 0c3e fca1 553d
00000060: 2226 d4bd 2be6 1dbe 0299 27be d780 d8bd
00000070: 1056 d63c fbab 1ebe 5b6a c1bd b042 463c
00000080: 20d8 a2bb f80f d3bc d875 633d 88a6 16be
00000090: 05ab 273e 8893 ef3c def6 b53d 814b ecbd
000000a0: 13f6 1d3e 549c 33bd 1a51 9fbd 8ad2 16be
000000b0: 9035 913c d836 903c a068 b03c 1c6c 31be
000000c0: db68 dabd a089 cbbc 004a f339 9e41 c33d
000000d0: 9394 34be 153f 273e 9d08 12be 809b 51bb
000000e0: a8d3 143d 2093 98bb 54e2 16bd 36fb f6bd
000000f0: a408 11be d530 d7bd f3d3 27be 5d19 1b3e
00000100: bcef 063d a197 8c3d d532 c53c 98a8 3cbc
00000110: a828 b03c bc12 6dbe c660 9abc 9bcb fd3d
00000120: 9200 6abe 50c5 113d 5c39 153e 8972 093e
00000130: 78f5 0a3e a225 e33d d003 0a3e cbf6 a83c
00000140: 4412 393e 1b29 1cbe 2ac0 cc3d 5f4f 0b3e
00000150: e606 263e 1b28 933d bd22 0bbe 343e 803e
00000160: b94d adbd 7811 31bd 687e d83c ef19 463e
00000170: a99c 923d 29ae 163c 6c81 d83d 7b43 10be
00000180: 35a0 243e fa68 be3d 00ee 88bd f809 fa3c
00000190: 8881 f4bd 3e2d 8dbd 0092 533a b1d5 1d3e
000001a0: efbd 153e 8416 0abd 4934 2abe 379c 223e
000001b0: 3e10 f33d 997e 103e 4cb6 83bd 8555 113e
000001c0: ce6d f83d 9e6e df3d 0e64 c93d 194e 293e
000001d0: 9979 05be a42d 223d aa16 7ebd 64a2 24bd
000001e0: be71 f63d 8bec 30be a27d 61bd be29 0bbe
000001f0: 3e3e d3bd 1699 0dbe f0c1 893d 82dc a13d
00000200: 08ae 37bd 44d5 0a3d 8c2a 24be 28c8 22be
00000210: 2ca8 29bd d19b 05be 2de5 273e 4040 853b
00000220: 70a7 3c3d 7835 b83c 1704 023e 5e12 f23d
00000230: d757 b8bd 40c1 ad3c 2217 c73d ce21 74bd
00000240: b3fd 213e 89ba 003e 1b8a 103e 8078 c93a
00000250: 768d f5bd c00e 69bb ea82 f6bd fedc dc3d
00000260: e2e4 a73d a63f 8dbd b6ac cb3d e880 08be
00000270: b6bb ac3d 20a2 aa3c d5cf 1abe d2e4 ea3d
00000280: be7b ccbd 747a e63d 612b 2f3d bd35 fabd
00000290: 717f 6f3d f08d 7bbd 6932 abbc a9a8 4dbe
000002a0: b427 7abd 0038 d0bd daed 353e cc8c 543e
000002b0: 10a2 053e 8ead 183c eaef c1ba 1810 0c3a
000002c0: 774b c3bd 20ad a9bd 59cc d2bd 9c47 11be
000002d0: 571f 8c3e 5c6a 63bd 27f2 1bbe 2259 a23c
000002e0: 5e08 27bd 3402 d53d d6f7 7a3c 2c76 333d
000002f0: f08d c53d 0266 b93d 75c0 983d 370f 67bb
00000300: fff6 f5bd 10d5 573d c857 eebd d4fa 3ebd
00000310: 9b0d e0bd 2a33 c43d c9f3 123e 30a4 263d
00000320: 2e4b ebbd 0076 933b 50d3 543c 655b 343e
00000330: 7fb9 1d3e 5a03 a13d 80c0 cf3a 8fef 043e
00000340: 2bfb 283e 3356 1abe a40d 12bd dc81 093d
00000350: 2a36 34be 8821 fabd 832c 9ebd da98 f63d
00000360: a198 163e cf8d 133e 40ae 76bd f8ab babc
00000370: d10b 1d3e 1381 033e 8013 a83b 9678 af3d
00000380: 8fb1 0e3e fe0d c53d f68f b23d ab33 1bbe
00000390: 6e1e ee3d 1073 633d 78f5 46bd a830 de3c
000003a0: 2a77 06be eeef 09be 15d4 d8bd 0947 2c3e
000003b0: 0a8f d63d cf3d 2ebe d0d2 1ebd 90df 6cbc
000003c0: f1f6 083e 4295 8c3d 60b5 4f3c cbeb 32be
000003d0: 89e1 303e 27b4 e0bd b685 d63d 92cc b23d
000003e0: ec00 593d 50ed 323d 75b8 ccbd a1fd 293e
000003f0: ef43 253e f289 883d d47f fdbd 8b0e 2e3e

arith.constant11 f4 [32, 1, 3, 32]
0.0050302297 0.021408826 -0.15577015 -0.049338073 0.04224004 0.051955685 -0.029877558 0.00961487
-0.09996233 0.06262937 0.12759344 0.13530831 -0.020422757 -0.039994285 -0.03502585 -0.09357017
0.03727986 0.10412045 0.12029578 0.021669134 0.07879265 -0.13595949 -0.134981 -0.14175946
0.033609495 0.17506148 0.13736643 0.11952977 -0.13729748 0.12516864 0.16462143 0.0940765
-0.037936635 -0.11387443 -0.17921203 0.052116565 -0.02110598 0.034469355 0.0904334 0.04048016
0.17997533 0.11279013 0.018474177 -0.17097338 0.09564936 -0.10719272 0.08267853 -0.028172715
0.013176909 -0.1559563 -0.16388042 0.041918084 0.09216386 0.10888197 -0.08271192 0.13880984
-0.02022585 -0.14370583 -0.07943478 -0.07389088 -0.0001534733 0.05614043 -0.0355814 0.090498105
0.03305493 -0.08615571 0.059876904 -0.1600513 -0.15235168 -0.037228048 0.16346076 0.1132631
-0.06435397 -0.06580679 -0.12449659 -0.04289441 0.17539363 0.002038344 0.14203776 0.109054916
-0.11229949 0.10342724 -0.14109907 -0.21443267 0.07097181 0.07206957 0.05019121 0.119233884
-0.116467275 0.12968989 0.111770205 -0.14353807 -0.07910185 0.0003768566 0.20009322 -0.055575624
-0.16156943 -0.11547073 0.0054641664 -0.098501064 -0.120168254 -0.038169533 0.069270626 0.09278239
0.08069344 -0.045589775 -0.09451793 -0.018135026 0.0635955 -0.025268719 -0.108871125 -0.028143436
0.08934353 0.104930386 0.003676474 0.0017234683 -0.1249228 0.03226973 0.042791784 0.13605045
-0.04299982 0.025641724 0.14740326 0.08332352 0.055379182 -0.09114513 0.06292723 -0.14273928
0.020071097 0.02456615 0.09563014 0.066003434 0.06868037 0.13488907 -0.076581016 0.19525945
0.15868454 -0.040998973 -0.029475283 0.1358634 0.16080324 -0.07662449 -0.017993921 0.124005936
-0.008619222 -0.1892141 -0.1370088 0.018097946 0.119024046 0.14312144 -0.10096272 0.07297919
-0.030636549 -0.17499034 -0.009725458 0.13496526 0.09372491 0.017286249 -0.024734834 0.11685771
-0.2212898 -0.12737219 -0.15274301 -0.08657894 -0.25588998 -0.09552331 0.10021582 -0.052382484
0.23052816 -0.016505372 -0.082945816 0.009124139 0.022997282 -0.10432899 0.051815324 -0.24490803
-0.117166005 -0.02183788 -0.2398191 0.24775001 -0.19807422 -0.049958225 0.009509764 0.006513374
0.26224494 -0.11095277 0.056256037 -0.04209336 0.041052233 0.13593343 -0.15063351 0.041270413
-0.080721706 0.073448256 0.02251771 0.103719965 0.059340104 0.007842988 0.08927338 -0.03969331
0.025443077 -0.0020591617 0.055255532 -0.02083221 0.11580239 -0.08464284 0.0075617284 0.0985982
-0.069309525 -0.022473916 0.001082167 -0.010666698 -0.13141079 0.09807213 0.11365552 0.056050286
-0.16792952 -0.11182056 0.119898334 -0.14628893 -0.06679487 0.01109238 -0.061901204 -0.051335663
-0.0041032764 -0.061511688 0.24880622 0.005838179 0.0013107363 0.25496516 -0.06975508 -0.12759538
-0.1619078 0.22590262 0.11381003 -0.06742188 -0.029613659 0.07163679 -0.03563553 0.014657985
0.0362395 0.205978 -0.054215442 0.07606831 -0.042278275 -0.02477086 0.018151227 -0.09458309
-0.113442615 0.24104403 0.012767732 0.087260984 -0.016833652 -0.1298366 0.11864412 -0.010011121
00000000: a0d4 a43b 9061 af3c 3682 1fbe b816 4abd
00000010: e403 2d3d 7ccf 543d c8c1 f4bc b087 1d3c
00000020: 0db9 ccbd d443 803d dba7 023e 438e 0a3e
00000030: a04d a7bc 0cd1 23bd 4477 0fbd b8a1 bfbd
00000040: c4b2 183d 1a3d d53d a25d f63d 7883 b13c
00000050: 0a5e a13d f738 0bbe 7638 0abe 6429 11be
00000060: 1caa 093d 5143 333e c9a9 0c3e 06cc f43d
00000070: b697 0cbe 352c 003e 8592 283e 2eab c03d
00000080: 7263 1bbd ff36 e9bd 5c83 37be 2e78 553d
00000090: 73e6 acbc bd2f 0d3d 2535 b93d 86ce 253d
000000a0: 744b 383e 83fe e63d 2857 973c a513 2fbe
000000b0: d0e3 c33d db87 dbbd 5c53 a93d 77ca e6bc
000000c0: f6e3 573c 02b3 1fbe 45d0 27be 4cb2 2b3d
000000d0: 68c0 bc3d 83fd de3d de64 a9bd 2b24 0e3e
000000e0: afb0 a5bc 9f27 13be b4ae a2bd 1a54 97bd
000000f0: aded 20b9 82f3 653d cdbd 11bd 1257 b93d
00000100: 9b64 073d 6872 b0bd 7c41 753d 7de4 23be
00000110: 1402 1cbe 707c 18bd 4262 273e 7cf6 e73d
00000120: 04cc 83bd b6c5 86bd 11f8 febd 0db2 2fbd
00000130: 639a 333e bd95 053b 5972 113e 2f58 df3d
00000140: 46fd e5bd a9d1 d33d 467c 10be 3d94 5bbe
00000150: ab59 913d 3699 933d 4c95 4d3d e530 f43d
00000160: 6586 eebd 6dcd 043e c7e7 e43d a5fb 12be
00000170: 2700 a2bd d694 c539 3de5 4c3e 44a3 63bd
00000180: 7572 25be eb7b ecbd c00c b33b edba c9bd
00000190: c61a f6bd a857 1cbd c2dd 8d3d b204 be3d
000001a0: 9a42 a53d 58bc 3abd 9e92 c1bd e88f 94bc
000001b0: 5c3e 823d 5800 cfbc d3f7 debd 108d e6bc
000001c0: bef9 b63d bee5 d63d 00f1 703b 00e6 e13a
000001d0: 86d7 ffbd 442d 043d 7046 2f3d cf50 0b3e
000001e0: 9420 30bd 980e d23c e1f0 163e 86a5 aa3d
000001f0: 48d5 623d 4caa babd fedf 803d 3f2a 12be
00000200: 246c a43c f33e c93c bcd9 c33d cf2c 873d
00000210: 4ba8 8c3d 5c20 0a3e 82d6 9cbd 18f2 473e
00000220: 337e 223e 8aee 27bd 2676 f1bc c61f 0b3e
00000230: 9ba9 243e 4ded 9cbd fd67 93bc d3f6 fd3d
00000240: a337 0dbc 57c1 41be 094c 0cbe 2542 943c
00000250: e1c2 f33d 6d8e 123e 8bc5 cebd 1d76 953d
00000260: 80f9 fabc ab30 33be 8757 1fbc 5534 0a3e
00000270: d8f2 bf3d e49b 8d3c b5a0 cabc 1853 ef3d
00000280: cb99 62be db6d 02be aa68 1cbe 4d50 b1bd
00000290: 0304 83be baa1 c3bd f43d cd3d 048f 56bd
000002a0: 930f 6c3e 4636 87bc 7fdf a9bd 6a7d 153c
000002b0: cc64 bc3c 70aa d5bd 4e3c 543d 2cc9 7abe
000002c0: bbf4 efbd 5be5 b2bc 2393 75be 2eb2 7d3e
000002d0: f8d3 4abe ffa0 4cbd d7ce 1b3c 246e d53b
000002e0: f844 863e 353b e3bd bb6c 663d 166a 2cbd
000002f0: 6326 283d 2232 0b3e ac3f 1abe 2a0b 293d
00000300: 6c51 a5bd 0a6c 963d 1077 b83c 226b d43d
00000310: 9c0e 733d e07f 003c f6d4 b63d 7495 22bd
00000320: 006e d03c 00f3 06bb a053 623d 50a8 aabc
00000330: ce29 ed3d 3a59 adbd 60c8 f73b daed c93d
00000340: 27f2 8dbd 381b b8bc 80d7 8d3a 60c3 2ebc
00000350: 8d90 06be 0ada c83d 3ac4 e83d fc94 653d
00000360: b7f5 2bbe 2e02 e5bd 428d f53d c4cc 15be
00000370: c0cb 88bd d0bc 353c 1e8c 7dbd 5845 52bd
00000380: c774 86bb aef3 7bbd 0fc7 7e3e 324e bf3b
00000390: 03cd ab3a cb8a 823e c0db 8ebd 5da8 02be
000003a0: 29cb 25be 0453 673e 3c15 e93d 7c14 8abd
000003b0: 5898 f2bc 4fb6 923d 90f6 11bd 0c28 703c
000003c0: df6f 143d e6eb 523e 0311 5ebd b4c9 9b3d
000003d0: fc2b 2dbd 42ec cabc e2b1 943c c7b4 c1bd
000003e0: 9a54 e8bd 3fd4 763e c02f 513c e3b5 b23d
000003f0: bae6 89bc e3f3 04be b0fb f23d af05 24bc

arith.constant12 f4 [32, 1, 3, 32]
0.06381218 0.06987673 -0.016513899 -0.0021751523 0.1269271 0.02074401 -0.026238948 -0.0074199587
0.07708906 0.037000418 0.098661646 0.12522928 0.12211822 0.059648573 -0.048682764 0.050532505
0.12482177 -0.124023005 -0.15371837 0.10617401 -0.04530929 0.12615572 0.0030407757 0.03202136
0.04437013 0.12752493 0.14899872 0.04607603 -0.13501927 -0.10887311 0.09373079 0.059183106
0.13847406 -0.016569013 -0.03171942 -0.097043775 -0.13078928 0.1096134 0.06564325 0.062793046
-0.14217007 0.090478234 0.13056651 -0.18648943 -0.014172279 0.023731424 -0.058288738 0.059831873
0.05933023 -0.13705564 0.013774949 -0.20579566 0.14168297 -0.089928016 0.12003538 -0.037574414
0.058822 -0.13342638 -0.09975534 0.07154242 0.0957928 -0.032363437 -0.030998953 -0.23110396
-0.01434165 0.17495343 0.095727235 -0.08764169 -0.09621188 -0.12553692 0.07517774 0.017558811
0.030651381 -0.05594477 0.010332763 0.12794472 0.0012658631 -0.038421128 -0.030805929 0.13650483
0.18947153 0.07469148 -0.14405991 0.10261789 0.10387617 -0.13321456 -0.13853848 -0.1950665
0.20369275 -0.20773628 -0.051892444 -0.03120088 0.14738142 -0.06265612 -0.05361258 -0.04183544
0.08885749 0.10838972 -0.14909835 0.073739156 -0.09225806 0.095129594 -0.037192106 -0.08747026
-0.00010342896 0.12673981 -0.097316734 0.17035769 0.12760161 0.009647414 -0.08342796 0.112393126
-0.019777656 0.057756856 -0.015904576 -0.12545961 0.07224223 -0.081621245 -0.020159304 0.055780128
0.100742176 0.105824426 -0.12392677 -0.061981067 -0.033795446 -0.07346259 -0.013538584 0.10347055
-0.019142836 0.12144691 -0.1067856 0.044619117 0.08081057 0.1590855 0.14398637 0.060460478
-0.10883294 0.020202704 -0.050188415 0.05391676 0.20675796 0.0837147 -0.040205143 -0.13790861
0.1759377 -0.18396647 0.033635635 0.08181062 0.07264083 -0.09524915 0.011645281 -0.058050066
-0.17802565 -0.10270948 -0.023393922 0.030055573 0.05586074 0.17670812 -0.060951326 -0.08078802
-0.24040976 -0.054079257 0.18323588 -0.08365665 -0.015358451 0.094897375 0.044322733 -0.13009094
0.16297446 0.19384423 -0.3049797 -0.11978767 -0.053007334 -0.08969821 0.12767011 0.051638592
-0.060220856 0.1082912 -0.17580667 0.12256801 -0.07299193 0.12417091 0.06371345 -0.20778176
0.12915324 0.16937596 -0.07630849 -0.14680819 -0.19424239 -0.10774686 0.07124871 -0.13986821
-0.07681267 0.13744362 -0.026478544 -0.11454392 -0.00070022047 0.02827935 0.17050643 -0.14232796
-0.14843103 -0.0037881583 0.082459345 0.1296962 0.1626948 0.030511782 -0.0013928264 -0.0651318
-0.08313558 -0.1429377 0.1632867 -0.053303078 0.1336525 0.07109061 -0.06557864 -0.123315856
0.12802927 -0.06047626 -0.14009023 -0.16346739 0.025731921 -0.08624337 -0.017190725 -0.16826232
-0.112208985 0.16474979 -0.21762387 -0.05171595 0.05646168 0.082737744 0.0042997897 0.0016369398
-0.1271946 -0.15479442 -0.07577148 0.20156422 -0.036504444 -0.0684711 -0.09536116 -0.12801376
0.10928039 -0.1275515 0.2313159 -0.05814884 0.039288234 -0.064965665 -0.0066188145 0.033358492
0.18652725 -0.10522279 -0.09308635 -0.09426832 -0.086404115 -0.025066664 -0.13947237 -0.010813476
00000000: f6af 823d 881b 8f3d 2848 87bc 008d 0ebb
00000010: 2df9 013e 58ef a93c 10f3 d6bc 2023 f3bb
00000020: dee0 9d3d c08d 173d 1e0f ca3d 1b3c 003e
00000030: 1e19 fa3d 1052 743d 9467 47bd 2cfb 4e3d
00000040: 8ea2 ff3d c6ff fdbd 5968 1dbe c271 d93d
00000050: 3c96 39bd f72e 013e c047 473b d428 033d
00000060: 74bd 353d e595 023e 1f93 183e 38ba 3c3d
00000070: 7e42 0abe ddf8 debd eef5 bf3d fc69 723d
00000080: 25cc 0d3e bdbb 87bc 39ec 01bd e3be c6bd
00000090: a0ed 05be fe7c e03d f86f 863d a499 803d
000000a0: 0895 11be a74c b93d 3ab3 053e 16f7 3ebe
000000b0: d932 68bc 6768 c23c 2cc0 6ebd 4412 753d
000000c0: 4104 733d 5058 0cbe 53b0 613c 19bc 52be
000000d0: 5715 113e 2e2c b8bd 1cd5 f53d a1e7 19bd
000000e0: 56ef 703d eda0 08be 874c ccbd d584 923d
000000f0: 042f c43d 868f 04bd 84f1 fdbc 84a6 6cbe
00000100: 3df9 6abc fe26 333e a40c c43d 7d7d b3bd
00000110: bc0a c5bd c08c 00be c9f6 993d 7fd7 8f3c
00000120: 9b18 fb3c 5826 65bd c04a 293c f103 033e
00000130: 51eb a53a 795f 1dbd b75c fcbc ecc7 0b3e
00000140: d304 423e d9f7 983d 7184 13be 5429 d23d
00000150: 08bd d43d 6669 08be 08dd 0dbe 83bf 47be
00000160: d594 503e d2b8 54be 2c8d 54bd fd98 ffbc
00000170: 28eb 163e da51 80bd dd98 5bbd a35b 2bbd
00000180: eafa b53d 6efb dd3d 3dad 18be 8e04 973d
00000190: cbf1 bcbd 4ed3 c23d c056 18bd 9c23 b3bd
000001a0: 00e8 d8b8 15c8 013e ff4d c7bd 3f72 2e3e
000001b0: ffa9 023e 3010 1e3c 47dc aabd 5e2e e63d
000001c0: c004 a2bc 7492 6c3d 504a 82bc 7c78 00be
000001d0: bcf3 933d 0a29 a7bd 2025 a5bc b479 643d
000001e0: ea51 ce3d 7aba d83d 52cd fdbd dcdf 7dbd
000001f0: 186d 0abd 8e73 96bd f0d0 5dbc 5ee8 d33d
00000200: 70d1 9cbc 28b9 f83d 69b2 dabd 89c2 363d
00000210: 0380 a53d 4fe7 223e 2a71 133e 68a5 773d
00000220: cee3 debd 2480 a53c 5e92 4dbd d2d7 5c3d
00000230: 5cb8 533e 9d72 ab3d 26ae 24bd ea37 0dbe
00000240: 0329 343e b561 3cbe 85c5 093d 548c a73d
00000250: b7c4 943d fd11 c3bd d9cb 3e3c e8c5 6dbd
00000260: 5b4c 36be 5959 d2bd 9ca4 bfbc 1b37 f63c
00000270: 3bce 643d f9f2 343e 19a8 79bd 3074 a5bd
00000280: fa2d 76be 3682 5dbd 30a2 3b3e 2d54 abbd
00000290: 03a2 7bbc 8e59 c23d c18b 353d 8f36 05be
000002a0: c7e2 263e 1a7f 463e 4d26 9cbe 3d53 f5bd
000002b0: 381e 59bd b2b3 b7bd f4bb 023e fd82 533d
000002c0: 25aa 76bd c7c7 dd3d aa06 34be f004 fb3d
000002d0: cb7c 95bd 514d fe3d 337c 823d bec4 54be
000002e0: bf40 043e e470 2d3e a047 9cbd e354 16be
000002f0: 7ae7 46be 63aa dcbd d8ea 913d 9d39 0fbe
00000300: f64f 9dbd 05be 0c3e 88e9 d8bc 0196 eabd
00000310: 008f 37ba 18aa e73c 3d99 2e3e 6cbe 11be
00000320: 4efe 17be c042 78bb 72e0 a83d 15cf 043e
00000330: 7799 263e d8f3 f93c 808f b6ba d263 85bd
00000340: fd42 aabd 435e 12be a134 273e 5454 5abd
00000350: 33dc 083e f497 913d 184e 86bd 068d fcbd
00000360: 1b1a 033e f4b5 77bd d073 0fbe ff63 27be
00000370: c0cb d23c 5da0 b0bd 90d3 8cbc f54c 2cbe
00000380: d3cd e5bd 2bb4 283e cbd8 5ebe 1bd4 53bd
00000390: 5d44 673d 6872 a93d 40e5 8c3b 968e d63a
000003a0: 4d3f 02be 6e82 1ebe 142e 9bbd da66 4e3e
000003b0: af85 15bd 933a 8cbd b64c c3bd 0a16 03be
000003c0: 66ce df3d dc9c 02be 13de 6c3e 7a2d 6ebd
000003d0: b3ec 203d b80c 85bd a4e2 d8bb eaa2 083d
000003e0: 0001 3f3e 0c7f d7bd 0ea4 bebd c00f c1bd
000003f0: a4f4 b0bd 9b58 cdbc d8d1 0ebe 012b 31bc

arith.constant13 f4 [32, 1, 3, 32]
0.10947555 -0.18848245 0.09478336 0.03420347 -0.057280682 -0.011350912 0.015032243 0.20354229
0.116908535 -0.09833819 -0.08913924 -0.074320614 0.06431434 0.14071639 0.14908792 0.082543276
-0.047257192 -0.13251041 -0.04756559 -0.093128406 -0.07397977 -0.1516222 0.047506116 0.037219785
-0.011787154 0.021794496 0.17659956 -0.032244377 -0.10120686 0.1538041 -0.07657639 -0.038154088
0.15288918 0.11444293 0.059461042 0.18712339 0.052719735 0.17475827 -0.027949752 -0.05613976
-0.021035055 -0.054959174 -0.17229119 -0.11037087 0.0307204 -0.034505986 0.123151496 -0.10661044
0.1517299 -0.098104395 0.16311803 -0.036547747 0.03406622 0.0059008454 -0.047191687 0.056812283
0.032290943 -0.09224364 -0.14675899 0.06604192 -0.09864813 0.08817477 -0.072046645 0.13959572
-0.14756186 -0.076898865 -0.041195583 -0.16112843 -0.07854902 0.12957402 -0.14992803 -0.17478763
0.08910229 -0.15290445 0.007338644 0.13837788 -0.18891981 -0.045608524 -0.081043124 -0.00985232
-0.19823527 -0.07448624 0.04294256 -0.10964162 0.22226919 -0.069778085 0.03447916 0.13446142
-0.12531912 -0.025206676 -0.13695695 -0.18587692 -0.019453693 0.16528293 0.16656668 -0.15448543
-0.18823837 0.10256077 -0.03201385 0.15314372 0.11015045 0.12100537 0.13336013 -0.12664494
-0.2212834 0.110504605 -0.16945231 -0.20186327 -0.047864065 -0.00893338 -0.065420665 -0.013270739
0.08246248 -0.16815554 -0.19995998 0.22200353 -0.18828581 0.058756605 -0.29130995 0.061690025
-0.120756365 -0.039589968 -0.042053904 -0.15174188 -0.070202075 0.043412376 -0.23898439 -0.055348493
0.16115803 -0.0996884 0.22273685 -0.07164139 -0.12278756 0.022131527 -0.020622117 0.019562075
0.07208956 0.07209869 0.11323615 0.15273012 -0.15895487 -0.005924441 -0.079794884 -0.13914232
-0.0660872 -0.13805242 0.0023472528 0.115453035 -0.18153933 -0.16307262 0.13569468 -0.031507142
0.011254559 0.018428816 0.04741074 0.0018276725 0.25196466 -0.00095863617 0.04786285 -0.020567894
-0.13830507 -0.054898266 -0.183905 -0.11953992 -0.000585475 0.09084902 0.2754982 0.0914234
-0.066081285 -0.09408181 -0.15685144 0.16269326 -0.027740458 -0.08497946 0.18499817 -0.19438982
0.093076676 -0.07047195 -0.111301035 0.03502861 -0.10216846 -0.18299483 0.08643035 -0.10864125
-0.116661295 0.060843438 0.19608396 0.058963317 0.14728278 -0.11578294 -0.032268748 0.12088282
-0.16192359 0.1704941 0.024349991 0.08034323 -0.037300564 0.14524417 0.0053995703 -0.088475674
0.017646782 -0.18949541 0.061714396 -0.032889865 -0.069367886 -0.087246366 0.15296923 0.09003087
0.11960725 0.10974519 0.20370315 -0.01475798 0.16272037 -0.04964189 -0.21889836 0.19714294
-0.14726278 -0.02005749 -0.12111419 -0.044297732 0.07976434 0.06915993 0.052523214 0.14484005
0.0634384 -0.07880207 -0.113061324 -0.17406851 -0.020366013 0.16404182 0.06529622 -0.0038226198
-0.11949171 -0.15529767 0.03366123 0.020650912 0.043372422 -0.10507115 0.04376564 -0.019214706
0.122686625 0.026932117 -0.12880015 -0.09943763 -0.11727177 -0.1610028 -0.16527069 -0.15924786
0.12640524 0.012202138 -0.089452036 -0.15548182 -0.16666561 0.11601455 0.0813519 -0.09133221
00000000: b834 e03d 8b01 41be c71d c23d f018 0c3d
00000010: 269f 6abd 2df9 39bc cc49 763c 646d 503e
00000020: be6d ef3d 8865 c9bd a28e b6bd 6835 98bd
00000030: 3db7 833d f517 103e 81aa 183e 730c a93d
00000040: c290 41bd cfb0 07be 23d4 42bd 1bba bebd
00000050: b582 97bd da42 1bbe c695 423d c673 183d
00000060: e81e 41bc 5f8a b23c 84d6 343e ae12 04bd
00000070: 8b45 cfbd d27e 1d3e 15d4 9cbd 7647 1cbd
00000080: fb8e 1c3e 0e61 ea3d 6c8d 733d 469d 3f3e
00000090: a6f0 573d d5f3 323e e1f6 e4bc cef2 65bd
000000a0: b551 acbc df1c 61bd 1a6d 30be 1f0a e2bd
000000b0: 59a9 fb3c 2656 0dbd da36 fc3d 9356 dabd
000000c0: 155f 1b3e f5ea c8bd 6a08 273e 17b3 15bd
000000d0: 0589 0b3d e15b c13b 124c 41bd ffb3 683d
000000e0: 8243 043d 3cea bcbd fd47 16be fc40 873d
000000f0: 0808 cabd f994 b43d 318d 93bd 2ef2 0e3e
00000100: 751a 17be 277d 9dbd b3bc 28bd dafe 24be
00000110: 4fde a0bd 0daf 043e bc86 19be 87fb 32be
00000120: 437b b63d fc92 1cbe 0279 f03b eeb2 0d3e
00000130: 3274 41be 01d0 3abd f0f9 a5bd a06b 21bc
00000140: 30fe 4abe 3e8c 98bd 8ae4 2f3d c98b e0bd
00000150: 899a 633e d0e7 8ebd 053a 0d3d 41b0 093e
00000160: a853 00be 3b7e cebc 713e 0cbe 8556 3ebe
00000170: 5a5d 9fbc ee3f 293e 7590 2a3e 6e31 1ebe
00000180: 8fc1 40be 620b d23d f420 03bd b5d1 1c3e
00000190: 8f96 e13d aad1 f73d 8f8f 083e 36af 01be
000001a0: 1e98 62be 3d50 e23d e884 2dbe 3fb5 4ebe
000001b0: 1c0d 44bd 505d 12bc 45fb 85bd 836d 59bc
000001c0: 17e2 a83d f730 2cbe 4fc2 4cbe e554 633e
000001d0: ffcd 40be c4aa 703d 9426 95be aeae 7c3d
000001e0: 1d4f f7bd 1729 22bd b740 2cbd 3962 1bbe
000001f0: 1bc6 8fbd 2dd1 313d 53b8 74be 1ab5 62bd
00000200: 9c06 253e 6f29 ccbd 2115 643e b9b8 92bd
00000210: 0b78 fbbd 2d4d b53c b7ef a8bc a540 a03c
00000220: b1a3 933d 7aa8 933d 5be8 e73d 4965 1c3e
00000230: 11c5 22be d021 c2bb 806b a3bd 537b 0ebe
00000240: ba58 87bd 9d5d 0dbe 5ed4 193b a472 ec3d
00000250: 72e5 39be 82fc 26be 8cf3 0a3e a20d 01bd
00000260: 0b65 383c 07f8 963c c431 423d 838e ef3a
00000270: 8301 813e fc4c 7bba d60b 443d 007e a8bc
00000280: d89f 0dbe 01dd 60bd 9851 3cbe 58d1 f4bd
00000290: 907a 19ba 0d0f ba3d 1a0e 8d3e 313c bb3d
000002a0: a055 87bd f7ad c0bd aa9d 20be 1099 263e
000002b0: f53f e3bc b609 aebd 2970 3d3e 200e 47be
000002c0: fc9e be3d 9953 90bd ccf1 e3bd 297a 0f3d
000002d0: b33d d1bd ff62 3bbe 6502 b13d 4e7f debd
000002e0: 1eec eebd f836 793d 3cca 483e 8583 713d
000002f0: 4cd1 163e 9b1f edbd 3c2c 04bd 6991 f73d
00000300: 4ccf 25be 0196 2e3e a279 c73c fe8a a43d
00000310: 7ac8 18bd e3ba 143e e1ee b03b bc32 b5bd
00000320: fc8f 903c 160b 42be 3cc8 7c3d 86b7 06bd
00000330: c010 8ebd 39ae b2bd f7a3 1c3e 1b62 b83d
00000340: a5f4 f43d 16c2 e03d 8f97 503e 74cb 71bc
00000350: 2ba0 263e 4b55 4bbd e426 60be d7df 493e
00000360: 0ecc 16be 9b4f a4bc b70a f8bd 8a71 35bd
00000370: 7c5b a33d b9a3 8d3d 9522 573d f350 143e
00000380: feeb 813d fb62 a1bd b28c e7bd 043f 32be
00000390: a0d6 a6bc 94fa 273e 06ba 853d eb84 7abb
000003a0: 12b8 f4bd 5a06 1fbe 5ce0 093d 1a2c a93c
000003b0: 48a7 313d 8b2f d7bd 9a43 333d 2968 9dbc
000003c0: 2043 fb3d bea0 dc3c 30e4 03be f5a5 cbbd
000003d0: 2f2c f0bd ebdd 24be b83c 29be df11 23be
000003e0: 6070 013e 7aeb 473c a132 b7bd a036 1fbe
000003f0: 64aa 2abe 0999 ed3d d39b a63d 620c bbbd

arith.constant14 f4 [32, 1, 3, 32]
-0.0037467983 0.11422426 -0.17469905 0.032813538 -0.008961009 -0.0054518883 0.09714685 0.1523006
0.0033923313 -0.117042124 0.11324426 0.10160583 -0.09725742 -0.03329256 -0.011897308 -0.06542385
0.21094528 0.10728992 -0.061171237 0.17515618 0.024776502 -0.0012906399 -0.016766392 0.09098249
-0.05374139 0.1391992 -0.13473786 -0.19208503 0.16392417 0.011395781 0.04088441 0.10821721
-0.080127165 0.12429441 0.08742847 0.0327462 0.05157875 -0.11900832 0.014121656 0.018638346
-0.19935673 0.2029888 -0.17498769 0.13318749 0.06814722 -0.032051362 -0.1407829 0.23935011
0.015956748 0.08936892 -0.2038547 0.028364087 -0.2038503 0.07795927 -0.040103022 0.1422744
0.03137921 -0.14893913 -0.027732423 -0.102430984 0.08778903 0.1721895 -0.18832392 -0.103637695
0.094394036 -0.08256864 0.044841845 -0.07059155 -0.008370126 0.01950333 0.15919858 -0.070392236
0.16091155 -0.122185536 -0.07754765 0.159086 0.009741009 0.06736753 0.028846323 -0.1756273
-0.07592042 -0.07826362 -0.04128374 0.13099608 -0.09423237 -0.154073 -0.02866544 0.10312541
-0.10981051 0.14004548 0.010193325 0.053933833 0.13183114 -0.028253594 0.18075284 -0.12714182
-0.15708956 0.011559991 0.06289243 0.00688092 -0.0055412548 0.08950819 0.09756328 0.022476891
0.035488054 0.115741774 -0.013991188 -0.102923624 0.041246265 0.054828797 -0.10702139 -0.17852858
-0.075448565 -0.062220488 -0.057054926 -0.1238881 -0.10583295 -0.1713449 -0.045583803 0.15188944
0.06726987 0.18484706 0.17615874 -0.03508413 0.21144864 -0.059213113 -0.0699169 0.07540956
-0.1035987 -0.08113673 -0.02917875 -0.18646915 0.07079012 -0.18901312 -0.018092124 0.026959226
0.012337452 0.14222968 -0.017439606 0.19542478 0.08146313 0.071581 0.028952897 -0.07801523
-0.0728276 0.07514091 0.014654377 0.1254596 0.04456855 0.059179153 0.10071412 -0.17473546
-0.08653425 0.12717512 0.09949741 0.13332297 0.093823664 -0.14973654 0.07005436 0.1285105
0.018325852 0.21012627 -0.0791113 -0.06560667 -0.08546072 -0.059252594 0.16967003 -0.15629311
0.21228962 0.15121514 -0.0023173606 -0.057105653 0.077406295 0.040156037 -0.11432223 -0.17841798
0.11428881 -0.16693793 0.09282979 0.19614908 0.023774933 0.1724899 -0.07533707 -0.019726658
-0.09932097 -0.028587889 0.19063404 -0.17976315 -0.22883293 -0.04792207 -0.0016211215 0.01474735
-0.06579612 -0.0019360557 -0.04989409 -0.07279753 -0.06012615 0.14098397 0.20337519 -0.115287475
0.009294668 -0.19285981 0.036614805 -0.10189052 0.041519467 -0.11242365 0.015628448 0.048653316
0.20640562 0.12754059 0.06717488 -0.04499731 -0.09380932 -0.08468004 0.01831268 -0.04899892
0.14916702 -0.08665868 0.0024657524 -0.13584359 -0.04017219 0.20940652 -0.07563425 -0.13647847
-0.16434795 -0.02395566 0.06301049 -0.012323907 0.01949203 0.04045714 -0.11201242 0.17973545
0.23806734 -0.11632743 -0.16711864 -0.04865402 0.01077635 0.005697881 0.16540512 -0.008436316
0.11742208 -0.062108833 0.11537673 0.14950015 -0.18687847 -0.051003113 -0.09400637 -0.1741654
0.046898853 -0.0031374302 -0.04355085 0.10067133 0.10743123 -0.00741383 0.045496378 -0.22873269
00000000: d88c 75bb 69ee e93d 4fe4 32be 7d67 063d
00000010: 32d1 12bc c1a5 b2bb edf4 c63d b0f4 1b3e
00000020: e051 5e3b c8b3 efbd 9bec e73d b816 d03d
00000030: e62e c7bd c85d 08bd edec 42bc f1fc 85bd
00000040: 0a02 583e d1ba db3d b18e 7abd 245c 333e
00000050: 17f8 ca3c b02a a9ba ac59 89bc 0755 ba3d
00000060: ef1f 5cbd 3c8a 0e3e b9f8 09be f0b1 44be
00000070: bddb 273e 5fb5 3a3c 6976 273d fca0 dd3d
00000080: b619 a4bd 118e fe3d b30d b33d e120 063d
00000090: 3d44 533d a2ba f3bd 855e 673c 72af 983c
000000a0: 2c24 4cbe 4cdc 4f3e f92f 33be 4d62 083e
000000b0: c590 8b3d 4a48 03bd 6429 10be 3218 753e
000000c0: bab7 823c 0d07 b73d 49bf 50be cd5b e83c
000000d0: 22be 50be 1ca9 9f3d 1143 24bd 61b0 113e
000000e0: 7d87 003d 8083 18be 1b2f e3bc 56c7 d1bd
000000f0: bcca b33d 7252 303e fcd7 40be 0040 d4bd
00000100: a951 c13d bf19 a9bd 15ac 373d 4d92 90bd
00000110: da22 09bc 73c5 9f3c f404 233e ce29 90bd
00000120: ffc5 243e 693c fabd 4dd1 9ebd 71e7 223e
00000130: c198 1f3c fdf7 893d 204f ec3c a5d7 33be
00000140: 2a7c 9bbd ad48 a0bd 2419 29bd d623 063e
00000150: e7fc c0bd 50c5 1dbe c9d3 eabc 6a33 d33d
00000160: 55e4 e0bd 1568 0f3e e701 273c b9e9 5c3d
00000170: befe 063e 1574 e7bc 4617 393e 7731 02be
00000180: 16dc 20be 1e66 3d3c bfcd 803d 5779 e13b
00000190: 6a93 b5bb 1250 b73d 42cf c73d 7521 b83c
000001a0: ec5b 113d 060a ed3d 4c3b 65bc 9fc9 d2bd
000001b0: d8f1 283d 2994 603d 082e dbbd 32d0 36be
000001c0: c784 9abd e9da 7ebd 6db2 69bd 0bb9 fdbd
000001d0: f2be d8bd 0a75 2fbe 15b6 3abd e888 1b3e
000001e0: c9c4 893d 8c48 3d3e f562 343e 60b4 0fbd
000001f0: fe85 583e 7389 72bd 9730 8fbd 5470 9a3d
00000200: 8e2b d4bd 042b a6bd 4608 efbc c5f1 3ebe
00000210: 69fa 903d a88c 41be ef35 94bc 98d9 dc3c
00000220: 0623 4a3c a8a4 113e 81dd 8ebc 6f1d 483e
00000230: 24d6 a63d 0f99 923d a02e ed3c 73c6 9fbd
00000240: a326 95bd 7ae3 993d e918 703c 7b78 003e
00000250: 838d 363d d765 723d 3443 ce3d daed 32be
00000260: de38 b1bd 323a 023e 4cc5 cb3d d185 083e
00000270: 9f26 c03d 8954 19be a978 8f3d 4298 033e
00000280: 1920 963c 572b 573e 1b05 a2bd ca5c 86bd
00000290: 0806 afbd d9b2 72bd fbbd 2d3e 4d0b 20be
000002a0: 7362 593e 24d8 1a3e dcde 17bb 9ee7 69bd
000002b0: 3187 9e3d a87a 243d c621 eabd 34b3 36be
000002c0: 4010 ea3d c7f1 2abe 8c1d be3d 4edb 483e
000002d0: a6c3 c23c 31a1 303e 524a 9abd cd99 a1bc
000002e0: cb68 cbbd 2631 eabc 9235 433e d513 38be
000002f0: 2e53 6abe ef49 44bd d07b d4ba de9e 713c
00000300: 1ec0 86bd 40c3 fdba bf5d 4cbd df16 95bd
00000310: d646 76bd 1a5e 103e 9641 503e d71b ecbd
00000320: aa48 183c 0b7d 45be 68f9 153d faab d0bd
00000330: 5110 2a3d 5f3e e6bd 3b07 803c b348 473d
00000340: ff5b 533e 009a 023e fc92 893d 194f 38bd
00000350: 1a1f c0bd bb6c adbd 7904 963c 17b3 48bd
00000360: 3dbf 183e 1b7a b1bd 7698 213b 951a 0bbe
00000370: 988b 24bd aa6e 563e 21e6 9abd 03c1 0bbe
00000380: d44a 28be a93e c4bc a50b 813d 36ea 49bc
00000390: c0ad 9f3c 63b6 253d c566 e5bd 920c 383e
000003a0: edc7 733e 133d eebd 2621 2bbe 7049 47bd
000003b0: 4a8f 303c 4ab5 ba3b f65f 293e 7938 0abc
000003c0: fd7a f03d d565 7ebd a34a ec3d 9116 193e
000003d0: 125d 3fbe a4e8 50bd 6986 c0bd 6a58 32be
000003e0: 0319 403d 589d 4dbb 6062 32bd c52c ce3d
000003f0: e804 dc3d b7ef f2bb 695a 3a3d e738 6abe
