common/src/main/assets/tcn_models/tcn_15min.tflite (tflite, 201416 bytes, 39 tensors)

arith.constant f4 [64]
000000 36 c7 b0 3d dd 72 41 3a b9 f7 ed 3c ac c4 62 bd
       0.086317465 0.00073794817 0.029048787 -0.055363342
000010 51 6f 9a 3d ae 8b 27 bd a9 1b a3 3b b3 0f 41 bc
       0.07540763 -0.040904693 0.0049776626 -0.011783528
000020 26 a1 8f 3c 48 82 63 3c 48 27 cb 3c c7 b4 4d bd
       0.017532896 0.013886042 0.024799004 -0.05022123
000030 60 fb 90 bc 56 25 0a bd 9a 4f a7 bd 58 48 6e 3c
       -0.01769799 -0.033727013 -0.0816948 0.014543615
000040 9d fc 29 3d f6 b5 16 bd c5 c8 6c 3d 46 4c 57 bd
       0.041500676 -0.036794625 0.057808656 -0.052562974
000050 42 24 1d bb f0 4f 5b 3c f8 44 26 bd cb df a9 3d
       -0.002397791 0.013385758 -0.040593117 0.08294638
000060 4a a4 f3 bb 21 50 43 ba 69 7d ea 3b 44 71 8a bd
       -0.0074353563 -0.00074506 0.0071560633 -0.06759885
000070 de d2 83 3d 66 a9 d9 bb 99 9f 88 bd aa f1 07 3c
       0.06436704 -0.0066425083 -0.06671066 0.008297363
000080 55 37 04 3d 30 fa a5 3d 20 f1 22 bd 05 18 43 3d
       0.03227933 0.0810436 -0.039780736 0.04763033
000090 d7 30 5f 3d a1 dc a2 3c bf dc 74 3d d3 59 9a 3d
       0.054489937 0.019880595 0.059780832 0.07536664
0000a0 01 a7 97 3d 3c 7b ef 3d 47 63 88 3c 0d 03 e8 bb
       0.074049 0.11693427 0.016648902 -0.007080442
0000b0 a6 52 74 3d 98 49 ad 3c 2a 16 a4 3c 65 52 5f bd
       0.059649132 0.021153256 0.0200301 -0.054521937
0000c0 71 76 ab bb c5 ff 1c bd df b5 89 3d 4d 8e 46 bd
       -0.005232625 -0.03832986 0.06724142 -0.048475552
0000d0 66 ad 0c be 44 56 1b 3d 7f 2d fe 3c bb 13 37 3d
       -0.13738021 0.037924066 0.031027554 0.04469655
0000e0 ae 3b fb 3b 23 94 00 3d ae 68 aa 3c 52 11 d6 bd
       0.0076670265 0.031391274 0.020801868 -0.10452522
0000f0 16 b8 af bc de 08 94 3d 9d 70 0d bd 8d 78 59 bd
       -0.021450084 0.07228254 -0.034531225 -0.05309348

arith.constant1 f4 [32]
000000 04 56 82 3c 6c 1b ba 39 61 b5 c7 3c 79 41 83 bd
       0.015910156 0.00035497115 0.02437848 -0.06408972
000010 b2 3c cb 39 d8 e3 d1 3c 63 31 81 3c 26 07 c2 3d
       0.000387644 0.02562134 0.01577062 0.0947402
000020 47 41 b0 bd e2 c2 da 3d cc 82 71 bd 7d 5e 4a bc
       -0.08606201 0.10681702 -0.05896263 -0.012351629
000030 9e 43 9d bd cd d5 57 bd 5c d3 09 3d f4 5d 17 bd
       -0.076789126 -0.05269413 0.033648834 -0.036954835
000040 47 7b 39 bd be 2e ce bc 40 30 ee 3c 46 61 9d bc
       -0.045283582 -0.025168773 0.029075742 -0.019211423
000050 dd 60 c0 3c 11 19 b9 bb 60 28 77 bd 82 bc 12 3c
       0.023483688 -0.00564874 -0.06034124 0.008956077
000060 b9 93 d6 bc 73 e3 4c bd fd 1c 97 3c f3 e2 9e 3d
       -0.026193487 -0.0500216 0.01844644 0.07758131
000070 1d 1a 35 bd 1f cd f3 bc 54 ff e0 3c 47 d0 b0 bc
       -0.044214357 -0.029760895 0.0274655 -0.02158369

arith.constant2 f4 [32]
000000 89 51 2a bd 58 b4 77 bd 03 e3 20 3d 2a 20 17 bd
       -0.041581664 -0.060474724 0.039278995 -0.03689591
000010 c0 d1 7c 3d 1b 52 5a ba 32 9f 0d bd 8e 82 f8 bd
       0.06172347 -0.00083282747 -0.03457565 -0.12134276
000020 3b d3 9e 3d cf bb 25 be 76 3b a7 3d 4b 88 f8 bd
       0.07755133 -0.16184925 0.08165638 -0.12135371
000030 00 24 a0 bd dc 3f bd bd 62 a0 48 bd 68 f6 51 bd
       -0.078193665 -0.09240696 -0.048981078 -0.051260382
000040 4f 9c a9 bd 80 50 d9 3c 0c f5 5c bd 44 3b 7d bc
       -0.082817666 0.026527643 -0.053944632 -0.015456025
000050 b2 aa bb bd a9 9c 87 bc cc 0e 89 bd 1d 1e aa 3d
       -0.09163417 -0.016554194 -0.066922754 0.08306525
000060 38 cd c9 3c b2 a3 78 bd b8 7f 06 3d 01 60 b8 3d
       0.024633989 -0.060702987 0.032836646 0.09002686
000070 6b fc c7 bd b9 6a 08 3d 32 0f 20 3d 75 0f b4 3d
       -0.09764942 0.033304904 0.03907699 0.08792011

arith.constant3 f4 [32]
000000 e4 28 ab bc 7b 72 64 3c c1 75 21 3d 6f 93 86 3c
       -0.020893522 0.01394331 0.03941894 0.016427724
000010 3b 30 61 3d 10 1e 13 bd 17 f1 b8 bd 9e 7c 8a 3d
       0.054977637 -0.03591734 -0.09030359 0.0676205
000020 88 ec e2 bd 91 fb 94 bc 6c 23 a0 bc 06 bf 1b 3d
       -0.11080271 -0.018186362 -0.01954814 0.03802397
000030 29 f3 0e bd 83 56 23 bd 2f 84 a5 bb c4 e3 b0 3c
       -0.034899864 -0.039877426 -0.005051158 0.021592982
000040 9d 44 b1 bc d3 ee 2f 3d c7 ee 72 bd ea c3 23 3b
       -0.021639163 0.04295237 -0.059309747 0.00249886
000050 15 b8 8c bd ea cc 7a 3d 1c 6b 19 bd 26 6d 21 3d
       -0.06871048 0.061230578 -0.037455663 0.039410733
000060 09 e4 73 3d 67 2c bc ba da 1d 0b 3d 11 e3 0e bd
       0.059543643 -0.0014356495 0.033964016 -0.034884516
000070 22 8e 6e 3d 39 2b 33 bd 19 f1 97 3d 53 17 f4 bc
       0.058241017 -0.043742392 0.074190326 -0.029796278

arith.constant4 f4 [221]
000000 f5 f9 27 be 29 c9 16 be e3 48 0c be 4b 9c 1a be
       -0.16403945 -0.14725174 -0.13699679 -0.15098684
000010 36 2d 29 be 11 b9 36 be f3 0b 36 be 05 3f 3f be
       -0.16521153 -0.17844035 -0.17777996 -0.18676384
000020 87 f8 3e be 9e fa 47 be 7a d1 4d be b8 00 42 be
       -0.18649493 -0.19529197 -0.2009944 -0.18945587
000030 00 88 4f be 95 a5 3a be 6a 26 50 be aa dc 30 be
       -0.20266724 -0.18227227 -0.20327154 -0.17271677
000040 ff 05 43 be 61 86 44 be 0d b1 4a be 6e 8c 60 be
       -0.19045256 -0.19191886 -0.19794102 -0.2192857
000050 df 0c 4a be ed ed 63 be 63 3d 47 be c2 76 6b be
       -0.19731472 -0.2225873 -0.19457011 -0.22994521
000060 fd 87 69 be 43 ec 69 be 8d fc 62 be 18 ca 4c be
       -0.22805782 -0.22844033 -0.22166653 -0.19998968
000070 36 2b 33 be aa 1c 2d be 6c 05 2a be 60 a0 18 be
       -0.17496952 -0.16905466 -0.16603631 -0.14904928
000080 9e f6 15 be f8 12 16 be 4a af 10 be d4 67 e1 bd
       -0.14644858 -0.14655674 -0.14129367 -0.11006132
000090 80 03 da bd cb e2 f9 bd 1d ff da bd a6 b1 e4 bd
       -0.10645199 -0.122014605 -0.1069319 -0.11166696
0000a0 fe 54 e1 bd c9 17 d6 bd aa 7f de bd 76 01 dc bd
       -0.11002539 -0.104537554 -0.10864194 -0.10742466
0000b0 19 c8 b6 bd fd 9f e8 bd 7b 38 f3 bd d8 55 f4 bd
       -0.08924884 -0.1135864 -0.11876007 -0.11930436
0000c0 b5 5a e3 bd de 8e aa bd fb db d0 bd c5 70 de bd
       -0.11101285 -0.08328031 -0.10198208 -0.10861353
0000d0 6e e5 0f be 58 b1 db bd 8a 4d ff bd fa c0 fa bd
       -0.14052364 -0.10727185 -0.12465961 -0.122438386
0000e0 b4 92 b9 bd cf d0 b9 bd 84 2f b8 bd 2d 4d a9 bd
       -0.090611845 -0.0907303 -0.08993438 -0.08266673
0000f0 65 7d a2 bd 9e 16 0e bd db 08 7c bd 81 fa 97 bd
       -0.07934073 -0.03468954 -0.061531883 -0.07420827
000100 57 42 59 bd f3 67 81 bc fc 54 0d bd 14 98 0e bd
       -0.053041782 -0.015796637 -0.034504876 -0.034813
000110 44 d3 03 bd 13 ac 50 3b 45 39 43 bc cf 5a 8a 3c
       -0.0321839 0.0031840845 -0.01191551 0.016889004
000120 7c 32 07 3d 15 57 12 3d 96 e1 59 3d 79 21 97 3d
       0.03300713 0.03572758 0.05319365 0.07379431
000130 fb 69 b9 3d 20 30 a2 3d fc 39 97 3d 5d 95 ba 3d
       0.09053417 0.07919335 0.073841065 0.0911052
000140 78 73 b7 3d c2 a5 a7 3d 37 55 b9 3d b2 75 b2 3d
       0.08957571 0.08185913 0.090494566 0.08713855
000150 c5 58 c9 3d ea 41 ac 3d 5b 06 ba 3d 05 ea d1 3d
       0.098313846 0.084110096 0.090832435 0.10249714
000160 2a df ba 3d 71 b5 ce 3d ab 52 d3 3d 35 b9 ec 3d
       0.091245964 0.10093201 0.10318502 0.11558763
000170 4b 4c 03 3e 20 c9 07 3e 1c ce 04 3e a5 58 13 3e
       0.12822072 0.13260317 0.1296925 0.14389284
000180 f4 ea 16 3e b0 c4 13 3e 57 e1 1d 3e c4 e2 1e 3e
       0.14738065 0.14430499 0.15417992 0.15516192
000190 d5 48 21 3e 3f 5f 13 3e 46 d5 0e 3e 1a 7d 10 3e
       0.1575044 0.14391802 0.13948545 0.14110222
0001a0 59 cf 08 3e 70 60 e8 3d d2 d7 d5 3d 4f 04 b0 3d
       0.13360347 0.11346519 0.10441555 0.08594572
0001b0 be 43 ae 3d b5 11 b6 3d 01 02 7c 3d 87 55 55 3d
       0.085090145 0.08890096 0.06152535 0.05208352
0001c0 da 6b 44 3d 09 a1 51 3d 53 b4 78 3d 5d df 65 3d
       0.047954418 0.051178966 0.060718846 0.05612122
0001d0 bf 63 63 3d 25 35 52 3d a1 f8 30 3d ed bc 09 3d
       0.055515047 0.051320214 0.04320586 0.03362744
0001e0 f3 9a 7c 3d 8f 7b 87 3d 42 f2 88 3d cd 87 77 3d
       0.06167121 0.06615364 0.06686832 0.060432244
0001f0 09 39 81 3d b1 77 39 3d 4d 93 9e 3d e3 03 6d 3d
       0.06309707 0.045280162 0.07742939 0.057865035
000200 a6 e8 1f 3d 3a a2 1a 3d 83 ae 51 3d 3c e2 57 3b
       0.03904023 0.037752368 0.051191818 0.0032941243
000210 2b 9d 6d 3b cc a7 37 3a 1f cf ad bc ce b7 df bc
       0.003625701 0.00070058997 -0.021216927 -0.027309325
000220 58 50 90 bd d8 c5 6b bd 40 36 79 bd 72 70 4d bd
       -0.07046574 -0.057561725 -0.060842752 -0.050156064
000230 6c 5d 85 bd 02 8f 3a bd 81 96 64 bd fd e9 7e bd
       -0.065119594 -0.04554654 -0.055807594 -0.062234867
000240 00 ae 89 bd 47 cf 24 bd 61 28 42 bd 51 0b 4d bd
       -0.06722641 -0.040236738 -0.04740179 -0.05005962
000250 c3 cb fb bc 33 10 45 bd 81 85 5d bd 32 bc 81 bd
       -0.03073681 -0.048111152 -0.054082397 -0.063347235
000260 dc ef 45 bd 28 9f 72 bd 53 3c 9c bd 53 e5 a7 bd
       -0.04832445 -0.059233814 -0.076286934 -0.08198037
000270 45 97 ae bd 6f 6e bc bd 27 e9 d4 bd e0 5a c4 bd
       -0.08524946 -0.09200751 -0.10396033 -0.095876455
000280 60 df d5 bd b8 19 e5 bd 23 b0 d6 bd 46 47 ca bd
       -0.10442996 -0.11186546 -0.10482814 -0.098768756
000290 3a 09 ca bd 86 f9 02 be 6d b3 07 be 0c 1c 0a be
       -0.09865041 -0.12790498 -0.13252039 -0.13487262
0002a0 ec 6b 1a be 63 d4 1f be 86 aa 25 be c5 4e 25 be
       -0.15080231 -0.15608363 -0.16178331 -0.1614333
0002b0 4c d1 1b be 66 fa 28 be ea 43 1c be 97 f6 1e be
       -0.15216559 -0.1650177 -0.15260282 -0.15523754
0002c0 bc 1b 11 be b6 46 26 be ef d2 27 be 1d b8 24 be
       -0.14170736 -0.16237912 -0.16389059 -0.16085859
0002d0 eb b8 16 be 49 15 27 be 99 d4 27 be 46 5b 46 be
       -0.14718978 -0.16316713 -0.16389693 -0.19370756
0002e0 7a 10 49 be 42 6a 3e be db 37 46 be 13 be 47 be
       -0.19635192 -0.18595222 -0.19357245 -0.19506101
0002f0 74 c2 45 be 22 3e 4c be c3 af 44 be 94 a1 27 be
       -0.19312459 -0.19945577 -0.19207673 -0.16370231
000300 ee 3f 35 be 6f 1a 21 be 64 32 40 be cb e6 35 be
       -0.17700168 -0.1573274 -0.18769222 -0.17763822
000310 a1 d3 30 be ad 6c 5d be a9 bc 40 be ca b1 42 be
       -0.1726823 -0.21623488 -0.18821968 -0.19013134
000320 64 90 30 be fa 54 43 be fd e2 33 be 4d c0 4d be
       -0.1724258 -0.19075385 -0.17567058 -0.20092888
000330 ba 82 28 be 5e 5a 35 be 22 48 4b be 7e 3e 3b be
       -0.16456118 -0.17710254 -0.19851735 -0.18285558
000340 64 ac 41 be b0 f9 4e be 3a 88 40 be bf 26 52 be
       -0.18913418 -0.20212436 -0.18801966 -0.20522593
000350 15 93 57 be e1 eb 3c be c6 62 30 be 51 c9 23 be
       -0.21052201 -0.18449356 -0.17225179 -0.15994765
000360 2e 36 12 be e1 fe fc bd a6 5f db bd 9a 00 0c be
       -0.1427848 -0.12353302 -0.10711603 -0.13672104
000370 08 b4 03 be
       -0.12861645

arith.constant9 f4 [32, 1, 3, 32]
000000 b1 5d 14 3e 6e 83 e7 3d 06 90 16 be 7b 11 24 be
       0.14488865 0.11304365 -0.14703378 -0.16022293
000010 c4 50 a4 bd 00 c8 b9 38 aa 12 b1 3d 63 62 2b 3e
       -0.08023217 8.85874e-05 0.08646138 0.1673675
000020 b0 cc a6 3c 23 fd 21 3e ce e7 18 be 89 66 1b be
       0.020361274 0.1581922 -0.14932176 -0.15175833
000030 b6 e1 de 3d 30 9d e8 3c 2e 7c ed bd 59 70 34 3e
       0.10882895 0.028395265 -0.11595951 0.17620982
000040 65 7e 11 3e 5a de e9 3d ea 50 1b be ab 70 21 be
       0.14208372 0.11419363 -0.15167585 -0.15765636
000050 e0 e6 88 3c 92 fc 26 be 48 92 4f 3d 8d 68 29 3e
       0.016711652 -0.16307285 0.050676614 0.16543789
000060 0c 36 7e 3d 80 24 c5 bc 40 d7 42 3b 20 34 bb 3b
       0.062063262 -0.024065256 0.002973035 0.005713001
000070 10 38 c1 bc 7a 5c 96 3d b4 56 4f bd 80 41 7f bc
       -0.023586303 0.07341857 -0.050619796 -0.015579581
000080 1f 1c 28 be bc 26 75 bd ee 30 de bd c0 bb 0a be
       -0.16416977 -0.059851393 -0.10849176 -0.13548183
000090 7e 24 81 3d 89 a3 29 be da 8e b6 bd 0a b5 a1 3d
       0.063057885 -0.1656629 -0.089139655 0.078958586
0000a0 2c 9b 50 3d b1 d8 8e bd ac 76 38 3d 62 ef f3 3d
       0.050929233 -0.06974924 0.04503505 0.11910893
0000b0 01 7a 27 3e 36 03 e1 3d fd 58 da bd 8b 2c 04 3e
       0.16355135 0.109869406 -0.106615044 0.12907617
0000c0 f1 04 26 be b3 51 d5 bd b5 f9 25 3e b0 d3 f6 3c
       -0.16212822 -0.104159735 0.16208537 0.030130237
0000d0 30 57 3c 3d d0 88 6f bc 63 df b8 bd 9b 8d 2f 3e
       0.045981586 -0.014620021 -0.09026983 0.17143862
0000e0 9e ac 71 bd 88 7f 32 3d 96 a3 fb 3d fc 24 e0 bd
       -0.05900251 0.043578655 0.12287061 -0.10944554
0000f0 0a e7 fe bd cc a2 39 bd 40 54 c1 bc d8 85 8f 3d
       -0.12446411 -0.04532127 -0.023599744 0.070079505
000100 0f 05 39 3e 9b df 40 bd 16 1e 47 3e 6f 39 85 bd
       0.18068336 -0.047088247 0.1944507 -0.06505095
000110 2b dd f3 bc 89 15 e5 bc 59 9c 15 be 6d a1 1f 3b
       -0.029768547 -0.02796437 -0.14610423 0.0024357692
000120 c1 4d a2 3c 60 69 03 bb ca 95 96 3d 9c 50 18 be
       0.019812467 -0.0020051822 0.07352789 -0.148745
000130 15 93 09 be 1f d1 dd 3d 29 59 c1 3d b3 6f a5 bd
       -0.13435014 0.10830902 0.09440834 -0.080779456
000140 d1 25 90 3d 01 39 6e bd d9 da f2 bd 40 07 37 be
       0.07038463 -0.058159832 -0.11858148 -0.1787386
000150 ac ff 9a 3d c9 d8 82 be f0 91 1a bd 17 dc ea bb
       0.07568297 -0.2555602 -0.037736833 -0.00716735
000160 0b 90 06 be 40 c0 6a 3b fc 71 36 3c 4f 56 5e 3e
       -0.13140886 0.0035820156 0.011135574 0.21712612
000170 d8 a6 9e 3d e3 1e fe bd d0 2e 98 bd fe b1 bc bd
       0.07746667 -0.12408235 -0.07430804 -0.09213637
000180 4b 70 a1 bd ca 99 a0 3d fc 12 34 be 35 32 24 3e
       -0.07882746 0.07841833 -0.17585367 0.16034777
000190 84 d0 31 be cd aa 2e 3e 80 28 26 3d 6c ec 5e bd
       -0.17364699 0.17057343 0.040565968 -0.05442469
0001a0 72 79 e3 3d 90 b8 11 3d aa 90 6d bd 78 a6 4f bd
       0.11107148 0.035576403 -0.05799929 -0.050695866
0001b0 3e 03 04 be 13 47 2c 3e 68 98 87 3c 01 2b 22 3e
       -0.12891862 0.16823988 0.016552165 0.15836717
0001c0 b0 7c e7 3c 17 17 13 3e 56 d6 8c bd 3a 25 00 be
       0.028257698 0.14364277 -0.06876819 -0.12514201
0001d0 e5 c8 04 3e 91 11 8b bd 1a 49 ec 3d 7c af 03 3d
       0.1296726 -0.0679046 0.115373805 0.032149777
0001e0 70 fe dd 3c 3a b2 99 bd 00 cd 86 3d 92 18 05 be
       0.027098864 -0.07504697 0.065820694 -0.12997654
0001f0 0e a1 e6 3d f1 59 23 3e b0 a5 66 bc 6e c8 81 3d
       0.112611875 0.15952279 -0.014077589 0.06337057
000200 c0 0f 47 bb 6e 88 e6 3d 80 a8 7b bc 74 30 0c 3d
       -0.0030374378 0.11256491 -0.015359998 0.034225896
000210 c2 fa d2 3d c0 30 44 3c 3e ef 25 be 91 a7 19 3e
       0.103017345 0.0119745135 -0.16204545 0.15005328
000220 64 4d 28 3d ac 17 c9 bd 00 a2 00 bd ae 7c f2 3d
       0.04108943 -0.09818968 -0.031404495 0.11840187
000230 04 fa 0d be e8 0c 28 3d d0 ae 17 bd e0 3b cc bb
       -0.13864905 0.041027933 -0.03703195 -0.0062327236
000240 e6 27 f2 bd 84 0c 92 3d 94 88 56 3d 92 82 cd 3d
       -0.11824016 0.071312934 0.052376345 0.1003467
000250 34 2e f9 bd 6e a3 8b bd 24 fb d1 bd c0 3b dd 3b
       -0.12167016 -0.06818281 -0.102529794 0.0067515075
000260 76 aa 0e be 40 4f 47 bc 5e 40 b1 3d 28 aa 01 3d
       -0.13932213 -0.012164891 0.08654855 0.031656414
000270 33 14 33 3e 54 b9 0f bd b7 d3 2a 3e 1e 90 ce bd
       0.17488174 -0.035088852 0.16682325 -0.10086082
000280 94 57 c9 bd 67 75 0e be e8 f1 42 3e 20 93 87 bd
       -0.09831157 -0.13911973 0.19037592 -0.06619859
000290 bc 3f 98 bd 9f 52 47 bd 4e 95 6d 3c d7 3f c1 bd
       -0.07434031 -0.048662778 0.014500929 -0.094360046
0002a0 4f e6 ae 3d da 5c d6 bc f0 2d 1b bb ce 56 a8 bd
       0.08540022 -0.026167322 -0.0023678504 -0.08219682
0002b0 56 0d 37 bd 5d 29 2e 3e e0 4b 45 3e f7 e1 10 3d
       -0.044690453 0.17007966 0.19267225 0.035371747
0002c0 e5 3f 1a 3e 35 2e 39 3e 60 18 0b 3e d6 b7 f1 3d
       0.15063436 0.18084033 0.13583517 0.11802642
0002d0 6c 4a 8c be ca 08 c8 3c d4 94 0d bd b3 4d 3e 3e
       -0.2740053 0.024418253 -0.03456576 0.18584327
0002e0 9c 20 83 3d c4 a6 41 3e 9b 7e f2 3a 2d 25 9f 3d
       0.06402704 0.18911272 0.0018500866 0.077707626
0002f0 3b 12 07 bd 51 cc 13 3e ce ed b6 bd 88 cb c1 3d
       -0.03297637 0.1443341 -0.089320764 0.09462649
000300 92 c0 ba bd 52 e0 e1 3d 6c c8 38 bd 00 24 de 3b
       -0.09118761 0.11029114 -0.045113012 0.006779194
000310 de 26 fc 3d 40 c6 fc bc a2 3d 10 be a0 75 74 3c
       0.12312101 -0.030856252 -0.14086011 0.014920622
000320 2f d8 07 be 16 6c a2 bd 8a 32 0e be 25 75 27 3e
       -0.13266061 -0.07930772 -0.13886467 0.16353281
000330 e0 51 fb bb 3e ce ab 3d 78 49 ef bc 0c 09 18 be
       -0.0076696724 0.08388947 -0.029209837 -0.14847201
000340 06 39 9c 3d 9b 28 ae bd b0 59 b3 3c 00 51 59 bb
       0.07628064 -0.08503839 0.021893352 -0.0033159852
000350 28 5d 85 bc 20 be a9 3b b0 c1 56 3d 4e 9a 97 bd
       -0.016279772 0.0051801354 0.05243081 -0.07402478
000360 0c 77 3a bd 5e 7d ee 3d 20 90 61 bc 79 75 25 be
       -0.04552369 0.11645006 -0.013767272 -0.16158094
000370 da 77 98 3d 06 3d f6 bd 50 0c 02 bd bf 6e 94 bd
       0.07444735 -0.12023358 -0.031750023 -0.07247686
000380 58 ff b2 3c a4 d8 6c bd bc 52 09 3d 76 2c 24 be
       0.021850273 -0.057823792 0.033526167 -0.16032586
000390 12 5b e9 3d 47 07 1a 3e 20 bd 53 3d bf f8 2f 3e
       0.113943234 0.15041839 0.051694036 0.17184733
0003a0 b5 1b 29 3e 08 c7 f0 bc 50 f1 6f 3c 9c 8c b4 bd
       0.16514476 -0.02939178 0.014644936 -0.088158816
0003b0 2b c9 25 be 82 90 a1 3d 49 fb 2f be a8 ab ec 3c
       -0.1619002 0.07888891 -0.17185701 0.028890446
0003c0 39 08 22 3e c0 bf 18 bd 0c c4 57 bd 66 f1 ff 3d
       0.15823449 -0.037292242 -0.0526772 0.12497215
0003d0 ba 24 24 be 16 e9 96 3d 62 46 9f 3d 9d 2a 00 3e
       -0.16029635 0.07368676 0.07777096 0.12516256
0003e0 60 47 b7 bb e8 30 17 3d 07 e1 13 be 38 44 02 bd
       -0.0055932254 0.036911875 -0.1444131 -0.03180334
0003f0 e2 b1 57 bd 01 12 19 3e 9f 6e a8 bd 28 30 00 bd
       -0.052659877 0.14948274 -0.08224224 -0.031295925

arith.constant10 f4 [32, 1, 3, 32]
000000 00 f3 e4 bb 3b 35 13 3e 48 11 9a 3c 2e 78 9e 3d
       -0.0069869757 0.14375775 0.018807068 0.07737766
000010 3a 5f 9f 3d 86 b5 d8 3d 10 a8 2d 3d 28 96 27 be
       0.07781835 0.10581498 0.042396605 -0.16365874
000020 28 4e 18 be de 14 d4 3d 57 34 2e be e2 c4 a5 3d
       -0.14873564 0.103555426 -0.17012154 0.08094193
000030 73 b1 1e 3e 3a 7b 96 3d d6 50 d0 3d 19 bb 2a 3e
       0.15497379 0.07347722 0.10171668 0.16672935
000040 f1 4c 04 3e dc da 1a be 96 8b ae 3d 47 9a 08 3e
       0.12919976 -0.1512255 0.08522718 0.13340102
000050 26 92 de 3d 70 4b 52 bd 76 57 ba 3d d5 d6 0c 3e
       0.10867719 -0.051341474 0.09098713 0.13753827
000060 63 bd 1d 3e 36 8f dc 3d ca 95 15 be c0 a1 1a be
       0.15404277 0.10769503 -0.14607921 -0.15100765
000070 b0 3e 83 3d a0 85 8f 3b 72 78 ff 3d 20 17 2a bc
       0.06408441 0.004379943 0.12474145 -0.01038149
000080 34 60 1a bd fe 23 f2 3d 1c f9 1e be a7 64 d2 bd
       -0.037689403 0.11823271 -0.15524715 -0.10273104
000090 f0 bd 18 3c b8 2d 7d bd 33 18 2e 3e 1e f1 ce 3d
       0.009322628 -0.06181118 0.17001419 0.10104583
0000a0 f2 26 d1 3d 16 6f db 3d 06 5a ce bd 8c 5f 71 3d
       0.10212506 0.10714547 -0.10075764 0.05892901
0000b0 df 51 86 bd c7 f3 a4 bd 10 d6 7b 3d e0 aa f0 3b
       -0.065585844 -0.08054309 0.061483443 0.0073445886
0000c0 8a 4a a8 3d de eb a4 3d 00 2f fd bc e6 19 a8 3d
       0.08217342 0.080528006 -0.0309062 0.08208065
0000d0 25 b4 96 bd 51 55 28 3e 2a 49 bd 3d 4c fa 2c 3d
       -0.073585786 0.16438796 0.092424706 0.04223089
0000e0 90 56 97 3c 0e c1 b2 bd 0d b9 20 be b8 5f 47 3d
       0.018473893 -0.087282285 -0.15695591 0.04867527
0000f0 e4 9e 91 3d 80 b7 9f bd 44 e0 78 3d 59 2e e1 bd
       0.07110384 -0.07798672 0.06076075 -0.10995168
000100 61 f1 49 bd 23 fa 08 be b7 58 22 3e 83 71 48 3e
       -0.049302462 -0.1337667 0.15854155 0.19574551
000110 d5 ea 2e be a8 fb 8e bd a8 f2 8a 3d 29 c2 11 bd
       -0.17081769 -0.06981593 0.06784564 -0.035585556
000120 37 76 60 3d d6 10 9a 3d 03 5c 9c bd 25 38 94 bd
       0.05480024 0.075227425 -0.07634737 -0.07237271
000130 77 c8 41 bd a4 aa 42 3e c2 59 26 3e d3 4a 18 be
       -0.04731032 0.19010407 0.16245177 -0.14872293
000140 48 d6 3e 3e a4 dc d1 3c aa ef 9a 3d 08 4a 90 bd
       0.1863643 0.025617905 0.075652435 -0.0704537
000150 ef b9 53 be 04 5c ed 3b 52 a8 8f 3c 56 3f 5c bd
       -0.20676397 0.007243635 0.017536316 -0.05377134
000160 48 9d 4e be 47 fb 55 3b 73 2d 88 3c ce 35 97 3d
       -0.20177186 0.0032650994 0.016623234 0.07383309
000170 fa 6c 2f bd fc 53 37 3e 6f 15 04 3e 9d c6 1c 3d
       -0.042828538 0.17903131 0.12898801 0.03827535
000180 48 5e 2e 3d 00 32 8c bc 42 3d ad 3d 10 f9 ab bd
       0.042570382 -0.017113686 0.084589496 -0.08397114
000190 40 f3 bc bd 0f 54 2a be 7a 22 9f 3d a3 18 2b 3e
       -0.09226084 -0.16633628 0.07770248 0.16708617
0001a0 12 7e a8 3d 92 45 2d be 48 04 ba bd 20 e2 06 bc
       0.08227171 -0.1692107 -0.09082848 -0.008232623
0001b0 fe a3 fb 3d 97 6b 24 3e 4d 4d 34 3e 1a 6a d5 3d
       0.122871384 0.16056667 0.17607613 0.10420628
0001c0 e3 2e 14 be 6d 52 19 3e 58 ff e5 bd f8 e8 53 3d
       -0.14471011 0.14972849 -0.112303436 0.05173585
0001d0 1d 92 cd bd c4 01 4a bd 8a 87 be 3d ab 39 19 3e
       -0.100376345 -0.04931809 0.09303196 0.14963405
0001e0 38 8f fb 3c c6 6d f6 3d 9e 20 ad 3d 1d ca b2 bd
       0.03070794 0.12032656 0.08453487 -0.08729956
0001f0 61 9d 34 3e c8 a7 8a bc c2 59 83 3d 7a 95 13 be
       0.1763816 -0.016925707 0.06413604 -0.1441249
000200 22 d9 b8 3d 00 00 ab bc a4 ce 0b be d7 8d 33 be
       0.0902579 -0.020874023 -0.13653046 -0.17534576
000210 a0 63 5f 3c 11 2e ae bd e7 74 33 3e 2d 3e 12 be
       0.013634592 -0.0850488 0.17525063 -0.1428153
000220 50 4d 8f bc ce 7a 26 be 96 ca f0 3d 2c c1 a0 bd
       -0.01749292 -0.16257784 0.1175739 -0.078493446
000230 c2 6f 02 be 16 32 b2 3d 38 f8 a8 bd 38 ee 6a 3d
       -0.12737945 0.087009594 -0.08250469 0.05735609
000240 8e e8 6f bd 6b f3 be bd 53 fc 16 3e 20 8f 17 bc
       -0.05857139 -0.09323772 0.14744692 -0.009250432
000250 15 a4 1e be f5 3f ab bd 10 52 79 3d e4 e7 20 3d
       -0.1549228 -0.08361808 0.060869277 0.039283648
000260 5a a2 c1 bd f5 d5 04 be 8e 87 0f be f6 2c 1b be
       -0.09454794 -0.12972243 -0.14016554 -0.1515387
000270 0b f1 ab bd 00 41 ca 3c 00 76 bd 39 c5 8f 14 be
       -0.08395585 0.024689198 0.00036136806 -0.14507969
000280 25 d8 d5 bc a5 1b 8e 3c eb 09 00 3e 03 88 9b be
       -0.026104042 0.017347166 0.12503783 -0.30377206
000290 97 99 6b 3e 31 26 2e be 23 c3 69 bc 37 20 07 be
       0.23007809 -0.17006756 -0.014267716 -0.13195883
0002a0 06 65 8b 3c cf 27 51 bc 8f c5 ae 3b 60 22 68 b7
       0.017015945 -0.012765839 0.0053336094 -1.3836281e-05
0002b0 97 78 e9 3c 94 0f a6 3d 43 02 ad 3c da 4a c4 bd
       0.028499885 0.0810844 0.021119243 -0.09584589
0002c0 53 8c 52 bd 65 d7 89 3e 09 d0 08 3d 7b 09 c8 3d
       -0.051403355 0.26922145 0.033401523 0.09767433
0002d0 60 a9 39 be 1c 0c d0 bd c8 ea 96 3d c7 e0 09 be
       -0.18131018 -0.1015856 0.07369 -0.13464652
0002e0 47 0a 44 3b 19 86 50 bd 6e 5c 61 bd cd 1a 28 be
       0.0029913352 -0.050909135 -0.05501979 -0.16416474
0002f0 d5 1b 08 3d bd e9 85 bd 1f e7 dc bc ec 13 33 3c
       0.033229668 -0.06538723 -0.026965676 0.010930043
000300 5c 05 b3 bd 42 64 32 be 75 5d d1 bd 30 41 74 bd
       -0.087412566 -0.17421058 -0.10222904 -0.05963248
000310 49 01 27 3e 74 c1 04 bd 6b 86 a8 bd f6 21 d3 3d
       0.16309084 -0.032411054 -0.08228763 0.10309212
000320 06 97 e5 bd 18 e0 92 3d 17 92 14 3e f0 4f ee 3c
       -0.11210446 0.07171649 0.14508854 0.029090852
000330 c0 5d 10 bb 7d 15 c4 bd 52 01 1d be 49 45 33 3e
       -0.0022028536 -0.09574411 -0.15332535 0.17506899
000340 2c 2c 4b bd c0 e0 bc 3c b1 70 be bd 17 b1 30 3e
       -0.049602672 0.023056388 -0.09298838 0.17255054
000350 62 af c6 3d f0 65 2c be 40 8a fa bd f0 eb 15 bd
       0.0970142 -0.16835761 -0.122334 -0.03660196
000360 56 5b 96 bd 58 f4 9d 3c 43 23 05 3e 64 50 23 bd
       -0.0734164 0.019281551 0.13001733 -0.03987159
000370 e3 08 19 3e 00 08 e3 3a 40 f7 87 3c 08 f7 05 bd
       0.14944796 0.001732111 0.01659739 -0.03270629
000380 d8 9d cf 3c a8 75 db bc b2 c3 08 be 66 89 f8 3d
       0.02534382 -0.026789501 -0.13355902 0.12135582
000390 b1 75 bd bd fe d3 bf bd 4e 07 a1 3d 53 68 06 be
       -0.092509635 -0.09366606 0.078627214 -0.13125734
0003a0 80 77 87 3d 91 9a 29 be 2a 58 e3 3d 8b 93 31 3e
       0.0661459 -0.16562869 0.111008 0.1734144
0003b0 17 1a 08 be 6e 61 8a 3d ac d8 22 be 80 06 ac ba
       -0.13291202 0.067568645 -0.15902966 -0.0013124496
0003c0 80 ea e3 bb 74 e7 3b 3d 2e f9 d9 3d 00 7e 33 bb
       -0.006955445 0.045875028 0.106432304 -0.0027388334
0003d0 12 6d e4 3d fe 58 2d be dd e8 29 3e 34 96 05 bd
       0.11153616 -0.16928479 0.16592737 -0.032613948
0003e0 b5 28 23 3e f0 a1 d5 bc d4 75 7f 3d 48 78 98 bc
       0.15933497 -0.026078194 0.06236823 -0.018612042
0003f0 5c ea 18 bd fa 5c 64 bd 84 54 53 bd 08 30 f8 bc
       -0.037332878 -0.05575273 -0.051594272 -0.03029634

arith.constant11 f4 [32, 1, 3, 32]
000000 40 ea b0 bb 8c c3 18 be 48 8e 60 3d 0a 05 5a bd
       -0.0053990185 -0.14918345 0.05482319 -0.053227462
000010 ed 9e 21 3e 6e 03 6b bd a1 c1 aa bd 63 dd 0d 3e
       0.15783282 -0.057376318 -0.08337713 0.13853984
000020 f8 30 f8 bd e0 a1 aa 3c 60 61 3b bd f0 d8 75 3c
       -0.12118715 0.020829141 -0.04574716 0.015005335
000030 ea 96 ea 3d d6 9c aa bd b6 e1 ab 3d 38 1f e8 3c
       0.11454566 -0.08330695 0.0839266 0.028335199
000040 a0 03 5f 3c b8 3f b9 3c 81 a4 00 3e c9 70 24 3e
       0.013611704 0.022613391 0.12562753 0.16058649
000050 46 5c e5 3d d4 da 53 3d a3 a7 fb bd 40 15 51 bd
       0.111992404 0.051722363 -0.122878335 -0.051045656
000060 71 d3 b6 bd c8 70 57 bd b8 3a ee 3c ea 08 f7 bd
       -0.08927048 -0.05259779 0.029080734 -0.12062247
000070 76 75 9d bd 9b e3 18 3e 90 1a 20 bc 3a e4 b4 3d
       -0.076884195 0.14930575 -0.009771958 0.08832593
000080 be 8e 36 be 24 29 48 bd fb 4d 16 bd 07 2f 06 be
       -0.1782789 -0.04886736 -0.03669546 -0.13103877
000090 b5 a2 8e bc 73 1b 57 be 94 ce c0 bd 55 08 42 3d
       -0.01741157 -0.21006565 -0.09414402 0.047371227
0000a0 a5 65 5f 3d c6 58 76 3d 29 94 0f 3e 94 48 38 3c
       0.054540295 0.060143255 0.14021362 0.011247773
0000b0 8c 58 d3 bc 6f f4 07 3c cd 2f 01 be c2 08 f1 bc
       -0.025799058 0.008298024 -0.12615891 -0.029423121
0000c0 25 b9 c6 3b 24 a6 af bc 5c 8d 41 bb d3 28 fc 3d
       0.0060645514 -0.021441527 -0.002953372 0.12312474
0000d0 c6 77 5f 3c ab 86 0e 3c 58 b2 c1 3c 9d 7d bf bb
       0.013639396 0.0086990995 0.023644611 -0.0058438317
0000e0 6d 86 4f 3e 82 c9 96 bb f3 be 92 bd 00 91 f1 bd
       0.20266123 -0.0046016583 -0.07165327 -0.11795235
0000f0 51 db ce bb e0 62 25 3e dd b4 d5 3d cd 2a 90 bd
       -0.0063127656 0.16150999 0.104348876 -0.070394136
000100 cb 58 33 be cf e3 26 3d 47 2f 6b ba 80 47 1f bd
       -0.1751434 0.0407446 -0.00089715834 -0.038886547
000110 91 19 47 be 9d 3f 48 3e 65 19 2c be 93 18 80 be
       -0.19443347 0.19555517 -0.16806562 -0.2501875
000120 af de 99 3d c6 ef b6 bb b5 74 60 be 71 42 46 be
       0.07513177 -0.0055827824 -0.2191952 -0.19361283
000130 3e 29 48 3e 3d 07 39 3e 85 99 86 3d 0c 22 23 be
       0.19546983 0.18069167 0.0657225 -0.15930957
000140 73 c8 67 bd 4d 4a 49 bd 13 0f 8c 3e 81 b0 87 3d
       -0.056587648 -0.049143124 0.2735525 0.06625462
000150 02 37 cb bc fd b6 14 be a9 f6 3c 3e 50 31 84 be
       -0.024806503 -0.1452293 0.18453468 -0.25818872
000160 df 5c 0f 3d d1 7f ac bd 8d 09 4a be e8 87 f9 bd
       0.03500068 -0.084228165 -0.19730206 -0.12184125
000170 b0 df 36 3d b6 33 c0 3d f5 c4 d6 bc 28 23 4f 3d
       0.04464692 0.09384863 -0.026216963 0.050570637
000180 12 f4 10 be 7a 75 a7 bd 74 3e 92 3d 4d 53 0a 3e
       -0.14155605 -0.08176704 0.07140818 0.13508339
000190 20 b2 36 bd 23 b1 2d be de ac a5 3d 51 5e 21 3e
       -0.044603467 -0.16962104 0.080896124 0.15758635
0001a0 a0 10 9e bc 84 f1 79 3d 8a c9 d0 bd 7e e1 5d bd
       -0.019295037 0.061021343 -0.101946905 -0.054170124
0001b0 4f 69 0c be 6e cd 90 bd c4 a9 0f 3d 38 bb 15 be
       -0.13712047 -0.070704326 0.03507401 -0.146222
0001c0 db 3d 19 3e 8a 7b c4 3d 40 18 fb bc 26 2c ac 3d
       0.14965002 0.09593876 -0.030651212 0.08406858
0001d0 fa c4 de 3d aa 9a e7 3d 50 74 18 3d a0 38 53 bd
       0.10877414 0.11308797 0.0372203 -0.051567674
0001e0 ba 64 ee bd 3e b2 25 be 98 b2 6a bd fd 77 13 be
       -0.11640306 -0.16181275 -0.057299227 -0.1440124
0001f0 f0 33 4f 3c 50 ea 57 3d 23 f7 a8 bd 36 95 c7 3d
       0.01264666 0.052713692 -0.082502626 0.097452566
000200 81 f4 eb bd 04 7f 5f 3d 07 eb d3 3c f7 54 6d 3d
       -0.11521245 0.05456449 0.025868906 0.057942357
000210 14 bd f8 bd be 9d 0d 3e df 41 0f be fa 3a d6 bc
       -0.12145439 0.13829705 -0.13989972 -0.02615117
000220 c9 3c 98 bc 6d 35 69 3a 40 8b f1 bd 4e 20 70 bd
       -0.018583672 0.00088962057 -0.11794138 -0.05862456
000230 c9 b0 8d bc 86 47 a4 3d 2b 16 18 3c b8 92 d5 3c
       -0.017296212 0.080214545 0.009282629 0.026070938
000240 e1 fb 47 be fe 24 a9 3c 94 3d e0 3b 13 79 1e 3e
       -0.19529678 0.020647522 0.006843278 0.15475874
000250 85 dc 08 3e b8 38 70 3d 81 18 6d 3b 9e 50 d7 3d
       0.13365372 0.05864784 0.0036177936 0.105134234
000260 14 ed cf 3d 50 2c 42 3d 1d 55 9a 3d 2c 29 ac bd
       0.10152641 0.04740554 0.07535765 -0.084062904
000270 6a 67 55 be 0a 89 9c 3d 00 5b d1 3b c8 d0 2e bd
       -0.2084023 0.076433256 0.006389022 -0.042679578
000280 2d 5e 14 be 4b d2 85 ba dc 6d f6 3d b1 58 07 3e
       -0.1448905 -0.0010209767 0.12032673 0.13217427
000290 a5 1c 3f bc e4 d9 bf bd b3 94 fa 3d 6d 7f 64 bc
       -0.011664544 -0.09367731 0.122353934 -0.013946396
0002a0 d3 37 57 be b6 7b 56 3e 31 f6 bc bd 98 ea 90 3d
       -0.21017389 0.2094563 -0.09226645 0.07075995
0002b0 9e 93 c4 bc 3f d7 a1 bd 53 a9 92 3c 47 42 c9 3d
       -0.02399617 -0.07902383 0.017903006 0.098270945
0002c0 15 96 97 3b c3 40 f1 3d da 31 8f bd fd 55 19 be
       0.0046260455 0.117799304 -0.0699193 -0.14974208
0002d0 f7 57 fc 3d ac 2b e6 bd 98 84 5a bd 8d 27 05 be
       0.123214655 -0.112387985 -0.053349108 -0.13003369
0002e0 ad 9f 11 bd c0 4a ef bc 23 85 43 3d 63 3a 32 3d
       -0.03555267 -0.029210448 0.04773439 0.043512713
0002f0 c3 51 4c bd 2e 1a f9 3c 15 4b 29 3e 20 7d 0b 3d
       -0.04988266 0.030407991 0.16532548 0.034054875
000300 f4 29 04 bd dd ff 04 3e 0a 33 7e bd ca 2a b8 3d
       -0.032266572 0.12988229 -0.062060393 0.08992536
000310 1e 92 28 be 70 69 d6 bc 0c 58 20 be dd c4 02 3e
       -0.1646199 -0.026173323 -0.15658587 0.1277041
000320 50 36 5a bc d4 b2 6d 3d 00 aa 32 ba ac d7 40 bd
       -0.013318613 0.058031872 -0.0006815493 -0.04708068
000330 0f 31 0f 3e cb 8b 1e 3e f8 9b af bd ad 77 29 3e
       0.13983558 0.15483014 -0.085746706 0.16549559
000340 96 6e b2 3d 68 8d 81 3d 19 11 a5 bd a4 7e 00 be
       0.08712499 0.06325799 -0.08059902 -0.1254831
000350 51 42 30 3e 92 d4 c7 3d 54 13 88 3d 20 1f ae bd
       0.17212798 0.097573414 0.066443115 -0.085020304
000360 72 12 c4 3d 90 07 92 bd ee 8b f7 3d b2 13 ff bd
       0.09573831 -0.07130349 0.12087236 -0.124549285
000370 40 51 18 be f0 e1 33 3d c4 b6 60 3d d7 44 03 3e
       -0.14874744 0.043916643 0.0548618 0.12819229
000380 aa d1 d3 bd 5e 9e 2f 3e 30 e1 39 be 2a 45 0d be
       -0.103427246 0.17150256 -0.18152308 -0.13795915
000390 da e0 73 3e 37 ed a8 bd 92 39 8b 3d c4 c9 99 bd
       0.23816243 -0.0824837 0.0679809 -0.07509187
0003a0 9c ca 5d 3d 9b a5 1f 3d fb e9 47 3e 66 67 33 3d
       0.0541483 0.038976293 0.1952285 0.04379978
0003b0 85 a8 73 be 3a 34 f4 3d 4e 22 5d 3d f9 ac 80 bd
       -0.23794754 0.11924024 0.053987794 -0.06282992
0003c0 b2 b4 c0 3d 13 7c 9d bd ac 9e 57 be 12 47 f6 3d
       0.09409465 -0.07689681 -0.21056622 0.12025274
0003d0 cf 03 1f 3d 10 d5 21 3e 13 03 0c be 6f dc ad bd
       0.03882199 0.15803933 -0.13673048 -0.0848931
0003e0 5a 00 2d be 0c 52 7e bc 0a de 32 3e 25 c1 5f 3d
       -0.16894665 -0.015522491 0.17467514 0.054627556
0003f0 d1 5b cd 3d 34 7a 97 bc 27 d7 22 bd 1a bf 66 3e
       0.10027278 -0.018490888 -0.039755967 0.22533837

arith.constant12 f4 [32, 1, 3, 32]
000000 3a 81 c4 3d 75 8c 2d 3e f6 7c f9 3d b2 31 b4 3d
       0.095949605 0.16948111 0.121820375 0.08798541
000010 80 85 d3 3b 52 cf bd 3d 02 50 db 3d 21 c7 cc bd
       0.0064551234 0.09268059 0.1070862 -0.09998918
000020 e0 9a 5c bc 4f fe 13 3e 10 d1 44 bc 70 33 a9 bd
       -0.013464659 0.1445248 -0.012012735 -0.08261764
000030 e5 36 32 3e 50 09 49 bd 34 4e 04 be b7 e3 23 be
       0.17403753 -0.049081147 -0.12920457 -0.16004835
000040 f0 fb f8 bc 7e 67 99 3d 51 2a 2e 3e b2 e8 cc bd
       -0.03039357 0.07490443 0.1700833 -0.100053206
000050 f9 d1 2b 3e cb c9 86 bd 42 5e ee 3d 4f aa cd bd
       0.16779317 -0.06581458 0.11639072 -0.100422494
000060 67 c0 1f 3e 22 2c b0 bd d5 d8 08 be ea be c1 3d
       0.1560074 -0.08602168 -0.13363965 0.09460242
000070 46 15 80 3d 0f 6f 2b 3e 30 1c 76 bd 54 a5 47 bd
       0.062540576 0.16741584 -0.060085475 -0.048741654
000080 32 43 86 bc 8e 34 32 3e a9 ac 39 3c c4 f2 ac 3d
       -0.016389463 0.1740286 0.011332669 0.08444741
000090 c2 c7 2e be 81 3e 99 bd 11 4b aa be 1a e5 80 bd
       -0.17068389 -0.07482625 -0.33260396 -0.06293698
0000a0 00 c7 96 bd 10 da 07 3e b7 d3 0c be 07 81 bb 3d
       -0.07362175 0.13266778 -0.13752638 0.091554694
0000b0 a1 08 1a be f8 e8 90 3d 22 26 0b 3c 37 4d 15 3e
       -0.15042354 0.07075685 0.008492978 0.14580236
0000c0 a6 28 18 3e 18 3d 9b 3e a0 d6 a7 bd 34 4a 88 bd
       0.14859256 0.30320048 -0.08195233 -0.06654778
0000d0 ec bf 62 3d 64 7c 04 bd 4c 3f 56 3e fb 63 63 3d
       0.055358812 -0.03234519 0.20922583 0.05551527
0000e0 ca f9 79 3d 31 79 e4 bd 60 f6 11 be cc 64 be bd
       0.061029233 -0.11155928 -0.14254141 -0.09296569
0000f0 33 ff 4d 3e cc 9c 09 3e 1f 2e 34 be 2c 49 9a 3d
       0.20116882 0.1343872 -0.17595719 0.07533488
000100 d2 3a 41 3e 72 34 64 39 a1 89 43 be 6f d2 9d be
       0.18870094 0.00021763312 -0.1909547 -0.3082461
000110 0c 9c 45 3b e0 e5 4f be 98 12 0a be 51 1d 87 3d
       0.0030152826 -0.20302534 -0.13483655 0.065973885
000120 67 a7 5a bd 21 3f a8 3d c2 3f 82 3d 26 e7 c6 bd
       -0.053382304 0.08215166 0.06359817 -0.09712057
000130 b7 43 1d 3d ee 8c f4 3d c0 2a 23 be e0 e7 3e 3d
       0.038394656 0.11940943 -0.15934277 0.046607852
000140 9d c2 72 bd 1b 46 53 3e 39 25 a2 bd a9 b3 af 3c
       -0.05926763 0.20632212 -0.07917256 0.021447973
000150 79 25 3b bd f0 78 90 3d ef e4 9d 3d a1 fe f8 bd
       -0.045690034 0.07054317 0.07709681 -0.121579416
000160 d6 50 09 3d 84 d2 df 3c fb 5b 39 be 5e 88 77 bd
       0.033524357 0.027322061 -0.18101494 -0.060432784
000170 44 f9 e6 3d 5b 2e 56 3d 92 2d 60 3d 7d 23 ee bc
       0.112780124 0.0522903 0.05473096 -0.029069657
000180 e8 b7 da bc 88 f0 94 bc f8 bd 68 3d d5 88 81 bd
       -0.026699021 -0.0181811 0.056821793 -0.06324927
000190 98 35 be bc f8 86 ec 3c 7f a7 19 3e 04 76 36 bd
       -0.023218915 0.028872952 0.15005301 -0.044546142
0001a0 9d 4a 15 be ec 31 5e bd a9 e4 22 be e0 dc e1 3b
       -0.14579244 -0.054246828 -0.1590754 0.0068927854
0001b0 38 57 75 3d 15 e2 2d 3e 08 a1 bc 3c 98 1a 1c be
       0.05989763 0.16980775 0.023026004 -0.1524452
0001c0 84 d7 c5 bd 43 c7 02 3e 70 a6 2d bd 28 ac 16 be
       -0.09660247 0.12771325 -0.042395055 -0.1471411
0001d0 6b 04 ad bd 14 41 9b bd 40 d5 8e 3b 39 57 2c 3e
       -0.08448108 -0.07580772 0.0043589175 0.16830148
0001e0 88 9a 84 3c 28 22 90 bd 41 91 c4 bd 0e 27 f2 bd
       0.016186967 -0.07037765 -0.095980175 -0.11823855
0001f0 45 72 0a be 03 88 10 3e 04 ce 22 3d 60 c7 33 3d
       -0.13520153 0.14114384 0.039747253 0.04389131
000200 4c c1 7f bc cd 26 01 3b 82 77 3d 3e 51 9c 15 be
       -0.01561005 0.0019706965 0.1850262 -0.14610411
000210 f3 b7 db bd d0 a7 f9 bd b3 6d 04 be 44 59 78 3d
       -0.10728445 -0.12190211 -0.12932472 0.060632005
000220 5f 76 28 be 72 a4 7b 3d 20 38 61 3e a8 b2 34 bd
       -0.16451405 0.061436124 0.21994066 -0.044115692
000230 d9 bf cd 3d b6 1b f0 bd a1 16 3c be 52 6c 8f bd
       0.10046358 -0.117240354 -0.18368007 -0.07003082
000240 a9 a1 aa bd ff 35 06 3d e1 23 85 3d 50 7d 06 be
       -0.083316155 0.03276634 0.06500984 -0.1313374
000250 e9 5e c5 bd 9d 79 15 3e b6 82 e6 3c d7 64 23 3c
       -0.09637243 0.14597173 0.0281385 0.009972773
000260 d9 16 cf bd ff 62 1d 3e d3 48 7b 3d 79 56 8d bb
       -0.1011178 0.15369795 0.061348747 -0.004313287
000270 6a 26 89 3c 19 77 05 be a0 3b 26 bd fe d0 a3 bd
       0.01674195 -0.13033713 -0.040584207 -0.079988465
000280 ca 64 43 3d c8 d9 ff bd 11 7f 8a bd 3d cb 91 3d
       0.04770354 -0.1249271 -0.06762517 0.07118843
000290 07 31 41 3e 3f a6 0e 3e df b4 22 3e 7c ba 43 bd
       0.18866359 0.13930605 0.1588931 -0.047785267
0002a0 3e 09 10 bd e3 53 5f be 00 4f 82 3d 18 97 6a bd
       -0.035165064 -0.21809344 0.06362724 -0.057273
0002b0 8f 92 a5 3d 36 af 78 be 2e 8d c3 3d 45 d5 2d 3d
       0.080845945 -0.24285588 0.09548412 0.042439718
0002c0 27 fc b2 3d b4 df 2c 3d f1 41 83 bd d3 e6 41 3d
       0.087395005 0.042205527 -0.06409062 0.04733927
0002d0 12 fc 82 bd 00 29 85 3d 82 f7 9a 3d c0 06 18 3e
       -0.06395735 0.06501961 0.075667396 0.14846325
0002e0 39 d0 15 3c 77 a3 d6 ba e2 29 e6 bb b8 8d 00 3e
       0.009143882 -0.0016375621 -0.007024036 0.12554061
0002f0 9f d1 88 3c 74 65 d2 3d dd 6a ad 3d 9c e3 fd 3d
       0.016701518 0.10273257 0.08467648 0.12396929
000300 06 00 24 be a7 19 2d 3e 6b f8 ac bd 93 4c 1a 3e
       -0.16015634 0.16904317 -0.084458195 0.15068273
000310 00 22 24 bd a0 2f 6b bd 5f 35 04 3e e1 92 09 be
       -0.040071487 -0.057418466 0.12910984 -0.13434936
000320 46 23 d5 3d 82 06 89 bd f5 42 25 3e 30 89 63 3c
       0.104071185 -0.066906944 0.16138823 0.0138876885
000330 00 98 4d 3b 80 dd af 3c e0 3b 3f bd a5 2e 1e 3e
       0.0031371117 0.021467924 -0.04668796 0.15447481
000340 f0 ef d3 3c a4 de 1b be 26 96 a8 3d cd 83 12 3e
       0.025871247 -0.1522165 0.082317635 0.1430809
000350 20 74 d0 bc a8 34 34 bd 13 f3 b4 bd ba 64 16 be
       -0.025445998 -0.04399553 -0.08835425 -0.14686862
000360 0f 21 08 3e 3f 6e 12 3e bd 13 30 3e 80 76 f0 3c
       0.13293861 0.14299868 0.1719503 0.02935338
000370 4c 71 27 3d 24 d4 33 be 90 38 b9 3c e1 e4 1c be
       0.040879533 -0.17561394 0.022609979 -0.15321685
000380 52 91 32 3d 7e ed 1b 3c 06 25 70 bd 43 6e b5 bd
       0.04359562 0.009517072 -0.05862906 -0.088589214
000390 09 c2 cf 3d 3a fd 99 3d 17 04 2f be 43 d0 c8 bd
       0.10144431 0.07519002 -0.17091404 -0.09805348
0003a0 43 e8 10 bd d6 64 5b 3c 66 19 06 be 89 ab 67 be
       -0.035377752 0.01339074 -0.13095626 -0.22624029
0003b0 52 35 29 be 61 8c 0c 3e ca 82 4a bd e6 27 3e be
       -0.16524246 0.13725425 -0.049441136 -0.18569908
0003c0 13 31 25 3e be 2a ed bd d7 77 77 3c fd f7 d3 bd
       0.16132002 -0.11580418 0.015104256 -0.103500344
0003d0 05 9d 61 be 25 76 5a bd f4 14 b1 bb a6 ec 92 3d
       -0.22032554 -0.053335328 -0.005404109 0.07174043
0003e0 8e 08 c5 bd bb 1d ef bb e7 7e 80 3d 70 b7 ce 3c
       -0.09620772 -0.0072972453 0.06274205 0.025233954
0003f0 04 ce 8c bd 8c 68 fa bc 22 f1 2d 3c 9b 0f 98 3d
       -0.06875232 -0.03056743 0.010616573 0.074248515

arith.constant13 f4 [32, 1, 3, 32]
000000 40 e0 52 bd 38 c5 50 be 24 c0 84 3d 41 f0 a8 bd
       -0.051483393 -0.20387733 0.064819604 -0.0824895
000010 76 5e f8 3c 2e a3 24 bd e6 64 32 3e 58 e3 56 3e
       0.03031848 -0.040194683 0.17421302 0.20985162
000020 f0 b3 13 3e f6 ba 11 3d 8b 09 94 3d 0c 81 00 3e
       0.1442411 0.03557869 0.07228383 0.12549227
000030 1d fe 1a be c7 0b aa 3d 13 6b 2e 3d b7 11 ec 3d
       -0.15135999 0.083030276 0.042582583 0.11526816
000040 cb e0 15 be f5 83 2e be 01 f6 88 bd 69 8f 15 bd
       -0.14636533 -0.17042525 -0.066875465 -0.03651372
000050 9e 9c bd bb 9a b9 06 bd c4 6d d2 3d e4 fd e8 3b
       -0.0057864925 -0.032891847 0.102748424 0.0071103442
000060 a1 be 82 3d b4 b9 0f be 37 47 93 3d ad 64 39 3e
       0.06384016 -0.14035684 0.071913175 0.18104811
000070 19 4a 21 bd 84 9d a1 3c 7c 7c 3a bd 10 d2 1d 3d
       -0.039377306 0.01972843 -0.045528874 0.03853041
000080 28 ff d8 bd 2f fa 98 bc bb a4 a8 bd ae d5 e8 bd
       -0.10595542 -0.018673984 -0.08234545 -0.11368881
000090 32 ec 5a 3e 80 ef 03 3e f2 7c 3f 3e 6b e4 93 3d
       0.21379164 0.12884331 0.18700007 0.07221302
0000a0 c5 e0 e8 bd b8 be 92 bd 56 86 de bb cd a0 4c bd
       -0.113709964 -0.07165283 -0.0067909164 -0.04995804
0000b0 20 39 9d 3d e9 1a 13 3e 0a a9 17 bc 55 43 39 be
       0.07676911 0.14365734 -0.009256611 -0.18092091
0000c0 ff c8 8e 3d 29 73 38 3d ef f7 5a be cb ad 19 bd
       0.06971931 0.0450317 -0.21383642 -0.037519258
0000d0 27 6b 54 bd d4 b4 48 bc 58 6a 6e be 7a 3b cc bd
       -0.05186 -0.012250144 -0.23282754 -0.09972282
0000e0 45 bd 69 bd 5c 20 3e 3d 50 bb 20 3e ba 5f 14 3e
       -0.057065267 0.04641758 0.15696454 0.14489642
0000f0 70 a9 28 bd 8e 6b fa bd 48 fc 1a 3e ec bb 2b 3e
       -0.041177213 -0.12227546 0.151353 0.16770905
000100 9b 70 0b 3e dd 65 b5 bc 8e fb 9f 3d a7 e4 02 be
       0.13617174 -0.022143299 0.07811652 -0.12782536
000110 e6 06 95 3c 47 9d c8 bc cc 84 4e be 35 c7 85 bb
       0.018191766 -0.024489058 -0.20167845 -0.004082585
000120 9d 1e 93 3b c0 7a d6 bd 6f e6 6a 3e f5 d7 5c be
       0.0044897334 -0.104726315 0.22939466 -0.21566756
000130 df 9f d5 bd dd 93 26 be 69 11 e4 3d 7d c3 5d 3e
       -0.104308836 -0.16267343 0.11136133 0.21656604
000140 86 94 5d be 87 a9 57 be a1 b8 80 3e f9 c3 80 bd
       -0.21638688 -0.21060763 0.2514086 -0.06287379
000150 0a 47 89 bd d2 65 82 b6 f6 8f 84 3c 87 a3 b1 3c
       -0.06703003 -3.8861554e-06 0.016181927 0.021684421
000160 61 15 23 be ea 98 e7 3d 1e 83 71 3e 04 a0 af bc
       -0.15926124 0.11308463 0.23585173 -0.021438606
000170 c5 47 2d bd 75 46 4b bd 67 32 1c 3e 1c dd 28 be
       -0.042304773 -0.04962774 0.15253602 -0.16490597
000180 f6 58 84 3e 07 e0 2e bd 77 df 2f bd 2b cd f1 bd
       0.25849122 -0.042694118 -0.042937722 -0.11806711
000190 93 b4 b2 bd 22 3f 2e bd ce 8a e3 3d d2 02 50 bd
       -0.08725848 -0.042540677 0.11110459 -0.05078394
0001a0 d2 5a ec 3d 99 b5 91 3d 72 42 ed 3d 4e 34 0b 3c
       0.1154076 0.07114715 0.11584939 0.008496357
0001b0 57 26 5a 3d 2d 78 0d be e7 40 18 be 09 10 93 bd
       0.05325922 -0.13815375 -0.14868508 -0.07180793
0001c0 74 14 f8 bd 31 10 9d be 6e 9b 07 3d 33 1b d0 bc
       -0.12113276 -0.30676416 0.033107214 -0.025403595
0001d0 c2 bc ec bc 83 44 88 bc 07 f6 92 bb f9 33 3f 3d
       -0.0288986 -0.016634231 -0.004484895 0.046680424
0001e0 f8 b5 3a 3e d3 31 ec 3c 79 57 fa 3c 0e 46 a1 3c
       0.18233478 0.028832352 0.030559288 0.019686725
0001f0 3a ed 22 be 11 22 b1 3d a7 ba 5b bb 8f 04 e8 3d
       -0.15910807 0.08649076 -0.0033528002 0.113289945
000200 fd 50 9d bd cd 59 94 bc a1 c3 84 3d 2b c0 ff 3d
       -0.07681463 -0.018109227 0.06482626 0.12487825
000210 6f 17 27 be 77 0e 0e be 6c aa da bd aa ea c5 bc
       -0.16317533 -0.13872705 -0.10677037 -0.024159748
000220 90 c7 9d bb 64 ef 48 be 13 ef bf 3c d1 81 6e bd
       -0.0048150495 -0.1962257 0.02342943 -0.05822927
000230 be 17 c3 3c dc 6e 18 3e c7 9a e0 3c 71 cd f6 3c
       0.023815032 0.1488604 0.027417554 0.030127259
000240 db 84 48 3d d1 59 1f 3d e8 6c c4 bd 52 55 c1 bd
       0.048954826 0.038904015 -0.09591085 -0.09440102
000250 ec 28 cf 3d 41 14 b6 3d 38 61 9b 3d 5e a7 73 be
       0.10115227 0.08890582 0.075869024 -0.23794314
000260 04 c6 e5 3d d6 34 89 bd 1c fe b2 3a 40 af 1a 3e
       0.11219409 -0.06699531 0.0013656053 0.15105915
000270 b9 38 41 3d a8 e0 29 3e dd 36 44 3e e1 d2 49 3d
       0.047173236 0.16589606 0.19161554 0.049273375
000280 cb 32 5a 3c 6d c4 4a bd 06 b5 f4 bd 7d de 04 3e
       0.013317774 -0.049503732 -0.1194859 0.12975498
000290 29 cb f1 3d 51 de 3d 3e c4 39 23 3e 79 4b d6 3d
       0.11806328 0.18541838 0.15940005 0.10463614
0002a0 b4 26 f8 bd 7a 1d bf bd 9f 96 9a bc 92 a7 6d be
       -0.12116757 -0.09331794 -0.01887065 -0.23208454
0002b0 db dd a0 bd 27 f5 b5 3c 22 11 a4 3d 30 13 b3 bd
       -0.078548156 0.022211624 0.0801108 -0.08743894
0002c0 e1 a1 e8 bd ec bf 8d ba 31 91 79 be 88 2f 13 be
       -0.11359001 -0.0010814643 -0.24371792 -0.143736
0002d0 46 19 fc bc c6 e4 88 3d 2c b6 08 bc e9 c1 13 be
       -0.03077377 0.0668426 -0.008344214 -0.1442944
0002e0 53 6e 80 bd d4 6f 59 3c 62 ef 28 bc a7 d4 33 3c
       -0.06271043 0.013271291 -0.01031098 0.010975993
0002f0 70 bf ed 3b d3 1c c3 bd 48 6b 12 3e 7b e5 0e be
       0.007255487 -0.09526982 0.14298737 -0.13954727
000300 b3 1b 5d be 1a 65 b7 3c 91 62 26 bd 19 cc 2b 3e
       -0.21592598 0.022387076 -0.040621344 0.16777076
000310 64 72 0b 3c 24 f2 bd bc b5 a0 1c 3d c4 52 9a bc
       0.00851116 -0.02318675 0.0382392 -0.018838294
000320 f7 8e 26 3e d0 b8 de 3d 67 a4 3a bd 08 71 52 3b
       0.16265474 0.10875094 -0.045566943 0.003211083
000330 11 69 0b 3e 96 49 97 bd 06 0f 82 3e 96 83 af bd
       0.13614298 -0.07387082 0.25402087 -0.0857002
000340 71 ea 7a bc 97 de fb 3d 8a 31 f1 3d 1c 84 1f bd
       -0.015314684 0.12298315 0.11777027 -0.03894435
000350 0c 35 ac 3d 98 c9 66 bd a0 a1 d6 bd 4c cc 91 bd
       0.084085554 -0.0563446 -0.10480046 -0.07119045
000360 21 cd 7d 3d 18 f5 19 3e ca 25 f9 3d 34 38 0e be
       0.061963204 0.15034902 0.12165411 -0.13888627
000370 e0 40 e8 3d 28 bf 92 3c 34 bd 05 3e 47 af 83 3d
       0.11340499 0.017913416 0.13060457 0.06429916
000380 46 26 c9 3d 0c 98 94 3d 18 b0 51 bd ce 5f 35 3d
       0.09821753 0.07255563 -0.051193327 0.04428082
000390 0e c7 2c 3e 04 56 9b 3d 4e 4a b8 3d 9d 9a e6 3a
       0.16872808 0.075847656 0.089985475 0.0017593686
0003a0 1a be b9 bc 92 4b 46 3d fa fd 86 bd 50 28 76 3c
       -0.022673655 0.048411913 -0.06591411 0.01502426
0003b0 49 14 a2 3d d6 59 27 be 05 3d 04 3e b9 50 9e 3d
       0.07914025 -0.16342863 0.12913902 0.077302404
0003c0 dc b5 cf 3d 6d cc 13 bd cc d7 b4 bd ff 5f 23 3e
       0.10142109 -0.036083627 -0.088302225 0.15954588
0003d0 95 6f fc bd 7b 1d e7 bd cc 27 da 3d 8c 2d 4c be
       -0.1232597 -0.1128492 0.10652122 -0.1993925
0003e0 af 90 76 3e 18 14 06 bd 7a 15 d8 3b 5b 62 48 be
       0.2407863 -0.032734007 0.006594357 -0.1956877
0003f0 a4 9f dc bc fd ca 70 be d4 50 2b bb 82 86 65 3d
       -0.026931591 -0.23514934 -0.0026140707 0.05603648
