common/src/main/assets/tcn_models/tcn_multihead.tflite (tflite, 623408 bytes, 61 tensors)

arith.constant f4 [64]
000000 11 c2 01 3e 42 b9 32 bc f4 ad 24 3e 79 11 24 3d
       0.12671687 -0.010908427 0.16081983 0.040055726
000010 2c c9 76 3d a3 f2 7a bd 90 30 11 bd 3f b4 1a bc
       0.060250446 -0.061266553 -0.035446703 -0.009442388
000020 28 b1 5d 3d 09 11 1b 3c 97 a0 aa bc 34 a2 ca 3d
       0.054124027 0.009464511 -0.020828528 0.09894219
000030 e7 98 a7 3d 06 90 ad 3d 14 80 29 bd 42 60 87 3d
       0.08183461 0.08474736 -0.04138191 0.066101566
000040 5d 0a cf 3d 9d 4b 3a 3d a2 a2 fa 3d 70 2b a3 3d
       0.101093985 0.045482267 0.12238051 0.079672694
000050 3c 17 01 3e 1d 0c 69 bd 52 cc ca bc 01 d6 10 bd
       0.1260652 -0.056896318 -0.02475563 -0.03536034
000060 a0 cc 87 39 a9 00 5a bd c0 cf 23 bd e8 9e ed 3c
       0.00025901664 -0.053223286 -0.039993048 0.029006436
000070 4e 97 ee 3d a0 4f 17 bd bb f8 02 bd b0 cb ad bc
       0.11649953 -0.03694117 -0.03197549 -0.02121529
000080 36 0a f4 bc e1 47 0a bd c9 4f 9c bd 97 96 7d 3e
       -0.029790025 -0.033759955 -0.07632405 0.24764477
000090 e4 eb 12 bd 08 df 71 3c 1d ba 4b 3e 2e 75 09 3e
       -0.035869494 0.014762647 0.19895215 0.13423607
0000a0 a8 fd 08 ba f1 df 46 3e 37 ce eb 39 b4 74 e5 bb
       -0.0005225786 0.19421364 0.00044976335 -0.0070024375
0000b0 9d fc b1 3c 78 c8 11 bc 4a d5 e3 3b a3 2d 13 3e
       0.0217269 -0.008897893 0.0069529163 0.14372878
0000c0 70 f4 f3 bc b7 8c 52 bc 15 26 08 3e 93 7d a1 3c
       -0.029779643 -0.012850932 0.13295777 0.019713199
0000d0 4e 61 08 3e e4 6c b3 3c 4d 60 77 bd a7 d0 39 bd
       0.13318369 0.021902509 -0.060394574 -0.045365002
0000e0 f0 aa 90 bc 7b 46 a8 3d f2 bb 34 bd 2d b2 54 3e
       -0.017659634 0.08216568 -0.04412455 0.20771094
0000f0 92 e7 0f 3e 39 54 3a 3e 3e 84 10 3e 98 c9 1f bd
       0.14053181 0.18196191 0.14112946 -0.039010614

arith.constant1 f4 [64]
000000 9d 85 fb 3d bc e1 20 3e cf 0f 3e 3c a9 01 68 3d
       0.12281344 0.15711111 0.011600449 0.05664221
000010 a8 eb c3 3d 60 e0 9b 3d 20 16 d1 3d 3a 5b d2 3d
       0.09566432 0.076111555 0.10209298 0.10271306
000020 b2 da ee 3d 28 fe fd 3d 1b a3 17 bd 49 37 0c 3e
       0.116628066 0.12401992 -0.037020784 0.13692965
000030 b5 da 5c bd 10 f2 fe bc 07 11 77 3d da 9d 90 bc
       -0.053919513 -0.031121284 0.060318973 -0.017653394
000040 78 6c 6b 3d c0 b1 c5 3d 92 ed f3 3d dd 9d 19 3d
       0.05747649 0.09653044 0.11910547 0.037504066
000050 76 e3 20 3e 2f 83 94 bc 47 17 9f bc 79 28 13 3e
       0.1571177 -0.01812896 -0.01942028 0.14370908
000060 38 0d b2 bc 48 0d f2 bb fc a1 bd 3d bc 5e 67 3d
       -0.021734819 -0.007386837 0.09259412 0.05648683
000070 bf 9a 83 3d 18 ab 3b bd ba 10 2d 3b 2f ed d6 3d
       0.06426 -0.045817465 0.0026407675 0.10494458
000080 07 9a b6 3d 11 a8 6c bc e0 b6 fc 3d df e7 8b 3d
       0.08916097 -0.014444367 0.12339568 0.06831335
000090 cc 5c e1 3d ac c1 9b 3d 20 ce ab bb f1 df 26 bd
       0.11004028 0.07605299 -0.005243078 -0.04074091
0000a0 57 e9 c0 3a 78 98 35 bc 79 d9 bb bc 18 65 89 3d
       0.0014717978 -0.011083715 -0.022930847 0.06708735
0000b0 da 6e 2b 3d 20 8b 8e 3d fb de f6 3c 2d 03 10 bd
       0.041853763 0.0696013 0.030135622 -0.03515928
0000c0 01 cc 27 bd 21 a9 05 3e 32 e1 84 3d c0 dc 1c 3c
       -0.040966038 0.13052799 0.06488265 0.009574115
0000d0 29 09 9f 3d 7f 68 04 bd e0 d4 8d 3d ab ba be 3d
       0.07765419 -0.032326218 0.06925368 0.09312948
0000e0 e1 a5 f8 3d ce ad c9 3d 13 35 76 3d 85 83 d3 3c
       0.12141014 0.09847604 0.06010921 0.02581955
0000f0 b6 88 e0 3d 20 e2 6c 3d a5 90 a9 3d 59 9b fd 3d
       0.109635755 0.057832837 0.08279542 0.12383146

arith.constant2 f4 [64]
000000 4b a6 f0 3d 98 cd b4 3d 14 d1 27 3d 66 e3 aa 3d
       0.11750468 0.088282764 0.040970877 0.08344154
000010 47 ec c0 3a 9b 3f b5 3d 3b d9 c8 3d 7a 78 8f bd
       0.0014718854 0.088500224 0.098070584 -0.07005401
000020 7d 97 73 3d 77 8e 68 bc f4 40 e3 3d 64 9a 9a 3c
       0.059470642 -0.0141941225 0.11096373 0.018872447
000030 80 b3 b5 3c f8 88 27 3e 51 06 d6 3d a6 72 b0 3c
       0.022180319 0.16360843 0.104504235 0.021539044
000040 86 a4 c4 3d c6 91 d8 bc 69 36 e5 3c 59 ec dd 3d
       0.09601693 -0.026436698 0.027980046 0.10836095
000050 e1 8f dd 3c 7f 93 cc 3d 04 de c7 3d 17 57 03 bd
       0.027046146 0.0998907 0.09759143 -0.032065477
000060 3a 81 8c 3d a5 d7 eb 3d 73 c6 f5 3d 6d d0 02 3e
       0.068605855 0.1151574 0.12000742 0.1277482
000070 6e 34 e4 3d b0 21 d3 3c 23 53 33 3d 4c 66 98 bc
       0.11142813 0.0257729 0.043780457 -0.018603466
000080 78 26 db 3d c1 de c8 bc de 34 64 3c 03 50 22 bc
       0.10700697 -0.02452028 0.01392862 -0.009906772
000090 ae 81 bf 3d ed 12 bf 3d b3 f3 50 bd 89 4a bf 3d
       0.09350906 0.09329782 -0.05101366 0.09340388
0000a0 e8 9d 34 3d 29 50 81 3d 46 0c 2e 3d 7a 0a fd bc
       0.044095904 0.063141175 0.042492174 -0.030888785
0000b0 00 f7 9d 3d 6e d3 8c 3d a5 61 ad 3d 87 c1 4d 3c
       0.07713127 0.068762645 0.0846589 0.012558348
0000c0 67 4b a1 3d 44 2b 11 3e cf 41 97 3d 66 c5 9d 3d
       0.0787571 0.14176661 0.07385599 0.077036664
0000d0 d7 e8 e0 3d d5 83 30 3d d6 c8 c8 3d 76 41 dd 3d
       0.10981911 0.043094475 0.098039314 0.10803501
0000e0 c8 c4 71 3d 50 eb 11 3c d5 87 ba 3d 63 a8 eb bc
       0.059025556 0.0089062005 0.09107939 -0.028766816
0000f0 07 d6 01 3d 22 49 7a 3d 94 a4 11 3d a2 22 c8 3d
       0.031698253 0.0611049 0.035557345 0.09772231

arith.constant3 f4 [64]
000000 9e e8 90 3d aa 38 19 3e 65 4b e0 3d 13 77 d2 3c
       0.07075618 0.14963022 0.1095188 0.025691545
000010 f1 b4 a0 3d 77 8a 8f 3d e7 77 19 3d 0a da 69 3d
       0.07847012 0.07008832 0.037467863 0.057092704
000020 1f 96 01 3d 6b a7 61 3d 7f f6 23 bd c4 21 df 3d
       0.031637307 0.055091303 -0.04003 0.10895112
000030 50 0c 98 3d 80 04 ae 3c 3f 24 cc 3d 85 63 cd 3d
       0.074242234 0.02124238 0.09967851 0.100287475
000040 d4 2a 28 3a 7f 7d 96 3d ba bb 29 3e 93 5e b8 3c
       0.00064150733 0.07348155 0.16575518 0.022506034
000050 94 6d ef bc 73 c8 3b 3d f3 bf 53 bd 3d 62 a2 3d
       -0.029227056 0.04584546 -0.05169673 0.07928894
000060 57 08 a9 3d af 2b 62 3d 5e b1 3b 3c f0 4a 36 3c
       0.08253544 0.05521744 0.011455862 0.011126265
000070 64 ac 93 3d cb d9 e6 3d 90 be ac 3d 62 f9 65 3d
       0.07210615 0.112720095 0.084347844 0.056146033
000080 b9 8d 52 3c 57 5a c1 bc 54 77 ce 3d da 65 94 3d
       0.012851172 -0.023602648 0.10081354 0.07245989
000090 74 83 35 bd 38 6a 20 bb 91 b7 04 3d d6 48 b5 3c
       -0.044314817 -0.0024477374 0.032401625 0.022129457
0000a0 ff b3 1c 3d e6 23 21 ba f9 6f 78 3d f4 dc be 3d
       0.038257595 -0.0006147012 0.06065366 0.09319487
0000b0 c6 e3 36 bc 05 8f ed 3d 89 f3 a6 3d ce 08 a6 3d
       -0.011162704 0.115995444 0.081519194 0.08107148
0000c0 8d b1 d2 3d 91 61 0d 3d 92 9c 43 bd 97 6e d0 3d
       0.102877714 0.034516875 -0.04775674 0.10177343
0000d0 7e ab f4 3d 17 5f f3 3d d5 88 0f bd e4 44 d7 3d
       0.11946772 0.11883371 -0.035042603 0.10511187
0000e0 a6 a7 ce bc 8a e6 de 3d cf a3 a6 3d 84 3f 1f 3c
       -0.025226425 0.108838156 0.08136713 0.009719733
0000f0 8c bb f2 3d 91 fe 03 3e 30 28 4c bd a7 3e e5 bc
       0.11852178 0.12890078 -0.049843013 -0.027983977

arith.constant4 f4 [64]
000000 dc f7 35 bc 46 8f 8c 3c d8 10 dd 3b 3a 70 4e 3d
       -0.011106458 0.017158162 0.0067463927 0.050399996
000010 1f 12 8d 3d 82 48 39 bd 3d 33 02 3d c5 71 0d 3e
       0.06888222 -0.045235164 0.031787146 0.13812931
000020 e8 72 16 3d 7e ff c2 3d 4e 72 f4 3d ac 6d 49 bd
       0.036730677 0.095213875 0.119358644 -0.049176857
000030 18 a0 bf 3d 20 96 61 3d 42 47 65 3c c7 38 2d 3e
       0.09356707 0.05507481 0.01399404 0.1691619
000040 e0 df ee 3b e0 ed 93 3c 02 8d a3 3d 5b e5 af 3d
       0.0072898716 0.018057764 0.079858795 0.08588668
000050 26 61 12 3e 54 5a 1b bd 70 66 d2 3d f3 8b ab 3d
       0.14294872 -0.03792794 0.10273445 0.083763026
000060 31 91 97 3d 85 13 82 3d 04 8e 2e 3d a0 fb f1 bc
       0.0740074 0.06351379 0.042615905 -0.02953893
000070 f8 2b 47 3c b9 38 8c 3d e2 db 3b 3d f9 84 5f 3d
       0.012156479 0.068467565 0.045863993 0.054570172
000080 63 56 61 bc 37 15 18 3d 36 01 d8 3d 4e 59 9d 3d
       -0.013753506 0.037129607 0.10547106 0.07683049
000090 9b e3 ba 3d a7 8e 48 ba 91 47 c6 3d 2f 1d 8e 3d
       0.091254435 -0.00076506514 0.09681619 0.0693916
0000a0 a4 24 0b 3e f6 27 f6 3d 49 b6 a4 bc 4d 04 ca 3d
       0.13588196 0.12019341 -0.020106452 0.098641016
0000b0 44 1c 37 3e a3 59 4f 3b 6e 72 2f 3e b8 cc a9 3d
       0.17881876 0.003163912 0.17133495 0.08291
0000c0 24 b3 85 3d b1 0f 83 bd 3b e9 9e 3d 1e 52 bd bc
       0.06528309 -0.06399477 0.07759329 -0.023110446
0000d0 38 19 f7 bc 1e 73 40 bd e5 f4 af 3d 87 19 91 3d
       -0.030163392 -0.046984784 0.08591632 0.07084947
0000e0 44 4f a3 3d 36 c0 d2 3d 9d bd ac 3d 53 0e d6 3b
       0.07974103 0.102905676 0.08434603 0.0065324693
0000f0 f9 d8 60 3d 01 bb bf 3a 7f 9c e2 3d bb 39 97 3d
       0.05489442 0.0014627875 0.110650055 0.07384058

arith.constant5 f4 [64]
000000 38 b4 9d 3d e9 92 2c 3d a4 03 57 3c c2 aa 56 3d
       0.077003896 0.042132292 0.013123427 0.05240894
000010 6e 0b 4f bb df 87 4e bd 58 41 48 3e dd bb 8a 3d
       -0.0031592506 -0.050422546 0.19556177 0.06774113
000020 70 ee ab 3b cf 00 cc 3c 28 69 e0 3c a8 4c 2f bd
       0.00524693 0.02490273 0.027393892 -0.042797714
000030 ae 98 ee 3d 68 72 dc 3d 8a a6 1b 3e ab 3f 2e bd
       0.11650215 0.10764009 0.15200248 -0.042541187
000040 d7 ac da bc 38 92 8f 3d c3 88 f4 3c 12 22 00 bd
       -0.026693745 0.07010311 0.02985037 -0.031282492
000050 ba a5 2a 3d e2 8a 46 3d 82 db ff 3d d9 23 d9 bc
       0.041661955 0.048472293 0.1249304 -0.026506351
000060 16 91 8f 3c 2f 2e 1a bd 58 8e 1e 3d 80 9b 1e 3d
       0.017525237 -0.0376417 0.03870997 0.038722515
000070 46 d9 73 3d 0f 9d d6 3c 9f 06 8e 3d d0 87 fd bc
       0.05953338 0.026197938 0.069348566 -0.03094855
000080 ea ff d6 3d b0 bf 51 3d 7c 61 d2 3c 7a 49 07 3e
       0.104980305 0.051208198 0.02568125 0.13211623
000090 0c 6b 1d 3e 57 8e f2 3d 79 f2 b1 3d 28 e2 01 3e
       0.15372866 0.118435554 0.08688826 0.12683928
0000a0 85 c9 d0 bc a6 d7 ef 3c 95 fd c4 3c a2 b0 ae bc
       -0.025486717 0.029277634 0.024046699 -0.02132446
0000b0 f2 83 dc 3d 44 ea 24 3d 89 41 fa bc 02 93 19 bd
       0.10767354 0.040262476 -0.030548828 -0.037493713
0000c0 fc cb c3 3d 7d 5d f6 3c 52 d9 32 3d 00 29 13 3e
       0.09560391 0.030073876 0.043664284 0.14371109
0000d0 8f d6 0b 3d 55 c9 62 bd 03 8f 86 3d ff ec 4e bd
       0.034140166 -0.055367786 0.06570246 -0.050518986
0000e0 d6 c9 ca bb 14 22 87 bc 8c c3 cc 3c 9c 6b e9 3d
       -0.0061886115 -0.016495742 0.024995588 0.11397478
0000f0 6e 74 25 3b aa 79 f5 3d fa bf e5 3c c3 29 06 3e
       0.00252464 0.11986096 0.028045643 0.13101868

arith.constant6 f4 [64]
000000 69 78 8e bb c1 3a c5 3c d2 28 e5 bc 87 43 51 bc
       -0.00434785 0.024075868 -0.027973566 -0.012772447
000010 d6 4d 20 bd ca df 27 bd cc 45 2d 3d 3a 45 42 3c
       -0.03913673 -0.040984906 0.04230289 0.011857325
000020 92 a6 e9 bc 80 26 87 bc 4d ee 42 bc c9 a5 8c 3c
       -0.02852181 -0.01649785 -0.011897636 0.017168896
000030 68 83 f6 3c 2e da 0e bc 02 fc 3d bc d0 eb b0 3a
       0.030091956 -0.00871901 -0.011595728 0.0013498012
000040 27 3e ae 3c 8b 10 cc bc 79 c1 b8 3c 6d 64 2a bd
       0.02126987 -0.024910232 0.022553192 -0.04159968
000050 27 bc e0 bc a2 ce 43 bd 37 2d 00 3d 55 bf fe 3c
       -0.027433468 -0.047804482 0.03129312 0.031097094
000060 50 d1 92 bd f8 ea 1b bd 58 58 55 3c 08 b1 8e bd
       -0.071688294 -0.03806588 0.013021551 -0.0696736
000070 4a 52 ff bc fb c7 07 3d 10 00 8f 3b a1 8f 29 bd
       -0.031167168 0.0331497 0.004364021 -0.04139674
000080 58 89 05 3c c9 09 38 3d a9 aa 68 3d 8c c6 cd bd
       0.008150421 0.044931207 0.05680338 -0.100476354
000090 15 0a 77 bc a2 e7 65 3c 44 93 42 bb c6 f6 7f 3c
       -0.015078087 0.014032276 -0.0029689828 0.0156228
0000a0 02 04 fa bb 7a 7e f2 bc b1 ad 61 bd 24 ee 95 bc
       -0.0076298723 -0.029601324 -0.055097286 -0.01830203
0000b0 12 ff 6a bb 7f 5a 23 bd 7a 68 7b 3b 63 ad 88 3c
       -0.00358576 -0.039881226 0.0038361833 0.01668424
0000c0 f6 e3 fb 3c 5b 6c b7 3c cd cb 9c 3c ca 29 97 bd
       0.030748349 0.022390535 0.019140149 -0.073810175
0000d0 fb 1d 63 bc b7 91 95 bc b1 1e e8 bc ba ef f1 3c
       -0.013862128 -0.018257959 -0.028334947 0.029533256
0000e0 8f b0 2d bd 97 6b c7 3c 8c 23 80 3d da 5b 11 3d
       -0.042404708 0.024343295 0.0625678 0.035487987
0000f0 19 23 1d bc 14 cb fb 3c dc 59 80 3d ac 74 b8 bc
       -0.009590887 0.030736484 0.06267139 -0.022516571

arith.constant7 f4 [32]
000000 9b 63 13 bd 63 a4 5d bd 9d aa 55 bb 1e 46 82 3d
       -0.035983663 -0.05411185 -0.0032602914 0.0636103
000010 c6 1f 1e bd 2a 68 d1 bc 50 bf de 3d 76 d0 43 3b
       -0.03860452 -0.025562365 0.10876334 0.002987889
000020 25 7d 27 3d 48 4d fe bc 80 35 68 bc d6 a4 b8 bd
       0.04089083 -0.03104271 -0.014172912 -0.09015815
000030 14 dc a1 ba 2a 24 21 bd 49 b6 d4 3c 6e 52 5f 3b
       -0.0012348914 -0.03934113 0.025965827 0.0034076232
000040 11 c7 9a 3d dd 18 73 3b 48 aa ac 38 d7 d6 68 bd
       0.075575 0.0037093677 8.2333165e-05 -0.056845512
000050 a1 12 d8 bc c2 ca 1c 3b 49 c3 c3 3c 6e 52 58 bd
       -0.02637607 0.0023924564 0.02389683 -0.052812986
000060 f0 ee 3f 3c b6 17 16 3c 40 06 58 bd 3b 9a 74 bc
       0.011714682 0.009160927 -0.052740335 -0.0149293495
000070 cc 7c e3 bb 13 9a 22 bc ff 18 d3 3c bf cd e1 3c
       -0.006942367 -0.0099244295 0.025768755 0.027563928

arith.constant8 f4 [32]
000000 fb 9d 0b 3c 10 90 63 3d d6 46 02 3d 4c e7 f3 3b
       0.008521552 0.05555731 0.031805836 0.007443344
000010 f5 9c e0 3c 53 a4 8c bd 0c 71 ac bc a2 04 b3 3d
       0.027418593 -0.0686728 -0.021049999 0.08741118
000020 7f 05 13 bd 04 20 5f 3d be 8b 9f bc 76 34 95 bd
       -0.035893913 0.05447389 -0.019475814 -0.07285397
000030 e8 12 b9 bd 68 7b a8 3d db 19 c6 bc 9e 62 0d bd
       -0.09036809 0.08226663 -0.02418225 -0.034517877
000040 ed 35 3c bd 0b c1 76 bd 58 8b 86 bd e2 e1 93 3d
       -0.045949865 -0.060242694 -0.065695465 0.07220818
000050 8f db 5e 3d f8 55 d9 bd 38 cf de bc 58 10 79 3c
       0.054408606 -0.106121 -0.027198419 0.015201651
000060 db 1f fc bb 0f 2a b5 3d 21 dd a4 bd 88 de aa 3d
       -0.007694227 0.08845913 -0.080499895 0.08343226
000070 05 0f 19 3d 63 49 bb bc 6e 9f 1b bc ea a6 46 bd
       0.03736784 -0.022862142 -0.00949846 -0.048499025

arith.constant9 f4 [32]
000000 f7 6b b6 3d 69 e0 b3 bd df ee 13 bd d7 41 47 3d
       0.089073114 -0.08783037 -0.036116477 0.048646774
000010 a4 a6 91 bd 29 9a d1 bd 75 49 3c 3d e6 83 ae bd
       -0.07111862 -0.10234482 0.04596849 -0.085212514
000020 0a 0e 99 3d ef ee 90 3c ff d0 9c 3d ff 4f 2d 3d
       0.07473381 0.017692057 0.0765705 0.04231262
000030 ca a7 d3 3b e4 74 44 bd 27 aa 94 bd a9 6e 5b 3c
       0.006459211 -0.047963038 -0.072590165 0.013393083
000040 55 04 48 3d d8 5b 6c 3d e0 8f 1b 3d 83 30 25 3d
       0.048832256 0.057704777 0.037979007 0.040329468
000050 cc 98 20 bd 44 8c a8 bc a8 e9 68 bc 23 64 58 bd
       -0.03920822 -0.020574696 -0.014215864 -0.052829873
000060 b1 81 33 3d ac 35 82 3c cf 75 a9 3d 1e e3 05 bc
       0.043824855 0.015894733 0.08274423 -0.008171825
000070 52 07 f6 bc 83 a5 98 bd 0d 1f f2 3c f3 65 26 bd
       -0.030032787 -0.07453444 0.029555822 -0.04062457

arith.constant10 f4 [131]
000000 40 d5 42 bd 2a cc 5d bd fb 19 61 bd f7 2e de bc
       -0.047566652 -0.054149784 -0.054956418 -0.027122004
000010 26 d5 1c bd b6 06 50 bd cb dd d1 bc 1c fd fb bc
       -0.03828921 -0.05078765 -0.025618454 -0.03076034
000020 fb 9f 75 bd 7b 06 3f bd 96 f5 fe bc ec 6f 1a bd
       -0.059967022 -0.04663704 -0.031122964 -0.037704393
000030 0a 68 22 bd a2 f4 0b bd ce 98 19 bd ae 79 38 bd
       -0.03965 -0.034168847 -0.03749924 -0.045037918
000040 cb 03 37 bd 33 5d 55 bd dd 2f 21 bd 74 0e 58 bd
       -0.04468135 -0.052090835 -0.039352287 -0.05274816
000050 31 b0 6f bd 23 e4 79 bd 93 82 55 bd 66 67 6b bd
       -0.05851764 -0.061008584 -0.05212648 -0.057471655
000060 d0 d3 64 bd d9 10 26 bd f5 0c a3 bd 81 b9 69 bd
       -0.055866063 -0.04054341 -0.07961456 -0.057061676
000070 a2 23 7b bd d0 08 93 bd 5c 62 83 bd 39 19 67 bd
       -0.06131328 -0.07179415 -0.06415245 -0.05642054
000080 9f b6 a9 bd f3 c6 8d bd bc 02 ba bd 95 d8 a5 bd
       -0.08286785 -0.06922712 -0.09082553 -0.0809795
000090 a4 02 bd bd 09 98 bf bd 77 38 a4 bd e1 1f a9 bd
       -0.09229019 -0.0935517 -0.08018582 -0.082580335
0000a0 93 aa ac bd 91 85 94 bd 6c 1f 9a bd 68 51 a0 bd
       -0.08430972 -0.07252038 -0.075255245 -0.07828027
0000b0 2f 1e 85 bc fa c1 86 bd a1 cf 01 bc 30 48 ed bc
       -0.016249744 -0.06579967 -0.007923038 -0.028965086
0000c0 5b 89 84 3b 4c 78 1a bd 52 3a b8 b9 18 37 66 3c
       0.0040446944 -0.03771238 -0.00035138667 0.014051221
0000d0 6f fe 6c bb 61 2a 00 3d 24 e5 b0 3c a0 82 3f 3d
       -0.0036162396 0.031290416 0.021593638 0.046755433
0000e0 29 a2 7f 3d 4b e3 b9 3d 35 26 8c 3d a9 e2 9d 3d
       0.062410507 0.09076556 0.06843225 0.077092476
0000f0 38 d0 d4 3d 77 21 b8 3d 25 e3 c3 3d 28 df a2 3d
       0.10391277 0.08990758 0.09564809 0.0795272
000100 a5 37 f1 3d 2c 0b d3 3d fc 2a c5 3d 39 4e 0e 3e
       0.117781915 0.10304865 0.09627339 0.13897027
000110 e4 40 c4 3d 14 49 fb 3d 86 25 f7 3d 65 58 e6 3d
       0.095826894 0.12269798 0.12067704 0.11247329
000120 c4 e8 0d 3e 08 09 03 3e 53 e7 f4 3d f6 55 02 3e
       0.13858324 0.12796414 0.11958184 0.12728104
000130 dd 40 06 3e d5 79 c3 3d e9 af 12 3e 03 6b ae 3d
       0.13110681 0.09544722 0.14324917 0.085165046
000140 34 aa 96 3d 6c 5b 1a 3d 25 9b 76 3d b2 73 c2 3c
       0.073566824 0.037684843 0.06020655 0.023736808
000150 3a 8a 0c 3d 60 a7 93 ba 36 f7 36 3c 29 9f 35 bc
       0.03431151 -0.0011265092 0.011167338 -0.01108531
000160 8b 10 fe bc 9b af bd bc 8d 3d 33 bc 77 9c d9 bc
       -0.031013748 -0.023155024 -0.010939968 -0.026563866
000170 03 b9 1b bd 3b 84 21 bd c9 48 18 bd 8b 6d 0c bd
       -0.038018238 -0.039432745 -0.03717879 -0.034284156
000180 53 4a 24 bd 3e 3e d5 bc 8c 6e 15 bd f0 c9 3f bd
       -0.040109944 -0.026030656 -0.03648238 -0.046823442
000190 9e f8 3f bd 74 d5 30 bd 8d 6c 16 bd 81 40 61 bd
       -0.04686796 -0.043172315 -0.036724616 -0.054993156
0001a0 4d 06 35 bd bc 21 2d bd e3 36 3f bd f7 48 1c bd
       -0.044195462 -0.0422685 -0.046683203 -0.038155522
0001b0 f3 46 33 bd 4d 09 16 bd b5 b0 3a bd ba bd 23 bd
       -0.043768834 -0.036629964 -0.045578677 -0.03997586
0001c0 df cd 27 bd f3 54 07 bd 21 62 39 bd 4e c3 39 bd
       -0.04096782 -0.03304 -0.0452596 -0.045352273
0001d0 7b 56 5a bd d8 e6 fe bc cd ef 22 bd 56 35 02 bd
       -0.05330513 -0.031115934 -0.039779473 -0.031789146
0001e0 91 62 ef bc da 72 27 bd f4 0c 10 bd 0d 2a e6 bc
       -0.029221805 -0.040881015 -0.035168603 -0.028096223
0001f0 1a f5 03 bd 81 19 ca bc 5f 51 18 bd bf f8 12 bd
       -0.03221617 -0.024670364 -0.037186977 -0.035881754
000200 ad 95 2a bd 69 b4 29 bd f5 ea 1b bd
       -0.04164665 -0.04143182 -0.03806587

arith.constant11 f4 [341]
000000 cc 42 79 bc 94 4a 46 bc 7f bd 60 bc ad d6 8e bc
       -0.0152136795 -0.012102742 -0.013717054 -0.01743635
000010 49 6d a9 bc 6e 25 ff bc 9d e6 b4 bc c9 f4 8a bc
       -0.020681994 -0.031145778 -0.022082621 -0.016962426
000020 b7 cb e8 bc 8e 77 af bc 27 22 25 bd 2f 07 c8 bc
       -0.028417451 -0.021419313 -0.040315773 -0.024417488
000030 90 c2 0c bd d1 27 fe bc 04 3b a7 bc 7b 8a 04 bd
       -0.034365237 -0.031024845 -0.020413883 -0.032358628
000040 05 08 87 bc 43 77 19 bd 8c 0d cf bc 47 8f 9e bc
       -0.016483316 -0.037467252 -0.025275014 -0.01935543
000050 24 00 fd bc 31 a5 05 bd 51 c7 b4 bc 26 04 05 bd
       -0.030883856 -0.032628242 -0.022067698 -0.03247466
000060 32 71 0a bd 6b 77 fd bc b9 8c c3 bc cb 01 e1 bc
       -0.033799358 -0.030940732 -0.023870813 -0.027466675
000070 ec 06 dd bc 85 15 fb bc bf 77 aa bc 8c cd a2 bc
       -0.02698084 -0.03064991 -0.020809053 -0.019873403
000080 3c fb f9 bc 5d 5e ac bc f4 0c d7 bc 36 29 28 bd
       -0.030515306 -0.02104109 -0.026251294 -0.041054927
000090 29 b7 b8 bc e6 47 df bc 40 95 1d bc 9b fe b0 bc
       -0.022548275 -0.027255964 -0.0096181035 -0.02160578
0000a0 6a 62 01 bd 1e 1d 04 bd 4b 29 d8 bc 2f 75 85 bc
       -0.031587996 -0.03225433 -0.026386878 -0.016291229
0000b0 5a bf cc bc 03 3c 72 bc 48 9d 9e bc 29 a5 82 bc
       -0.024993587 -0.014784816 -0.019362107 -0.015947895
0000c0 12 35 c7 bc 24 8a b1 bc 2f d7 c4 bc 27 d6 dd bc
       -0.024317298 -0.021672316 -0.024028389 -0.027079655
0000d0 43 ff 65 bc e0 da b4 bc 41 ca ba bc 49 b8 07 bd
       -0.01403791 -0.022077024 -0.02280152 -0.033134732
0000e0 21 a3 7a bc 7c 48 a3 bc 1f 16 f5 bc 40 49 cd bc
       -0.015297682 -0.019932024 -0.029917775 -0.025059342
0000f0 66 3b 48 bc fb 7f 37 bc ef d2 cf bc e6 6b 34 bc
       -0.012221193 -0.0111999465 -0.025369136 -0.011012053
000100 a5 4e c8 bc 15 32 b8 3a c0 72 3b bc 7f 57 a4 bc
       -0.024451563 0.0014053012 -0.011440933 -0.020061253
000110 f3 d1 31 b9 6f 2e 8b bb 58 82 37 bc b3 2e 09 3b
       -0.00016958248 -0.0042474787 -0.01120051 0.0020932376
000120 93 13 9d bc a0 95 24 bb 38 fa 34 bc 55 b1 b6 3b
       -0.019174373 -0.0025113598 -0.011045985 0.005575339
000130 30 d8 4a 3c e1 f5 98 bb 06 87 7d bc 61 34 c5 ba
       0.012380645 -0.004667983 -0.015474087 -0.0015045517
000140 4d d1 4d 3b 5b a0 cd 3b 52 5f 6e b9 b2 0e 30 3c
       0.003140527 0.0062752194 -0.00022732958 0.010745691
000150 d7 45 04 3c 8d 6b 8f 3c 50 75 86 3c 2e ff a2 3c
       0.008073292 0.017507339 0.01641336 0.01989707
000160 12 ad 6e 3c c4 c3 d2 3c b5 c6 10 3d 5d 75 bf 3c
       0.01456763 0.025728114 0.03534575 0.023371393
000170 b3 07 2e 3d 8e 2c 84 3c af d3 e3 3c 18 0d 72 3c
       0.04248781 0.016134527 0.0278109 0.01477363
000180 f5 cb 93 3c d3 2d 4e 3d a8 45 0d 3d 77 14 13 3d
       0.01804159 0.05033667 0.034490258 0.03590819
000190 b8 b1 19 3d bc d5 46 3d bf 32 e5 3c 69 60 74 3d
       0.037523 0.048543677 0.0279783 0.059662256
0001a0 fa 11 4a 3d 88 6f 71 3d ba 01 86 3d cf 2e 3f 3d
       0.04933355 0.058944255 0.06543298 0.0466755
0001b0 6d c1 3f 3d 0a e5 92 3d 3c 87 1f 3d d8 f8 9e 3d
       0.046815325 0.07172592 0.03894733 0.07762307
0001c0 ff b6 63 3d f4 4b bc 3d b5 f9 89 3d c5 91 ab 3d
       0.05559444 0.091941744 0.06737081 0.08377413
0001d0 3a c3 a4 3d 53 af 84 3d c5 d4 d2 3d bf 84 88 3d
       0.08045049 0.06478753 0.10294489 0.06665944
0001e0 40 0c c7 3d a2 5f c4 3d bc a7 f1 3d d7 04 83 3d
       0.097191334 0.09588553 0.11799571 0.063974075
0001f0 43 88 be 3d e4 d2 8e 3d d5 ad cd 3d c0 16 e3 3d
       0.093033336 0.06973818 0.100429215 0.110883236
000200 6d 64 da 3d 45 1f 96 3d e7 9e c3 3d e4 c4 84 3d
       0.10663686 0.07330183 0.095517926 0.064828664
000210 2a bd c4 3d 47 5b a0 3d ff 39 98 3d cd 1c 91 3d
       0.09606393 0.0782991 0.07432937 0.070855714
000220 80 33 c7 3d 1c 20 a8 3d 9f 34 ae 3d be aa d4 3d
       0.0972662 0.082092494 0.085061304 0.10384129
000230 e7 3f ea 3d 36 8e b5 3d 54 3a af 3d 7e 2c a2 3d
       0.1143797 0.08865015 0.08556047 0.079186425
000240 7f 80 d0 3d 5c 1d e7 3d 0b ef 96 3d 7a 0f 9e 3d
       0.10180759 0.11284897 0.073698126 0.07717796
000250 43 e4 c4 3d 5f b6 8e 3d ae 1a 94 3d e5 9f a3 3d
       0.0961385 0.06968378 0.07231651 0.07989482
000260 09 38 92 3d 32 a0 62 3d 39 87 90 3d b9 31 71 3d
       0.07139594 0.055328555 0.07057042 0.05888531
000270 51 5c 5b 3d 6c 06 1a 3d 3e 65 91 3d 39 52 83 3d
       0.053554837 0.03760378 0.070993885 0.06412167
000280 e1 fe 7d 3d 7f 67 07 3d 32 88 36 3d da bc 5d 3d
       0.06201065 0.033057686 0.04456348 0.05413518
000290 98 0b 57 3d 83 01 bd 3c 52 6b 14 3d ab 1a 9a 3d
       0.05250129 0.02307201 0.03623516 0.07524618
0002a0 4b 5c 7e 3d 0d aa 89 3d d3 f9 9c 3d 74 09 a7 3d
       0.062099736 0.06721888 0.07664838 0.081561
0002b0 e6 5e 7c 3d fd 6d ba 3d 7b aa 9f 3d 9e fe b5 3d
       0.06161394 0.0910301 0.077961884 0.08886455
0002c0 9c 4f fe 3d 94 2b da 3d 9b 8b d4 3d 7b 71 84 3d
       0.12417528 0.10652843 0.1037819 0.06466957
0002d0 d9 56 ad 3d ce ab c4 3d 3d 1a 9e 3d 91 62 e5 3d
       0.084638305 0.09603082 0.07719848 0.11200441
0002e0 95 41 96 3d f5 b8 b0 3d 70 26 8f 3d 26 ef 82 3d
       0.073367275 0.08629028 0.06989753 0.0639327
0002f0 36 66 79 3d 91 09 94 3d c5 24 a0 3d 7f 7d 97 3d
       0.06088849 0.07228387 0.07819513 0.07396983
000300 2b 51 8c 3d f1 bf 66 3d 3b 0a 3d 3d 8e 41 54 3d
       0.06851419 0.056335393 0.046152335 0.05182033
000310 51 d0 38 3d b0 07 2f 3d 65 0c e4 3b 8a d9 86 3c
       0.04512054 0.04273194 0.0069594854 0.016461153
000320 23 a3 a9 3c d8 3c a2 3b 70 53 7d 3a 6b ff 00 3a
       0.020707672 0.004951101 0.0009663617 0.0004920873
000330 16 ba 14 bb 0e 29 ec 39 c4 b6 95 bc 97 49 6f 3b
       -0.0022693924 0.00045044016 -0.018275626 0.0036512369
000340 22 d6 ab bc ac 33 2e bc 17 5d a6 bc 69 47 78 bc
       -0.02097613 -0.010632437 -0.02030806 -0.015153744
000350 47 0d b9 bc 2e 22 ad bc fe 9d a9 bc 3d 3a e5 bc
       -0.022589339 -0.021134462 -0.02070522 -0.027981872
000360 b3 d1 ac bc 57 5f a7 bc ec c8 d4 bc 21 6e 18 bd
       -0.021096086 -0.020431204 -0.025974713 -0.037214402
000370 6a e8 9b bc f0 f9 1e bd 71 36 33 bd 33 a9 56 bc
       -0.019031722 -0.038812578 -0.04375309 -0.013101864
000380 cb 77 22 bd 55 f4 0e bd b0 92 4a bd bf 72 6b bc
       -0.039665025 -0.034900982 -0.0494563 -0.014370619
000390 db 70 00 bd 45 56 22 bd 73 66 56 bd e5 d3 03 bd
       -0.031357627 -0.039633054 -0.052343797 -0.0321845
0003a0 0d 95 20 bd 61 e2 1a bd 73 39 4e bd c0 5b 43 bd
       -0.039204646 -0.037813548 -0.050347757 -0.04769492
0003b0 07 6c 2e bd ca fe 29 bd 14 06 06 bd 98 39 6a bd
       -0.04258349 -0.04150275 -0.03272064 -0.057183832
0003c0 8d e2 2e bd cb 18 59 bd 6d ab 36 bd 25 e4 6f bd
       -0.042696524 -0.05300216 -0.044597078 -0.058567185
0003d0 9a a7 37 bd a7 4e 86 bd 8b 66 4b bd 7d 20 86 bd
       -0.04483757 -0.065579705 -0.04965834 -0.065491654
0003e0 ce 05 6f bd aa 3c 48 bd c1 35 52 bd b9 cf 4d bd
       -0.058355145 -0.04888598 -0.051320795 -0.050246928
0003f0 5b bd 5e bd 7f a1 81 bd 6b 08 69 bd b9 2c 34 bd
       -0.054379802 -0.06329631 -0.056892794 -0.043987963

arith.constant12 f4 [311]
000000 a1 39 c4 bc b8 dc cf bc fe de 05 bd 62 74 c7 bc
       -0.02395326 -0.025373802 -0.032683365 -0.024347488
000010 5a 0c c5 bc fc 36 07 bd 8a 7f 04 bd 0d 95 03 bd
       -0.024053741 -0.03301142 -0.032348193 -0.032124568
000020 d0 9d 11 bd 7f 81 dc bc 33 ab 16 bd f9 2c 0e bd
       -0.035550892 -0.026917217 -0.036784362 -0.034710858
000030 2f 2c 09 bd c9 ac f2 bc 4f b2 0b bd 47 7e f6 bc
       -0.033489402 -0.029623406 -0.034105595 -0.03008951
000040 50 69 cb bc e0 11 f7 bc a4 42 06 bd b8 b4 25 bd
       -0.02483049 -0.03015989 -0.032778397 -0.04045555
000050 7d 1e 9f bc 7c 7c 25 bd 65 14 db bc 37 e3 d3 bc
       -0.019423718 -0.04040192 -0.026743123 -0.02586518
000060 4f f7 e9 bc 44 bb 1c bd 21 49 ef bc 32 cd 16 bd
       -0.028560309 -0.038264528 -0.029209675 -0.036816783
000070 b7 f0 1a bd 3a 46 f8 bc 12 c0 0e bd 39 78 c6 bc
       -0.03782722 -0.030306924 -0.03485114 -0.024227249
000080 93 24 9a bc 47 70 0a bd 58 a0 ff bc cb f8 e7 bc
       -0.018816268 -0.033798482 -0.031204388 -0.028316876
000090 71 e8 ce bc e8 68 e0 bc 07 f6 ce bc 49 f6 f2 bc
       -0.025257321 -0.027393773 -0.0252638 -0.029658454
0000a0 27 a4 fd bc 6f 34 e8 bc 7d 0b 07 bd ea 0d a9 bc
       -0.030962063 -0.028345315 -0.03296994 -0.020636518
0000b0 bc 10 fc bc ca 75 c7 bc 6c fd a1 bc 37 36 e7 bc
       -0.030769698 -0.024348158 -0.019774161 -0.028224094
0000c0 5f 99 a7 bc 49 a0 04 bd 15 a6 37 bc ac 51 c9 bc
       -0.020458875 -0.032379422 -0.011209031 -0.024575077
0000d0 81 be 7c bc d4 b6 9b bc bf ab ce bc fa f6 d2 bc
       -0.015426279 -0.019008078 -0.02522838 -0.025752533
0000e0 65 95 c7 bc 5c 4a 2a bc f6 c6 e0 bc d7 e2 b8 bc
       -0.024363229 -0.010393705 -0.027438622 -0.022569103
0000f0 58 b1 d3 bc ac 94 91 bc 3a 5d d4 bc 6c 74 a4 bc
       -0.0258414 -0.017771088 -0.02592336 -0.020075046
000100 3d 95 15 bd 60 70 09 bc 1f 9a ee bc b7 7b 1e bc
       -0.036519278 -0.008388609 -0.029126225 -0.009673051
000110 94 f9 c6 bc 24 07 28 bc fc 80 31 bc f6 32 93 3b
       -0.02428893 -0.010255609 -0.010833975 0.004492159
000120 72 a3 e3 bc 00 56 ac bb 88 b8 2b bc 49 29 b8 3b
       -0.027787898 -0.0052592754 -0.010481007 0.005620156
000130 de 32 cb ba ed 4c 4e bb 4b eb b7 3a f3 4e 27 bb
       -0.001550283 -0.0031478957 0.0014031915 -0.0025529235
000140 e3 6b 8a 3b 31 cb da 3b 4f 06 b1 3c 84 6e bd 3b
       0.004224287 0.0066770543 0.021609453 0.0057809968
000150 2c 6a 04 3d a4 e1 1b 3c ef 91 88 3c 50 57 08 3d
       0.032327816 0.009514246 0.016671149 0.033286393
000160 23 95 c5 3c bc c8 f0 3c 5b a6 6f 3d 64 fb 1b 3d
       0.024118965 0.029392593 0.05850826 0.03808154
000170 47 24 22 3d 66 51 10 3d b6 5d 3a 3d e8 58 0c 3d
       0.039585378 0.035233878 0.045499526 0.034264475
000180 59 21 6e 3d 87 3e 1b 3d 61 90 58 3d b0 18 5b 3d
       0.05813727 0.037901428 0.052872065 0.05349034
000190 e6 bd 4c 3d d9 36 5e 3d de e3 8b 3d 52 a0 81 3d
       0.04998579 0.054251526 0.068305716 0.06329407
0001a0 5b 26 52 3d 15 e9 65 3d 23 0d 81 3d 3f 57 5d 3d
       0.05130611 0.056130487 0.06301334 0.054038282
0001b0 73 08 69 3d b8 30 c2 3d da 43 8a 3d 8b cf 90 3d
       0.056892823 0.094819486 0.06751223 0.07070836
0001c0 40 37 a8 3d d5 3e c1 3d 56 db c2 3d 81 b5 98 3d
       0.08213663 0.094358124 0.09514491 0.07456494
0001d0 1c b7 b0 3d 12 f5 b4 3d 9e 99 b9 3d d1 bc b5 3d
       0.08628675 0.08835806 0.09062503 0.088739045
0001e0 29 fd f5 3d 0d 83 c8 3d ba 01 db 3d 19 34 97 3d
       0.12011177 0.09790621 0.10693689 0.07382984
0001f0 22 00 c3 3d 8d c8 9b 3d 3c 67 b6 3d 74 4e b3 3d
       0.0952151 0.076066114 0.08906409 0.08755198
000200 60 9d a3 3d 77 26 c1 3d df d0 d2 3d 6a 57 b3 3d
       0.07989001 0.09431165 0.10293745 0.08756907
000210 a4 56 a9 3d 40 6e 9f 3d c5 05 ae 3d 55 39 45 3d
       0.082684785 0.077847004 0.08497194 0.04815038
000220 f2 a1 a6 3d 6a eb b3 3d c4 29 d7 3d 2c ae ac 3d
       0.08136357 0.08785136 0.10506013 0.08431658
000230 6b 55 ca 3d ec c1 98 3d be 17 a7 3d 1b 61 8c 3d
       0.098795734 0.07458863 0.08158825 0.06854459
000240 15 70 70 3d 96 c1 89 3d bd b7 84 3d 24 53 9e 3d
       0.05870064 0.06726377 0.06480358 0.077307016
000250 6e e0 70 3d 2f d3 69 3d f7 84 79 3d 56 5c 6d 3d
       0.058807783 0.057086166 0.06091782 0.057949387
000260 e3 09 82 3d e9 ac 78 3d 17 26 8c 3d 3c ef 70 3d
       0.06349542 0.060711775 0.068432026 0.0588219
000270 73 f2 8a 3d 41 14 a0 3d 39 ee ab 3d d2 fd a6 3d
       0.06784525 0.07816363 0.08395047 0.08153881
000280 01 df 8d 3d 7a 02 b0 3d c0 91 a1 3d 25 e6 9d 3d
       0.069273 0.08594222 0.07889128 0.07709912
000290 28 a0 ab 3d e4 e1 ab 3d da bd 9e 3d 97 38 c9 3d
       0.08380157 0.083926946 0.07751055 0.09825247
0002a0 40 b3 ae 3d 12 ae ae 3d 47 be 90 3d 1a 84 74 3d
       0.08530283 0.08529295 0.070675425 0.059696294
0002b0 ce 35 8b 3d f5 2f 9f 3d b1 3c 4a 3d 6d 3b 7e 3d
       0.06797372 0.07772819 0.049374286 0.06206839
0002c0 41 c4 8d 3d 81 87 44 3d 9f c6 81 3d 69 6d fd 3c
       0.06922198 0.04798079 0.06336712 0.03093596
0002d0 8f ad 85 3d 89 9a 54 3d fb 12 64 3c 25 29 38 3d
       0.06527244 0.05190519 0.013920541 0.044961113
0002e0 1e a1 bb 3c 7e 34 30 3d bf e4 86 3c 7e 36 d8 3c
       0.022903975 0.04301881 0.016466497 0.026393171
0002f0 9f 92 bf 3c 0e 2e 3d 3b 66 6e b6 3c a4 41 a9 ba
       0.023385344 0.0028866562 0.022269439 -0.0012913239
000300 df ec c3 bb 1a 56 9d 3b 1e df c5 bc 3b 5b 25 bc
       -0.005979165 0.004801524 -0.024154242 -0.010092552
000310 31 ee 98 bc 93 22 01 bd f1 08 b4 bc fb 79 f3 bc
       -0.018668266 -0.031527113 -0.02197692 -0.02972125
000320 dc 72 c5 bc 1a f5 fb bc b9 fb 01 bd 0f 66 20 bd
       -0.02410262 -0.030756522 -0.031734202 -0.03915983
000330 73 e2 1c bd c2 59 2e bd ce 71 dc bc 58 06 22 bd
       -0.038301896 -0.04256607 -0.026909735 -0.03955683
000340 20 cb 53 bd 63 2b 0a bd 74 75 1f bd 39 be a3 bc
       -0.051707387 -0.033732783 -0.03893037 -0.019988166
000350 75 d4 24 bd fa d4 57 bd f4 f2 1c bd d3 60 4f bd
       -0.040241677 -0.052693345 -0.038317636 -0.05062945
000360 7c 21 2f bd da ab 35 bd ec 7c 36 bd f6 95 37 bd
       -0.042756543 -0.044353344 -0.04455273 -0.04482075
000370 0a 3f 41 bd ad c3 27 bd b3 41 59 bd 9b c5 4c bd
       -0.04717926 -0.040958095 -0.05304117 -0.04999314
000380 10 d9 13 bd a3 36 60 bd 5b ca 53 bd 68 d5 5c bd
       -0.03609568 -0.054739606 -0.051706653 -0.053914458
000390 f2 47 78 bd f3 48 41 bd 52 30 49 bd be 96 6c bd
       -0.060615487 -0.04718871 -0.049118347 -0.057760946
0003a0 57 e9 68 bd 2b fe 76 bd 1d ca 54 bd 17 54 8a bd
       -0.056863155 -0.060300987 -0.051950563 -0.0675432
0003b0 bb b3 6a bd 7a 3e 73 bd 4b c1 73 bd b6 47 85 bd
       -0.05730031 -0.059385754 -0.05951051 -0.065078184
0003c0 9c 43 4a bd 66 02 4f bd 97 0c 74 bd 13 97 63 bd
       -0.049380884 -0.050539397 -0.05958232 -0.055563997
0003d0 13 bb 51 bd 40 9d 3a bd 58 7d 47 bd cb 9d 35 bd
       -0.0512038 -0.04556012 -0.04870352 -0.044339936
0003e0 bc 47 63 bd eb a9 34 bd 58 77 4d bd 75 fb 4c bd
       -0.055488333 -0.04410736 -0.050162643 -0.050044496
0003f0 2a f4 4f bd af 8d 28 bd 1c e2 4b bd b1 58 5c bd
       -0.050769962 -0.041150745 -0.04977618 -0.05379552

arith.constant13 f4 [271]
000000 00 c5 c6 bc 0d 0a da bc cb 4b 0d bd 2f 9b e9 bc
       -0.024263859 -0.02661612 -0.03449611 -0.02851638
000010 08 44 f9 bc 51 71 e2 bc a7 df d1 bc bf fc 2e bd
       -0.030427948 -0.027641924 -0.025619341 -0.042721506
000020 95 a7 02 bd ed 51 0a bd 5e 50 da bc d0 c8 27 bd
       -0.0318981 -0.033769537 -0.02664965 -0.040962994
000030 75 bc e3 bc 5b 6a 01 bd 60 f6 09 bd 7f 10 0c bd
       -0.027799824 -0.03159557 -0.033682227 -0.03419542
000040 12 14 05 bd 17 ae c6 bc c7 66 94 bc fb 8b 02 bd
       -0.032489844 -0.024252934 -0.018115414 -0.031871777
000050 1d cf d4 bc fb e1 c9 bc fe fc 06 bd 9b fb fb bc
       -0.025977666 -0.024643889 -0.032956116 -0.030759623
000060 03 22 f3 bc 56 c5 ea bc c0 f1 da bc a8 fe 12 bd
       -0.029679304 -0.02865855 -0.026726604 -0.03588739
000070 e8 29 b8 bc b8 e2 17 bd 39 40 c1 bc d5 9f e1 bc
       -0.02248092 -0.03708145 -0.023590194 -0.027542034
000080 5e 3f b7 bc ce b6 ec bc 68 02 18 bd 77 ce 8a bc
       -0.022369083 -0.028895762 -0.03711167 -0.016944153
000090 72 e7 fe bc 7e 73 d0 bc 18 22 92 bc 72 d2 e4 bc
       -0.031116221 -0.025445696 -0.017838523 -0.02793238
0000a0 5b 03 ee bc 13 6f 87 bc 1f 54 ae bc 84 aa d5 bc
       -0.029054334 -0.016532457 -0.021280346 -0.026082285
0000b0 f2 40 e0 bc 40 28 c2 bc 31 60 97 bc f5 36 f1 bc
       -0.027374718 -0.023700833 -0.018478485 -0.02944515
0000c0 1d 56 c6 bc e7 ff b1 bc b1 46 57 bc 5e 65 9b bc
       -0.024210984 -0.021728469 -0.013139413 -0.018969234
0000d0 56 e3 76 bc d3 d2 e7 bc 34 23 0b bd f2 7e 88 bc
       -0.01506885 -0.028298771 -0.03396912 -0.016662095
0000e0 12 82 d6 bc 08 80 9c bc 71 13 85 bc fb 96 2d bc
       -0.02618507 -0.019104019 -0.016244622 -0.010595079
0000f0 d3 8e 7f bc a0 6c c0 bb c0 22 98 bc 96 48 a2 bc
       -0.015598017 -0.005872324 -0.018571258 -0.019810002
000100 b6 b3 03 3a 89 1e 27 bc c8 35 59 3c f3 36 b6 bb
       0.00050240324 -0.010200151 0.013257451 -0.0055607497
000110 60 07 bb b9 5e 8d 5a 3b 74 92 ac 3b e9 7a 19 3b
       -0.00035672914 0.0033348422 0.005266482 0.0023419207
000120 c3 44 aa 3b 67 71 8e 3c 5f 7a 4d 3c 1a ce d0 3c
       0.0051961853 0.017388059 0.012541383 0.025488902
000130 a5 7e a7 3b 23 83 2b 3d 71 93 35 3c 40 08 52 3c
       0.0051115328 0.04187311 0.011082516 0.01281935
000140 33 3e f8 3c 82 3d 05 3d 70 2c 63 3d 3d af d9 3c
       0.030303096 0.03252936 0.0554623 0.026572818
000150 73 95 12 3d 18 ff 32 3d fd 0f 4f 3d d8 04 5c 3d
       0.035787057 0.043700308 0.050552357 0.053715557
000160 51 3f da 3c f3 dd 82 3d a7 54 97 3d f8 fd 55 3d
       0.02664152 0.0638999 0.07389193 0.052244157
000170 a5 ee 9c 3d d4 2c 79 3d 45 bd 30 3d 76 85 8e 3d
       0.07662705 0.060833767 0.04314925 0.069590494
000180 38 de 9b 3d d5 40 83 3d 1e d2 ce 3d 5b 7b a2 3d
       0.07610744 0.0640885 0.100986704 0.079336844
000190 67 4b a4 3d 6a 0f c1 3d c0 b0 99 3d 26 28 9d 3d
       0.08022194 0.09426768 0.075044155 0.07673673
0001a0 b0 11 9a 3d 5a 9f b8 3d 91 3f ae 3d cf ac 9d 3d
       0.07522905 0.09014769 0.08508218 0.07698976
0001b0 ee f6 b8 3d fe 24 73 3d 2e a1 89 3d 01 53 93 3d
       0.09031473 0.05936145 0.06720196 0.07193566
0001c0 80 ad 8b 3d cb 93 9e 3d c3 8a ce 3d b9 a8 9a 3d
       0.06820202 0.07743033 0.100850604 0.075517125
0001d0 28 dc cd 3d 24 e6 84 3d ff 79 bb 3d 14 0c a1 3d
       0.10051757 0.06489208 0.09154128 0.07863632
0001e0 eb 93 9b 3d 59 b4 6a 3d fd 37 87 3d fa 85 66 3d
       0.075965725 0.0573009 0.06602476 0.056280114
0001f0 20 3f 97 3d 09 cb 70 3d a0 da 81 3d 7d 5a 47 3d
       0.07385087 0.05878738 0.063405275 0.04867028
000200 ff be 91 3d 8b 1d 7b 3d 7e 45 77 3d da 7e 4e 3d
       0.07116508 0.06130747 0.060369007 0.050413944
000210 69 fc 8b 3d 1b f7 9c 3d 0e a1 ad 3d 7d 7e 87 3d
       0.06835253 0.07664319 0.08477984 0.066159226
000220 b0 7a ad 3d 59 6b 8d 3d d4 b9 9e 3d 2a 72 8e 3d
       0.084706664 0.069052406 0.07750288 0.06955369
000230 1b 17 d9 3d 81 7b bf 3d 00 ed b8 3d 90 fb ae 3d
       0.1060011 0.093497284 0.09029579 0.085440755
000240 af 9f 9c 3d c3 ee b7 3d 50 e3 aa 3d 95 d1 bf 3d
       0.07647645 0.08981087 0.08344138 0.093661465
000250 35 ca 7c 3d 49 9a b8 3d 8c 05 d9 3d 52 82 be 3d
       0.061716277 0.090138026 0.10596761 0.093022004
000260 c8 f5 c4 3d d7 15 3b 3d 12 9b 93 3d b0 8a 83 3d
       0.096171916 0.045675125 0.07207312 0.06422937
000270 fd dd 33 3d 73 3f 28 3d 2f e8 98 3d 20 b7 2c 3d
       0.043912876 0.041076135 0.074661605 0.04216683
000280 7c 46 cc 3c 69 df 3b 3d 31 b5 59 3d c3 2c 21 3d
       0.024935953 0.045867357 0.053151313 0.03934933
000290 24 04 01 3d 39 87 c9 3c 0f 8f ba 3c e6 05 49 3c
       0.03149809 0.024600612 0.022773294 0.012269473
0002a0 d1 9e 33 3d 84 81 9b 3c 36 95 22 3c 84 b8 35 bb
       0.04385263 0.018982656 0.00992327 -0.0027728388
0002b0 12 d5 1f bc 67 ea 28 bc 35 4f 52 bc 9a c0 1f bd
       -0.00975539 -0.010309792 -0.012836267 -0.03900204
0002c0 e6 67 3e bc 12 6e 00 bd 99 d0 45 bd 1c 47 07 bd
       -0.011621451 -0.03135497 -0.048294637 -0.0330268
0002d0 06 da e2 bc 9a ff 6d bd b2 7e 26 bd a8 9b 25 bd
       -0.027691852 -0.05810509 -0.04064817 -0.04043165
0002e0 2e 78 3a bd 7d c1 47 bd 76 28 35 bd 32 17 19 bd
       -0.04552477 -0.04876851 -0.04422804 -0.037375636
0002f0 10 7d 33 bd 85 2e 25 bd 96 4e 09 bd cb bc 16 bd
       -0.04382044 -0.040327568 -0.03352221 -0.03680114
000300 62 21 9a bc 61 9c f2 bc 63 fb 22 bd 38 8c 13 bd
       -0.018814746 -0.029615583 -0.039790522 -0.036022395
000310 ff 50 23 bd 35 18 24 bd 2c 6a 23 bd 1c 19 ff bc
       -0.039872166 -0.040062148 -0.039896175 -0.031139903
000320 00 cb 16 bd 47 22 fd bc 0a 1e 04 bd b4 ef 01 bd
       -0.03681469 -0.030900134 -0.03225521 -0.03172274
000330 69 b5 02 bd 27 13 dc bc dc 64 14 bd a4 18 13 bd
       -0.031911287 -0.026864601 -0.036229 -0.03591217
000340 be f7 2b bd d3 9e 29 bd 21 c4 3a bd 8e 9f 63 bd
       -0.041984312 -0.041411232 -0.0455972 -0.055572085
000350 91 24 3a bd ba 8c 71 bd c5 de 38 bd 43 a4 21 bd
       -0.04544503 -0.058972098 -0.045134325 -0.039463293
000360 51 1a 37 bd 72 ef 43 bd 56 c9 07 bd 5a 06 1b bd
       -0.04470283 -0.047835775 -0.033150993 -0.037847854
000370 98 c8 4a bd d6 9c 24 bd 0c 57 35 bd 86 54 2c bd
       -0.049507707 -0.040188633 -0.044272467 -0.042072795
000380 4d c0 25 bd 1f d5 52 bd 83 c2 53 bd f3 30 36 bd
       -0.040466595 -0.05147278 -0.051699173 -0.044480275
000390 e4 ee 23 bd 78 81 4d bd 7f c1 5a bd 50 8b 2f bd
       -0.040022746 -0.0501723 -0.05340719 -0.042857468
0003a0 ff 5b 43 bd 62 42 22 bd 6e 45 34 bd 50 f7 1e bd
       -0.047695156 -0.03961409 -0.044011526 -0.038810074
0003b0 2f e4 2e bd a6 d8 35 bd 1e 0d 58 bd 09 2c 11 bd
       -0.04269808 -0.044396065 -0.052746885 -0.035442386
0003c0 b0 0e 32 bd 6b 59 09 bd 71 fe 3b bd 30 00 0b bd
       -0.04347104 -0.03353254 -0.04589695 -0.033935726
0003d0 fc cb 29 bd 7d ff 08 bd 14 3b fe bc 7c 06 4a bd
       -0.0414543 -0.033446778 -0.03103403 -0.04932259
0003e0 41 71 16 bd ae c4 2e bd fa ab 58 bd 5f 47 e9 bc
       -0.0367291 -0.042668037 -0.052898385 -0.028476415
0003f0 20 55 5a bd c9 64 07 bd c3 f4 25 bd fb 13 e6 bc
       -0.053303838 -0.0330551 -0.040516626 -0.0280857

arith.constant14 f4 [221]
000000 30 70 1e bd 80 a7 23 bd f4 ad 37 bd f3 90 1b bd
       -0.03868121 -0.039954662 -0.04484363 -0.03798003
000010 b7 c7 21 bd 3a e6 01 bd 24 e6 58 bd ce 35 1d bd
       -0.039497104 -0.0317137 -0.052953854 -0.03838139
000020 53 c1 1b bd fa 2f 54 bd ed cc 28 bd 5a 3e 65 bd
       -0.038026165 -0.051803567 -0.041211057 -0.055967666
000030 97 c3 1a bd c6 d1 d1 bc f1 1d 53 bd 12 88 3a bd
       -0.037784185 -0.025612723 -0.051542226 -0.045539923
000040 8e 5a 00 bd 0f 6b 68 bd 78 f8 54 bd ab b6 65 bd
       -0.03133636 -0.056742724 -0.05199477 -0.05608241
000050 b0 52 2e bd 5e c9 21 bd 0b de 57 bd 7a 05 4e bd
       -0.042559326 -0.03949868 -0.05270199 -0.05029819
000060 62 7e 59 bd 38 ae 4f bd 8f 38 48 bd bc cd 38 bd
       -0.053099044 -0.050703257 -0.048882063 -0.04511808
000070 1b b8 11 bd d9 03 4e bd 18 12 3e bd 30 bd 2e bd
       -0.035575967 -0.05029664 -0.046403974 -0.042660892
000080 6d 98 13 bd 37 02 66 bd 45 58 57 bd 69 70 3c bd
       -0.036034036 -0.056154456 -0.052574415 -0.04600564
000090 b4 f8 84 bd 7b 46 27 bd 57 92 2e bd 1a 06 13 bd
       -0.06492749 -0.0408387 -0.04262003 -0.03589449
0000a0 84 97 07 bd ed 20 04 bd cd 83 36 bd 09 cd 33 bd
       -0.03310348 -0.032257963 -0.04455929 -0.04389671
0000b0 5c d9 46 bd 9d 11 f9 bc 71 e3 35 bd ab 53 12 bd
       -0.048547134 -0.030403906 -0.04440636 -0.035724323
0000c0 08 72 6d bd 20 3d 80 bd 22 ef bc bc 5c 6c 03 bd
       -0.057970077 -0.06261659 -0.023063246 -0.03208576
0000d0 df 1f 9a bc dc 4f ba bc f9 92 e1 bc ae 1d 9c ba
       -0.018814025 -0.022743158 -0.027535902 -0.0011910701
0000e0 4f 0f 06 bc 09 f5 e8 bb 02 c3 c1 3a 23 7b ec bb
       -0.008182361 -0.0071092886 0.0014782848 -0.0072168275
0000f0 01 e5 1d 3c b2 e2 a5 3c 15 46 1a bd 63 4c 77 bb
       0.009637118 0.020249698 -0.03766449 -0.003773474
000100 ba 1d d3 3c 68 27 51 3b 82 d7 45 3c 99 bc 0c 3d
       0.02577101 0.0031914357 0.012075307 0.03435955
000110 b6 4a fd 3b 73 bb 8e 3c 15 a0 22 3d 19 1c 1a 3d
       0.0077298535 0.017423367 0.039703447 0.037624452
000120 c5 0c 86 3d 60 c6 01 3d 4a 7a c1 3d be e2 75 3d
       0.06545404 0.031683326 0.09447153 0.06003069
000130 a2 c9 95 3d da 59 25 3d d1 b3 3b 3d 6e 5d 76 3d
       0.07313849 0.040368892 0.045825783 0.060147695
000140 e0 62 72 3d d1 7b 87 3d 03 df 6d 3d b3 fb 63 3d
       0.059176326 0.06615413 0.05807401 0.05565996
000150 48 64 8a 3d 2e 00 a2 3d ea 5d 0d 3d 1f 6f 91 3d
       0.067574084 0.079101905 0.03451339 0.07101273
000160 0f 4a af 3d 94 86 9a 3d 29 8f 99 3d e4 da b8 3d
       0.085590474 0.075452 0.07498009 0.09026125
000170 41 eb 8d 3d 14 da aa 3d 5f 35 a4 3d 49 e2 92 3d
       0.06929637 0.08342376 0.08017992 0.07172067
000180 8c f8 92 3d 8f a8 a2 3d 61 85 80 3d 60 4e 8a 3d
       0.07176313 0.07942306 0.0627544 0.0675323
000190 86 b5 98 3d 84 b5 89 3d 50 17 90 3d 96 7d 7c 3d
       0.07456498 0.067240745 0.070356965 0.061643206
0001a0 5b dc 1f 3d 49 d8 83 3d eb bd 3d 3d c1 10 3a 3d
       0.039028507 0.064377375 0.046323698 0.045426134
0001b0 8f 66 57 3d ad 06 e8 3c 08 86 23 3d 28 60 0d 3d
       0.052588042 0.028323496 0.039922744 0.03451553
0001c0 78 e2 17 3d ee 74 85 3d 6e 15 a4 3d 0f cb 8b 3d
       0.03708121 0.06516443 0.080119 0.0682584
0001d0 31 c6 99 3d 76 4f b4 3d c4 c3 c4 3d ea eb bf 3d
       0.07508505 0.088042185 0.09607652 0.09371169
0001e0 1b 61 dc 3c 2b e4 9b 3d 79 6f ca 3d 20 e8 8a 3d
       0.026901772 0.07611879 0.09884543 0.067825556
0001f0 72 20 fa 3d db c2 a0 3d fa b3 e6 3d 01 3f a7 3d
       0.1221322 0.07849666 0.112647966 0.08166314
000200 3f 97 a9 3d 4a 4e 84 3d 9d c9 a5 3d ba 9d 1c 3d
       0.08280801 0.06460245 0.08095095 0.038236357
000210 a0 45 82 3d 3c 54 89 3d da 9c 8a 3d f6 f1 6a 3d
       0.06360936 0.067055196 0.06768198 0.05735966
000220 d0 11 34 3d 62 33 f7 3c 2e fd 51 3d 56 dd 35 3d
       0.0439623 0.030175868 0.05126684 0.044400536
000230 f1 3c 9b 3c 86 43 ab 3c 98 ba 96 bc b3 f0 b1 3b
       0.018949958 0.020906221 -0.018399522 0.005430305
000240 8d 03 a7 3c 7a 40 14 bb ed 3a b9 bc 17 20 47 3c
       0.020387435 -0.002262144 -0.022611106 0.012153647
000250 bc 3d c0 ba 60 98 2a 3c 0a 53 1a bc 06 d0 ec bc
       -0.0014666836 0.010412306 -0.009419212 -0.028907787
000260 92 58 9c bc 1f 85 89 bc 2b ec 14 bd fb b4 b8 bb
       -0.019085202 -0.01678711 -0.03635804 -0.005636809
000270 eb f9 9f bc 21 83 22 bd 6e b2 05 bd 33 cc 15 bd
       -0.01952835 -0.039675836 -0.032640867 -0.036571693
000280 5b c7 95 bc 4b ac fd bc 99 40 2e bd fe 1e 0a bd
       -0.018283537 -0.030965945 -0.042542074 -0.033720963
000290 11 37 4e bd 7d 7d 08 bd e0 1f 25 bd 54 89 6f bd
       -0.050345484 -0.0333228 -0.0403136 -0.058480576
0002a0 4f 3e 31 bd ee 9d 3e bd c4 ac 3e bd 80 93 3c bd
       -0.043272313 -0.046537332 -0.04655148 -0.046039104
0002b0 dc 5a 7b bd a3 a3 40 bd 70 4b 45 bd bd dd 4f bd
       -0.061365947 -0.047031056 -0.048167646 -0.050748575
0002c0 0e 23 30 bd 19 64 1b bd ea 1a 44 bd 3c 47 35 bd
       -0.04300218 -0.037937257 -0.04787723 -0.044257388
0002d0 38 32 39 bd da 17 0d bd 85 86 2c bd 3e 9e c2 bc
       -0.045213908 -0.034446575 -0.042120475 -0.023757096
0002e0 93 d8 34 bd 04 c6 5b bd fa 22 3e bd 41 b3 10 bd
       -0.044151854 -0.05365564 -0.046420075 -0.0353272
0002f0 95 84 f0 bc e8 1e 41 bd 61 28 07 bd f7 0d 1d bd
       -0.029360095 -0.047148615 -0.032997493 -0.038343396
000300 5e da 41 bd 10 c7 27 bd a8 9b 38 bd fc 62 32 bd
       -0.04732739 -0.040961325 -0.04507032 -0.04355143
000310 08 04 7c bd 4c 4c 39 bd 26 52 33 bd bd 59 20 bd
       -0.061527282 -0.045238778 -0.043779515 -0.03914808
000320 5e e1 53 bd d7 b5 5e bd 1e c2 28 bd ee d6 20 bd
       -0.0517286 -0.054372635 -0.04120075 -0.039267473
000330 b2 54 28 bd 24 eb 4a bd 1d 64 27 bd 92 52 84 bd
       -0.041096397 -0.049540654 -0.04086696 -0.064610615
000340 0f 34 3f bd 5f 7d 45 bd 4c 68 86 bd 8b d6 8e bd
       -0.046680506 -0.048215266 -0.06562862 -0.069745146
000350 29 3e 4c bd 29 ff 77 bd b6 0d 3e bd 5d 44 42 bd
       -0.049863968 -0.060546074 -0.046399795 -0.047428478
000360 59 c5 7a bd d2 38 3c bd f3 61 36 bd c2 8c 3b bd
       -0.06122336 -0.045952626 -0.044527005 -0.045788534
000370 5d 04 22 bd
       -0.039554942
