common/src/main/assets/tcn_models/tcn_30min.tflite (tflite, 232616 bytes, 39 tensors)

arith.constant f4 [64]
0	0x3d018943	0.031625044
1	0xbd313bd2	-0.04326994
2	0x3bc9eb5a	0.0061620893
3	0x3c8f7090	0.017509729
4	0x3c74c14c	0.014938664
5	0x3cb8567a	0.022502173
6	0xbd9b872e	-0.07594143
7	0xbdbeb32d	-0.09311519
8	0xbc554f0c	-0.0130193345
9	0x3c2afb33	0.010435867
10	0xbd169249	-0.036760602
11	0xbc646d03	-0.013942006
12	0x3d84ce4e	0.06484662
13	0xbcc212e7	-0.023690654
14	0xbbeecfb6	-0.0072879447
15	0x3c1a7207	0.0094266
16	0x3d0636b2	0.032767005
17	0x3c583989	0.013197311
18	0xbcb911a8	-0.022591427
19	0xbc16f306	-0.009213215
20	0xbb3a97e9	-0.0028471893
21	0xbd2cbe2d	-0.042173553
22	0x3cd69c1d	0.026197487
23	0xbd0ee333	-0.034884643
24	0xbcde272e	-0.027118292
25	0x3d53fbc7	0.051753785
26	0xbd93f60d	-0.07224665
27	0xbb0a4fe3	-0.0021104745
28	0xbcb29a95	-0.021802226
29	0xbd3814bd	-0.044941653
30	0x3d4ff638	0.050771922
31	0xbce3f7c2	-0.027828101
32	0x3da22270	0.07916725
33	0x3da4a6ab	0.08039602
34	0xbd6df30f	-0.058093127
35	0x3ce6847c	0.028139345
36	0xbd2e0f9e	-0.042495362
37	0xbbf9f156	-0.0076276464
38	0xbbcee86a	-0.006314327
39	0xba5db04e	-0.00084567524
40	0xbc382fbb	-0.011241849
41	0x3c87fcf7	0.016600115
42	0x3c199710	0.009374395
43	0x3ba7bc55	0.0051188865
44	0xbd494bbb	-0.049144488
45	0xbaef8873	-0.0018274918
46	0x3d8fa222	0.07013346
47	0x3ddf7bdb	0.109122954
48	0x3d0259f1	0.031824056
49	0x3d8f7524	0.07004765
50	0xbd64a980	-0.05582571
51	0xbca4bf08	-0.020110622
52	0x3c0749f0	0.008257374
53	0xbcce663e	-0.025195237
54	0x3d9ffdbc	0.07812068
55	0xbd1bbd45	-0.0380223
56	0x3d848f93	0.06472697
57	0xbcbe0ac6	-0.023198497
58	0x3d108636	0.035284244
59	0x3c01c100	0.00791955
60	0xbc1c0502	-0.009522678
61	0xbd01ca8e	-0.03168731
62	0x3d602179	0.054719422
63	0x3d354011	0.04425055

arith.constant1 f4 [32]
0	0x3cadbbc0	0.02120769
1	0xbca41073	-0.020027375
2	0x3ba8d7e3	0.005152689
3	0x3d3c3cbf	0.04595637
4	0x3c803f3b	0.01565515
5	0xbb4c2418	-0.0031149443
6	0x3d2e7a5b	0.042597156
7	0xbc90231e	-0.01759487
8	0x3cbd9041	0.023140075
9	0xbce8d442	-0.028421525
10	0xbd84b125	-0.064791
11	0xbb3c08e1	-0.0028691816
12	0xbc119574	-0.00888573
13	0xbd199174	-0.03749223
14	0xbc7ca362	-0.015419813
15	0x3c807e94	0.015685357
16	0xbce40923	-0.027836388
17	0xbc066f15	-0.008205195
18	0xbd5b7fa4	-0.053588524
19	0xbca56dc3	-0.02019394
20	0x3c820c91	0.015875133
21	0x3cd0f3d0	0.025506884
22	0x3d230a40	0.039804697
23	0x3d309fb2	0.043121047
24	0x3ca6bc21	0.020353379
25	0x3d699404	0.057025924
26	0xbcc738f3	-0.024319148
27	0xbccef959	-0.025265383
28	0xbd0a2e55	-0.033735592
29	0xbd0a3976	-0.033746205
30	0xbd08f1ca	-0.033433713
31	0xbc637527	-0.013882912

arith.constant2 f4 [32]
0	0x3c231819	0.009954476
1	0xbd8d98c9	-0.06913907
2	0x3d168011	0.036743227
3	0x3d5102e3	0.051028144
4	0x3d5d0d5a	0.05396781
5	0x3dcf5454	0.10123506
6	0x3d8eba15	0.06969086
7	0x3db0df74	0.0863637
8	0xbccb0db3	-0.024786806
9	0xbdadf9b3	-0.08494892
10	0x3db79861	0.08964611
11	0xbd1d8c55	-0.03846391
12	0xbdc02bd4	-0.093833596
13	0xbd26206c	-0.040558264
14	0xbdc6bba0	-0.097037554
15	0xbd1c8cf6	-0.03822037
16	0x3d460c08	0.048351318
17	0x3c92e557	0.017931623
18	0xbd0d6e2e	-0.034528904
19	0xbc607f9e	-0.013702301
20	0xbc2228bc	-0.009897407
21	0xbd046916	-0.03232678
22	0xbd311736	-0.043235026
23	0xbdd89366	-0.10574989
24	0xbda0f8db	-0.078599654
25	0xbc943f14	-0.018096484
26	0x3d94ce4e	0.07265912
27	0xbc9c8742	-0.019107465
28	0xbd82da48	-0.0638929
29	0x3d8cbdf1	0.06872166
30	0x3d253990	0.0403381
31	0xbd288d5f	-0.041150447

arith.constant3 f4 [32]
0	0xbd6fc346	-0.058535837
1	0xbd65a727	-0.056067612
2	0xbcf9eab6	-0.030507427
3	0xbd986ae2	-0.07442261
4	0x3c2412c6	0.010014242
5	0x3cd8f62b	0.02648457
6	0xbcf77b1e	-0.030210074
7	0xbbf104f9	-0.007355329
8	0xbd23a046	-0.03994777
9	0xbccb7a10	-0.024838477
10	0xbc828d8d	-0.015936637
11	0x3cc77720	0.024348795
12	0xbb8bc5d0	-0.0042655244
13	0x3dac6342	0.084173694
14	0x3ba3b89c	0.0049963724
15	0xbcd7cf9f	-0.026344119
16	0xbc942f5a	-0.018088985
17	0x3d2e13a2	0.042499192
18	0xbbe0e6dc	-0.006863458
19	0xbb233314	-0.002490227
20	0x3d9abf53	0.075560234
21	0xbce7130b	-0.028207323
22	0x3c6e4633	0.014543104
23	0x3d27262c	0.040807888
24	0x3d8770dd	0.06613324
25	0x3d29d40a	0.04146198
26	0x3d857ecd	0.06518326
27	0xbcd1d5db	-0.02561467
28	0xbd3ac1db	-0.04559503
29	0x3d3f4eb3	0.046705913
30	0xbd9e3b8f	-0.07726204
31	0x3b3e6138	0.0029049646

arith.constant4 f4 [341]
0	0xbdc4d1dd	-0.09610341
1	0xbdb8471a	-0.089979365
2	0xbde5219d	-0.11188052
3	0xbde3cdf3	-0.11123266
4	0xbdfc14bf	-0.123086445
5	0xbe036492	-0.12831333
6	0xbe04c87d	-0.12967105
7	0xbe02fe10	-0.1279223
8	0xbdfff056	-0.12497012
9	0xbe08d1c9	-0.13361277
10	0xbe03566b	-0.12825935
11	0xbe0c380b	-0.13693254
12	0xbe0be065	-0.13659818
13	0xbe0344ca	-0.1281921
14	0xbe23a360	-0.15980291
15	0xbe032427	-0.1280676
16	0xbe060dcc	-0.130912
17	0xbe0a43f7	-0.13502489
18	0xbdf30da5	-0.11867837
19	0xbe104c7d	-0.14091678
20	0xbdfbc863	-0.1229408
21	0xbe06938f	-0.13142227
22	0xbdebfe8d	-0.11523161
23	0xbe00457a	-0.12526503
24	0xbe0b685c	-0.13614029
25	0xbddc34cb	-0.10752257
26	0xbdf1f73c	-0.11814734
27	0xbde54dbe	-0.11196469
28	0xbdf37f81	-0.11889554
29	0xbdd9a5bc	-0.106273144
30	0xbe002354	-0.12513477
31	0xbdf9780c	-0.121811
32	0xbdeff32e	-0.11716305
33	0xbddc326e	-0.10751806
34	0xbdc702fb	-0.09717365
35	0xbdf18dc4	-0.11794618
36	0xbdbdc8da	-0.09266825
37	0xbde02297	-0.109440975
38	0xbdbd135b	-0.092322074
39	0xbdc88cd4	-0.09792486
40	0xbdc101dd	-0.094241835
41	0xbdb827d9	-0.08991975
42	0xbd9e45eb	-0.077281795
43	0xbd9e54f6	-0.07731049
44	0xbda9dcf4	-0.082940966
45	0xbdcdb57c	-0.10044381
46	0xbdc2bb0e	-0.09508334
47	0xbdd91c1c	-0.106010646
48	0xbdbb3b5e	-0.09142183
49	0xbdd0668d	-0.1017581
50	0xbdd28f54	-0.10281244
51	0xbdde8ed4	-0.10867086
52	0xbddc78ab	-0.10765203
53	0xbdddb221	-0.10824991
54	0xbdd027ed	-0.10163865
55	0xbdc27fe8	-0.094970524
56	0xbdc73938	-0.097277105
57	0xbdc8c2a8	-0.09802753
58	0xbdc7f33d	-0.09763191
59	0xbdbdf32c	-0.09274897
60	0xbdc4f3a4	-0.09616783
61	0xbda14d5f	-0.078760855
62	0xbd923daf	-0.071406715
63	0xbd8d2c7f	-0.068932526
64	0xbdb9ddbd	-0.09075496
65	0xbdbf6bd0	-0.093467355
66	0xbdb5a386	-0.0886908
67	0xbda2d12b	-0.07950052
68	0xbdb0bdbc	-0.08629939
69	0xbd89144d	-0.06693325
70	0xbd821c18	-0.06353015
71	0xbd797bf3	-0.060909223
72	0xbd894003	-0.067016624
73	0xbd81acc5	-0.06331781
74	0xbd700f10	-0.058608115
75	0xbd6c33f8	-0.05766675
76	0xbd6f8f5a	-0.05848632
77	0xbd8dafc8	-0.06918293
78	0xbd313d0c	-0.04327111
79	0xbd2c5954	-0.042077377
80	0xbd7e4a82	-0.062082775
81	0xbd6e2811	-0.05814368
82	0xbca1ee33	-0.019766903
83	0xbd3c5f0e	-0.04598909
84	0xbd0401e1	-0.032228354
85	0xbd0787dd	-0.033088554
86	0xbce5dbd4	-0.028058924
87	0x3b9fde76	0.0048788143
88	0x3b88c1a3	0.004173474
89	0xbc024a48	-0.00795228
90	0x3cb4e22d	0.022080505
91	0xbc414f59	-0.011798703
92	0xbbeff04f	-0.007322348
93	0xbbfc6f28	-0.0077036805
94	0x3c563925	0.013075148
95	0xbbc4c26d	-0.0060046227
96	0x3cb3ff7b	0.021972409
97	0xbc78be75	-0.015182127
98	0x3d386ec5	0.045027513
99	0x3cbb84cf	0.022890477
100	0x3ce2632f	0.027635185
101	0x3c856231	0.016282173
102	0x3cdd096f	0.026982037
103	0x3d2408b8	0.040047377
104	0x3d276983	0.04087211
105	0x3d278792	0.040900774
106	0x3d5c60b9	0.05380318
107	0x3d267cdf	0.04064643
108	0x3d238aee	0.039927416
109	0x3d115e52	0.03549034
110	0x3c8d2f68	0.01723452
111	0x3d2ff01c	0.042953596
112	0x3cdf3b26	0.027249884
113	0x3cf31ecb	0.02967777
114	0x3cca6e48	0.02471079
115	0x3cc2bbfe	0.023771282
116	0x3d257df3	0.040403318
117	0x3d6f4792	0.058417864
118	0x3d6a6942	0.057229288
119	0x3d6b857d	0.05750035
120	0x3d86799d	0.06566165
121	0x3d9fa82a	0.077957466
122	0x3d90aa9f	0.070637934
123	0x3dae1d89	0.08501727
124	0x3d930897	0.07179373
125	0x3db273d0	0.08713496
126	0x3da55422	0.08072688
127	0x3db5615f	0.08856463
128	0x3dc52364	0.09625891
129	0x3dab00bc	0.083497494
130	0x3db7e8d3	0.089799546
131	0x3db34277	0.087529115
132	0x3db089db	0.08620044
133	0x3d85d150	0.06534064
134	0x3d8ecc85	0.06972603
135	0x3d8984ba	0.06714769
136	0x3da39138	0.07986683
137	0x3d4f5610	0.050619185
138	0x3d770e65	0.060316462
139	0x3d77a24d	0.060457516
140	0x3d9dfe2d	0.07714496
141	0x3d97da1f	0.0741465
142	0x3db72109	0.08941848
143	0x3db69db3	0.089167975
144	0x3dc5bf81	0.09655667
145	0x3da56a7f	0.08076953
146	0x3dc048c5	0.0938888
147	0x3dbc01ee	0.091800556
148	0x3d8f4468	0.06995469
149	0x3d8974d2	0.06711735
150	0x3daf825f	0.08569788
151	0x3d9c2ee3	0.076261304
152	0x3d85e2e4	0.065374166
153	0x3da9b0cc	0.082856745
154	0x3d8fdb6a	0.07024272
155	0x3d8886f9	0.06666369
156	0x3d39b208	0.0453358
157	0x3d717d37	0.058957305
158	0x3d6cd257	0.057817783
159	0x3d832953	0.06404366
160	0x3d8b4fb0	0.068023086
161	0x3d5f0e34	0.054456905
162	0x3d7117df	0.058860656
163	0x3d86dd68	0.06585199
164	0x3d739ab6	0.059473716
165	0x3d63f05b	0.055649143
166	0x3d3b2a8b	0.04569487
167	0x3d9a7a2e	0.07542835
168	0x3d40497a	0.046945073
169	0x3d5188b9	0.05115578
170	0x3d64625b	0.05575786
171	0x3d7438ac	0.05962436
172	0x3d7d3934	0.06182213
173	0x3d64c01e	0.05584728
174	0x3d514a02	0.05109597
175	0x3d6f8e4f	0.058485325
176	0x3d846838	0.06465191
177	0x3d154deb	0.03645126
178	0x3ccfcc3b	0.02536594
179	0x3d04d00b	0.032424968
180	0x3d42140d	0.047382403
181	0x3d1ad0cd	0.037796784
182	0x3d1c2483	0.038120758
183	0x3ca04986	0.019566309
184	0x3d2a8792	0.041633196
185	0x3cb46038	0.022018537
186	0x3d375357	0.044757213
187	0x3d4b6558	0.049657196
188	0x3d0b2657	0.03397211
189	0x3ab4f909	0.0013807128
190	0x3d26edfa	0.040754296
191	0x3d225866	0.039635085
192	0x3d253aae	0.040339164
193	0x3c8fbc60	0.017545879
194	0x3d282df7	0.04105946
195	0x3c80dd61	0.015730562
196	0x3c3662c2	0.011131944
197	0x3c6b1a1d	0.014349488
198	0xbb07862b	-0.0020679336
199	0xbbb8bda5	-0.0056378418
200	0xbb002312	-0.0019552154
201	0xbca3ebe5	-0.020009944
202	0xbc85b0d0	-0.016319662
203	0xbd1aecf8	-0.037823647
204	0xbbd54131	-0.0065080156
205	0x3ae476ed	0.0017430462
206	0xbcb23f82	-0.021758799
207	0xbcf3d84b	-0.029766222
208	0xbd1127d1	-0.035438363
209	0xbcb60ee2	-0.022223894
210	0xbd051376	-0.032489263
211	0xbd1dac88	-0.038494617
212	0xbd3ffbb8	-0.046870917
213	0xbd5ba2c0	-0.053622007
214	0xbd8a4fdb	-0.067535125
215	0xbd2eee78	-0.04270789
216	0xbd1e0046	-0.03857448
217	0xbd51b11d	-0.0511943
218	0xbd3922b5	-0.045199115
219	0xbd45b9d4	-0.048272923
220	0xbd0afcb0	-0.033932388
221	0xbd0045f1	-0.0313167
222	0xbd1a18ef	-0.037621435
223	0xbcf84345	-0.030305514
224	0xbced3333	-0.028955078
225	0xbd371e26	-0.044706486
226	0xbd1f6f0c	-0.038924262
227	0xbcc5053b	-0.024050346
228	0xbccfdb6f	-0.025373189
229	0xbd1b0db7	-0.037854876
230	0xbd27f93a	-0.041009165
231	0xbd1581a6	-0.036500596
232	0xbc865feb	-0.01640316
233	0xbd4da6e8	-0.050208002
234	0xbd5365e6	-0.05161085
235	0xbd1414c1	-0.036152605
236	0xbd3d6fa7	-0.046249058
237	0xbd87bc27	-0.06627684
238	0xbd954486	-0.072884604
239	0xbd6e4bd4	-0.058177784
240	0xbd829b04	-0.06377223
241	0xbdb7d5e3	-0.089763425
242	0xbd95b949	-0.07310731
243	0xbdb6f911	-0.089342244
244	0xbd94d9d6	-0.072681114
245	0xbd926506	-0.07148175
246	0xbd89ea9b	-0.067342006
247	0xbd861e26	-0.06548719
248	0xbd9c11a3	-0.076205514
249	0xbd97603b	-0.073914014
250	0xbdaa01bf	-0.08301114
251	0xbd79b2d2	-0.060961552
252	0xbda5da48	-0.080982745
253	0xbda2004a	-0.079102114
254	0xbd93faaf	-0.072255485
255	0xbd9b3154	-0.07577768

arith.constant9 f4 [32, 1, 3, 32]
0	0xbbefffc0	-0.007324189
1	0xbd3e79f4	-0.046503022
2	0xbe2c140b	-0.16804521
3	0xbd97a6a3	-0.0740483
4	0xbcb51e68	-0.022109225
5	0xbe0fae1a	-0.14031258
6	0xbdcee8c5	-0.10102991
7	0xbd3fdbfc	-0.046840653
8	0x3ddb5732	0.107099906
9	0xbdb7230f	-0.08942234
10	0x3e1586f1	0.14602257
11	0xbe138994	-0.1440795
12	0x3e1dd833	0.15414505
13	0xbd90c6a0	-0.07069135
14	0xbe118c10	-0.14213586
15	0x3e30879f	0.17239235
16	0x3d8d7a84	0.069081336
17	0xbd2c247c	-0.04202698
18	0x3d794688	0.06085828
19	0xbc7c09e0	-0.015383214
20	0xbe260e4c	-0.16216391
21	0xbd06ddb0	-0.03292626
22	0x3c8a21e0	0.016861856
23	0x3e0fd905	0.1404763
24	0x3e3028a9	0.1720301
25	0xbd929157	-0.071566276
26	0xbd461af0	-0.048365533
27	0x3cea3368	0.028588966
28	0x3e1800c5	0.14844044
29	0xbe234054	-0.15942508
30	0xbd262eb0	-0.04057187
31	0x3c56bd20	0.013106614
32	0x3e0e5e51	0.13903166
33	0x3dc42bda	0.095786765
34	0x3c8b33c8	0.016992465
35	0x3e0764c5	0.13222034
36	0x3d790c3c	0.060802683
37	0x3e1bc695	0.15212472
38	0xbe07ca82	-0.13260844
39	0x3e2b4501	0.16725542
40	0x3dfee7d6	0.12446563
41	0xbde3e33a	-0.111273244
42	0x3c37f220	0.011227161
43	0xbe27daa3	-0.16391997
44	0x3dfe4912	0.12416281
45	0x3cf5da70	0.030011386
46	0x3d8685f0	0.06568515
47	0xbe2a347c	-0.16621584
48	0xbd4bccd0	-0.04975587
49	0x3dee9262	0.11649014
50	0x3d1d107c	0.0383458
51	0x3dcc21fa	0.09967418
52	0x3e1c7fd7	0.15283142
53	0xbdf3dc6c	-0.119072765
54	0xbe28771b	-0.16451685
55	0xbcf73460	-0.030176342
56	0xbe24f21e	-0.16107985
57	0xbd0bb898	-0.03411159
58	0x3e219c99	0.15782394
59	0x3d94ce8a	0.07265957
60	0xbe0cc511	-0.1374705
61	0x3d9f6382	0.077826515
62	0xbe1fcb77	-0.1560496
63	0xbe1f8592	-0.15578297
64	0xbdca3983	-0.09874251
65	0xbe2957cd	-0.165374
66	0xbe1be51f	-0.15224122
67	0xbd467305	-0.048449535
68	0x3d875e2a	0.06609757
69	0x3d9c5636	0.07633631
70	0xbced0caf	-0.028936712
71	0xbd1d71ed	-0.038438726
72	0xbd3cbf90	-0.046081126
73	0xbdf55926	-0.11979894
74	0x3d2932c1	0.04130817
75	0xbdd6cf46	-0.10488753
76	0xbd9e797a	-0.077380136
77	0x3daea4f4	0.08527556
78	0xbe12f014	-0.14349395
79	0xbd813e08	-0.0631066
80	0xbda393a4	-0.079871446
81	0x3d911163	0.070833944
82	0xbddd0835	-0.10792581
83	0x3d013ff4	0.03155513
84	0xbd06d1b5	-0.032914836
85	0xbd3f2ff9	-0.04667661
86	0x3d1d6a51	0.03843147
87	0x3e371863	0.17880397
88	0xbd87e9b2	-0.06636371
89	0xbc55a49a	-0.013039732
90	0xbd33e14d	-0.043916035
91	0xbcc2f194	-0.023796834
92	0xbdad2f95	-0.08456341
93	0xbd2eac45	-0.042644758
94	0x3d1ed559	0.038777683
95	0x3b802396	0.003910492
96	0x3db3f25a	0.08786459
97	0x3d1b6b70	0.037944257
98	0x3c008520	0.0078442395
99	0x3c0f77a0	0.008756548
100	0xbdefba10	-0.117054105
101	0x3d6d89d0	0.057992756
102	0x3deffd86	0.11718278
103	0xbe281d18	-0.16417348
104	0xbe1ae473	-0.15126209
105	0x3d15fe1c	0.03661929
106	0x3db3fa06	0.087879226
107	0x3df1627a	0.11786361
108	0x3e289d63	0.16466288
109	0x3dccf1ea	0.10007079
110	0xbd75468c	-0.059881732
111	0xbdb07f43	-0.08618023
112	0x3d0fada8	0.03507772
113	0xbd68416e	-0.056703024
114	0xbe2f3c2e	-0.171128
115	0x3d376f0c	0.044783637
116	0x3bee38c0	0.0072699487
117	0x3ddbc356	0.10730617
118	0x3dcfc7fe	0.10145567
119	0x3e2c46db	0.16823904
120	0xbe29a9a3	-0.16568618
121	0x3d737920	0.059441686
122	0x3e2adfc5	0.16686924
123	0xbdd0aa8f	-0.101887815
124	0xbdf9f300	-0.12204552
125	0x3d84ca3a	0.06483884
126	0xbe300853	-0.17190675
127	0xbdecc4ba	-0.1156096
128	0x3dfaa4e6	0.12238483
129	0xbe119b55	-0.1421941
130	0x3d43096c	0.047616407
131	0x3dbf237a	0.093329385
132	0x3d09e0a8	0.033661515
133	0xbd79f398	-0.061023325
134	0x3e2814d7	0.164142
135	0xbbef0ea0	-0.0072954446
136	0x3ded93fe	0.11600493
137	0xbdb5d26e	-0.08878027
138	0x3d561614	0.05226715
139	0x3b278480	0.0025561154
140	0x3df7e76e	0.121046886
141	0xbaf49680	-0.0018660575
142	0x3e2b9e31	0.16759564
143	0x3de83862	0.11338879
144	0x3c8261a8	0.015915707
145	0xbd6203ac	-0.055179283
146	0xbde174b5	-0.11008588
147	0xbdb9b6be	-0.090680584
148	0xbdb02e79	-0.08602614
149	0xbdbae524	-0.09125736
150	0xbd039da4	-0.03213276
151	0xbda870b2	-0.0822462
152	0x3d05f24c	0.032701775
153	0xbaa5d680	-0.0012652427
154	0x3de4a8c2	0.111650005
155	0xbc9ec710	-0.01938203
156	0x3e161065	0.14654692
157	0xbda9efe7	-0.08297711
158	0xbc555a30	-0.013021991
159	0x3da76afa	0.08174701
160	0xbc0a264d	-0.008431983
161	0x3e1ab555	0.15108235
162	0x3ddb1712	0.1069776
163	0x3c8781dc	0.016541414
164	0x3e12e8b6	0.14346585
165	0xbb7539a0	-0.003741838
166	0xbcb452df	-0.022012172
167	0xbc988bbd	-0.01862132
168	0xbc95f080	-0.018303156
169	0x3e4dfd40	0.20116138
170	0xbdd8a352	-0.10578026
171	0x3cded48d	0.027200961
172	0xbd3a5c14	-0.04549797
173	0xbd87135c	-0.065954894
174	0x3e448212	0.19190243
175	0xbda07ccf	-0.07836305
176	0xbd3d24c0	-0.046177626
177	0xbde0f1a1	-0.10983587
178	0x3cb74fb7	0.022376878
179	0x3dccde67	0.100033574
180	0x3df9308f	0.12167465
181	0xbdb50242	-0.08838321
182	0xbcf84b11	-0.030309232
183	0xbacb5692	-0.0015513471
184	0x3d214a97	0.039377775
185	0xbdbd4df2	-0.092433825
186	0xbdceb3fa	-0.100929216
187	0x3e0c4994	0.13699943
188	0xbda1c473	-0.07898798
189	0xbdff5fea	-0.12469466
190	0x3c6b9b1a	0.014380241
191	0x3d9a1006	0.075225875
192	0xbdb08d0d	-0.08620653
193	0xbb2c0b80	-0.0026251972
194	0x3d2a98f4	0.041649774
195	0x3e0a09a1	0.13480236
196	0xbdf5be5c	-0.11999199
197	0x3cc53140	0.024071336
198	0x3cbeed00	0.02330637
199	0xbe1435bc	-0.14473623
200	0x3cbd4100	0.023102283
201	0x3c151e40	0.00910145
202	0xbe1989e9	-0.14994015
203	0x3e0241df	0.1272044
204	0x3de24b62	0.110495344
205	0xbdbf310c	-0.09335527
206	0xbe01f48c	-0.12690943
207	0xbdb08e44	-0.08620885
208	0x3e052cc9	0.13005365
209	0x3d96748e	0.0734645
210	0x3e2eec73	0.17082386
211	0x3de11086	0.1098948
212	0x3d82048e	0.06348525
213	0x3d96e022	0.07366969
214	0xbe03378f	-0.12814163
215	0xbd12b518	-0.035817236
216	0xbdfa9c70	-0.12236869
217	0xbd109f7c	-0.035308346
218	0xbd920efd	-0.07131765
219	0x3c0b2070	0.00849162
220	0x3c98b120	0.018639147
221	0xbe1c15e3	-0.15242724
222	0x3d16ad6c	0.03678648
223	0x3e04b657	0.12960182
224	0x3e302fa5	0.17205675
225	0x3dc15afa	0.094411805
226	0xbcd54220	-0.026032507
227	0x3e0e33b9	0.13886918
228	0xbd7e08b2	-0.06202001
229	0x3c30eac0	0.010798156
230	0xbd7b5532	-0.061360545
231	0xbc5b9320	-0.013401777
232	0xbdd7ba3b	-0.105335675
233	0x3b1f59c0	0.002431497
234	0xbc313250	-0.010815218
235	0x3e139cab	0.14415233
236	0xbce39720	-0.027782023
237	0xbd8dc1ab	-0.06921705
238	0x3cb372f8	0.021905407
239	0x3d8680ce	0.06567536
240	0xbd2fea70	-0.042948186
241	0x3e190d67	0.14946519
242	0xbde255b3	-0.11051502
243	0xbba68c60	-0.005082652
244	0xbe2350d0	-0.15948796
245	0xbe038004	-0.12841803
246	0xbcc25ea8	-0.023726776
247	0x3d4b9ea0	0.049711823
248	0x3df0ef1e	0.11764358
249	0x3e0aa963	0.13541178
250	0x3df34eb6	0.11880247
251	0x3e1dca07	0.15409099
252	0x3e1d9a63	0.15390925
253	0x3d73286c	0.05936472
254	0x3c9d8090	0.019226342
255	0x3db009e6	0.08595638

arith.constant10 f4 [32, 1, 3, 32]
0	0xbe273644	-0.16329294
1	0x3bcaea20	0.0061924607
2	0x3d1a60d0	0.037689984
3	0xbe1b40c5	-0.15161426
4	0x3d50068c	0.050787494
5	0x3d86d2f2	0.065832034
6	0xbe1a17f6	-0.15048203
7	0xbd80e66b	-0.06293949
8	0x3d807082	0.06271459
9	0xbdc3adc4	-0.095546275
10	0xbda9fbfe	-0.08300017
11	0xbc296240	-0.010338366
12	0x3ded48c2	0.11586143
13	0xbd52cc2c	-0.051464245
14	0xbd121e64	-0.035673514
15	0x3e0f72b1	0.14008595
16	0xbdc70e72	-0.09719552
17	0xbdd4ed2e	-0.10396801
18	0xbdda5eab	-0.10662588
19	0x3d87f294	0.06638065
20	0xbdff4860	-0.12464976
21	0x3d730f68	0.059340864
22	0xbe027d40	-0.12743092
23	0xbc81dd40	-0.01585257
24	0x3e280f95	0.16412194
25	0xbdc3b1a1	-0.095553644
26	0x3d02b6fc	0.03191279
27	0x3e030789	0.12795843
28	0x3d95216c	0.07281765
29	0x3c316510	0.010827318
30	0xbd3eefb0	-0.046615303
31	0xbe1f1195	-0.15534051
32	0x3e1b1045	0.15142925
33	0x3dddf3f6	0.108375475
34	0x3df583da	0.11988039
35	0xbe0bc7d0	-0.13650441
36	0x3e1701a1	0.14746715
37	0x3e2f55ef	0.17122625
38	0x3ded1f0a	0.11578186
39	0x3e28c3a7	0.16480885
40	0x3dcfdeb2	0.10149898
41	0x3dfec066	0.12439041
42	0xbe1c44aa	-0.15260568
43	0x3e0c5dd1	0.13707663
44	0x3e1a412f	0.15063928
45	0xbd6217a6	-0.055198334
46	0x3dbb420a	0.09143455
47	0x3df542c2	0.11975624
48	0x3d8d8b38	0.069113195
49	0x3dd47b66	0.10375099
50	0xbdb15f59	-0.08660764
51	0xbe00b69d	-0.12569661
52	0x3ddd16d6	0.10795371
53	0x3db05946	0.086107776
54	0x3e2ca7cf	0.16860889
55	0xbc25a720	-0.0101106465
56	0x3d1a1c18	0.03762445
57	0x3d275f24	0.040862218
58	0x3e335e9b	0.17516558
59	0xbdea9dea	-0.11455901
60	0xbe020e47	-0.12700759
61	0xbded703f	-0.11593675
62	0x3ce32e78	0.027732119
63	0xbdfe3200	-0.124118805
64	0x3df6dbb8	0.12053627
65	0x3da9a41e	0.08283256
66	0x3dd06fce	0.10177575
67	0xbdd2ae47	-0.10287147
68	0x3e43db9e	0.19126746
69	0xbc04567d	-0.008077261
70	0xbd300180	-0.04297018
71	0xbbddee8c	-0.006772822
72	0xbdff54ea	-0.12467368
73	0xbdfe4b72	-0.12416734
74	0xbde36c10	-0.11104596
75	0xbe16d8d6	-0.14731154
76	0xbd19def9	-0.03756616
77	0xbc239cca	-0.009986112
78	0xbdb46612	-0.08808531
79	0xbe2a619e	-0.166388
80	0xbe111428	-0.14167845
81	0xbdc85059	-0.0978095
82	0x3ddf90e8	0.109163105
83	0xbd4bebdb	-0.049785476
84	0x3e1b08fe	0.15140149
85	0xbe312b12	-0.17301586
86	0x3e3cf7bc	0.18453878
87	0x3e65b383	0.2243176
88	0xbe4ed9de	-0.20200297
89	0x3c08a562	0.008340212
90	0xbe2e76c3	-0.17037492
91	0x3e34ab5d	0.17643495
92	0x3cb4c09a	0.022064496
93	0xbc2a319f	-0.010387807
94	0x3df74c24	0.120750695
95	0x3db948cd	0.09047089
96	0xbd0dfdc0	-0.034665823
97	0x3dae844a	0.08521326
98	0xbd11f444	-0.03563334
99	0xbe15e4b5	-0.14638026
100	0x3e057d7f	0.13036154
101	0xbd525e50	-0.051359475
102	0x3db5257a	0.08845039
103	0xbe210174	-0.1572321
104	0x3e2a0299	0.16602553
105	0xbba86080	-0.005138457
106	0x3e11f6d7	0.14254318
107	0xbe0d7e90	-0.13817811
108	0xbdad4f42	-0.08462383
109	0x3e277e9d	0.16356893
110	0xbdf6a300	-0.120428085
111	0xbdcc988c	-0.099900335
112	0xbd7d5e82	-0.061857708
113	0x3da2884e	0.07936154
114	0x3c2467b0	0.010034487
115	0x3e2dd8a5	0.16977175
116	0xbd75e5bc	-0.060033545
117	0x3dcf9406	0.10135655
118	0xbe0fcdef	-0.14043401
119	0x3da09956	0.078417465
120	0x3e26cb21	0.16288425
121	0x3e238db9	0.15972032
122	0xbe282840	-0.16421604
123	0xbd8988f8	-0.06715578
124	0x3e0816af	0.13289903
125	0xbc76db00	-0.015066862
126	0x3e1a212d	0.15051718
127	0xbc230270	-0.009949312
128	0x3d9616ca	0.073285654
129	0x3a638600	0.00086793303
130	0xbe2e1dc7	-0.17003547
131	0xbd9b1017	-0.07571428
132	0x3d90b92c	0.07066569
133	0x3d892a0a	0.066974714
134	0xbe1a5907	-0.15073024
135	0x3daa3dd6	0.083125755
136	0x3df104c6	0.117684886
137	0xbd6c6972	-0.057717748
138	0x3d14ca84	0.036325946
139	0xbdc69b3b	-0.096975766
140	0x3de50e76	0.11184399
141	0xbe143ea4	-0.1447702
142	0xbd8d036a	-0.06885417
143	0x3e078a8f	0.1323645
144	0x3e21ee15	0.15813477
145	0x3c29a7c0	0.010354936
146	0x3d65d9ac	0.05611579
147	0x3d2a8548	0.041631013
148	0x3e1f761f	0.15572403
149	0x3d52f444	0.05150248
150	0x3d02c284	0.031923786
151	0x3e1a73b9	0.15083207
152	0xbdd10418	-0.10205859
153	0x3e1c7c9d	0.15281911
154	0x3e200d01	0.1562996
155	0x3e02a029	0.12756409
156	0x3d0b335c	0.033984527
157	0xbce87fe8	-0.028381303
158	0x3e094923	0.13406806
159	0xbe2598c1	-0.16171552
160	0xbd9cfcb5	-0.076653875
161	0x3abf50e8	0.0014596255
162	0x3e07eb47	0.13273345
163	0xbb81517a	-0.0039464803
164	0xbd00dfa0	-0.031463265
165	0x3dbd12a9	0.09232075
166	0x3d6f42e8	0.058413416
167	0xbdad8231	-0.08472098
168	0xbd461531	-0.048360053
169	0xbd185700	-0.037192345
170	0x3cd28308	0.025697246
171	0x3e03692b	0.12833087
172	0xbe14e925	-0.14542063
173	0x3dba11a6	0.090853974
174	0xbcb50bc3	-0.022100335
175	0xbd06fef0	-0.03295797
176	0x3deaced3	0.1146523
177	0x3ba45f79	0.005016264
178	0x3d1d30e0	0.03837669
179	0x3e0b35fe	0.13594815
180	0xbde61bd4	-0.112357765
181	0x3d7b4ac5	0.061350603
182	0x3e2cc597	0.1687225
183	0x3e0c8d06	0.13725671
184	0xbdc61623	-0.09672191
185	0x3c62cd91	0.013842956
186	0x3d9ac5f5	0.075572886
187	0xbde8a40a	-0.11359413
188	0xbcde17ad	-0.027110899
189	0x3e32fe77	0.17479883
190	0x3c77ffdf	0.015136688
191	0x3a16e9ef	0.0005756905
192	0x3e095e91	0.1341498
193	0xbd98ecfd	-0.07467077
194	0xbd28e294	-0.041231707
195	0xbd59c238	-0.053163737
196	0x3db4bf5e	0.08825563
197	0x3e152783	0.14565854
198	0xbc1a17e0	-0.009405106
199	0x3ddd62ce	0.10809861
200	0xbcf30a10	-0.029667884
201	0x3d904f70	0.070464015
202	0xbe114bdc	-0.14189094
203	0x3de482ce	0.111577615
204	0x3e1ae6db	0.15127127
205	0xbd26b4c4	-0.040699735
206	0x3c8044d0	0.015657812
207	0x3d9241dc	0.07141468
208	0xbdd1bcdf	-0.102411024
209	0x3c7bd810	0.0153713375
210	0xbcc15cd8	-0.023603842
211	0x3e3483f3	0.1762846
212	0x3dfeedce	0.124477014
213	0xbc7129b0	-0.014719412
214	0xbda27372	-0.07932176
215	0xbdd3557d	-0.1031904
216	0xbd7fbc5e	-0.0624355
217	0xbe2ff338	-0.17182624
218	0xbd656176	-0.05600115
219	0xbe00194b	-0.12509649
220	0x3b9132e0	0.0044311136
221	0xbe217e78	-0.157709
222	0xbda3c3ad	-0.079963066
223	0xbbb9c900	-0.005669713
224	0x3d70f044	0.058822885
225	0xbdc8ad62	-0.09798695
226	0xbdc84625	-0.09779004
227	0xbc932350	-0.017961174
228	0xbd5dab92	-0.0541187
229	0xbe01d6f2	-0.12679651
230	0x3ce82470	0.028337687
231	0x3dcb4dde	0.09926961
232	0xbc4262a0	-0.011864334
233	0x3b445240	0.0029956251
234	0x3dd7b422	0.105324045
235	0xbdc88e07	-0.097927146
236	0xbe158da8	-0.14604819
237	0x3d26f5c8	0.04076174
238	0x3de01372	0.10941209
239	0x3abf4b80	0.0014594644
240	0xbe26de14	-0.16295654
241	0xbd205404	-0.039142624
242	0xbbf782c0	-0.0075534284
243	0x3d0be804	0.034156814
244	0xbe0e4bf7	-0.13896166
245	0x3dea3b56	0.11437099
246	0x3ccb61c8	0.0248269
247	0xbb281c00	-0.0025651455
248	0x3daf327a	0.085545495
249	0xbcbb7cb8	-0.022886619
250	0x3dcdaebe	0.10043095
251	0x3c513f90	0.012771502
252	0xbe3263f6	-0.17420945
253	0xbdad0deb	-0.0844992
254	0xbdf7617a	-0.12079139
255	0xbd69cd02	-0.057080276

arith.constant11 f4 [32, 1, 3, 32]
0	0xbe076e05	-0.13225563
1	0x3d952aca	0.07283552
2	0x3d9acd66	0.07558708
3	0x3ddae262	0.1068771
4	0xbd130f78	-0.035903424
5	0x3e11d48d	0.14241238
6	0x3da777c2	0.08177139
7	0xbc7a1570	-0.0152639
8	0x3c75a280	0.014992356
9	0xbd075374	-0.03303857
10	0xb8864000	-6.401539e-05
11	0xbdabc046	-0.083862826
12	0x3e16c3e5	0.14723165
13	0xbdc68730	-0.09693754
14	0x3d865d36	0.06560747
15	0x3d90e07a	0.070740655
16	0x3be6e140	0.007045895
17	0x3e212a6b	0.15738837
18	0xbda56216	-0.08075349
19	0x3ce83ae0	0.028348386
20	0xbe2e7db9	-0.17040147
21	0x3e2962ab	0.16541545
22	0xbdca46e9	-0.09876806
23	0xbcd8df60	-0.026473701
24	0xbe19b83d	-0.15011688
25	0x3e274307	0.16334163
26	0x3ddef5ae	0.108867034
27	0x3dc0aefa	0.09408374
28	0xbd06fb98	-0.032954782
29	0x3dea36a6	0.114362046
30	0xbc1883f0	-0.0093088
31	0xbd7dfee4	-0.06201066
32	0xbd12d046	-0.035843156
33	0x3cf51e2c	0.029921614
34	0x3d838f42	0.06423809
35	0xbdecb2aa	-0.11557515
36	0xbe0f537c	-0.1399669
37	0xbca77973	-0.020443654
38	0x3dd43804	0.10362247
39	0x3c6bf0e2	0.014400693
40	0xbe0c2142	-0.13684562
41	0x3e6a33d8	0.2287134
42	0x3da5a39b	0.08087846
43	0xbc603a54	-0.0136857815
44	0x3e04e4f2	0.1297796
45	0xbcaba519	-0.020952748
46	0xbda2525f	-0.07925867
47	0x3e3309d2	0.17484215
48	0x3cf2a06b	0.029617509
49	0xbe1de4bd	-0.15419288
50	0xbe0ab5b1	-0.13545872
51	0xbdd3b8c4	-0.103379756
52	0x3e2c5d6e	0.16832516
53	0x3e29b9ff	0.16574858
54	0xbe00ce6c	-0.12578744
55	0x3e007f9a	0.12548676
56	0xbdb5eaa4	-0.08882645
57	0xbe2d61d3	-0.16931848
58	0x3e04a1d3	0.12952356
59	0xbc156880	-0.009119153
60	0x3cbe6064	0.023239322
61	0xbde72f51	-0.11288322
62	0xbdd1939d	-0.10233233
63	0x3db08b56	0.08620326
64	0x3c9a2255	0.018815199
65	0x3dc75f26	0.09734945
66	0x3de9797e	0.11400126
67	0x3e3b0839	0.18264855
68	0xbe12ac08	-0.14323437
69	0xbe0e639d	-0.13905187
70	0xbd3c4e85	-0.04597332
71	0x3d26779d	0.040641416
72	0x3b9a567f	0.004710018
73	0xbdb61bb2	-0.08892001
74	0x3e153ab6	0.14573178
75	0x3d4b3503	0.049611103
76	0x3903ac6c	0.00012557366
77	0xbcac6140	-0.021042466
78	0x3decae7e	0.11556719
79	0x3dff1cbc	0.124566525
80	0xbe1a8423	-0.15089469
81	0xbdb1fe50	-0.086910844
82	0x3dccaa8c	0.09993467
83	0x3d6829f1	0.056680623
84	0x3db1a8b4	0.08674756
85	0xbdaaba93	-0.083363675
86	0x3dd82bd9	0.10555238
87	0x3cf46462	0.029833023
88	0xbe17628d	-0.14783688
89	0x3d39badd	0.045344222
90	0xbd4cab92	-0.04996831
91	0xbc0dd20d	-0.008656037
92	0xbdd64462	-0.10462262
93	0x3d578c37	0.052623954
94	0xbe19f823	-0.15036063
95	0x3e317f17	0.17333637
96	0xbe237f79	-0.15966596
97	0x3da6feca	0.08154066
98	0xbde1dd83	-0.11028578
99	0x3dfc274a	0.12312181
100	0x3e060fc7	0.13091956
101	0xbd8d1b91	-0.068900235
102	0xbe09a10e	-0.13440344
103	0xbda65965	-0.081225194
104	0x3dbd0926	0.092302606
105	0x3e1a5e0b	0.15074937
106	0x3df8c572	0.12147035
107	0x3d7ccb90	0.06171757
108	0xbde4b17b	-0.11166664
109	0xbdab9dd9	-0.083797164
110	0xbe0b78ea	-0.13620344
111	0x3d976d46	0.07393889
112	0x3e310f23	0.1729093
113	0x3dc95af6	0.098318025
114	0xbd8f2c59	-0.069908805
115	0xbe0798ab	-0.13241832
116	0x3df6f796	0.12058942
117	0xbd0d4cb4	-0.034496978
118	0x3e05554d	0.13020821
119	0x3ddeaaba	0.10872407
120	0xbd476d3c	-0.04868816
121	0xbdeee528	-0.11664802
122	0xbdfd6f80	-0.123747826
123	0x3de93c6e	0.11388479
124	0xbd8ac55a	-0.06775923
125	0xbdc5177e	-0.096236214
126	0x3d3c3ad0	0.045954525
127	0x3d925ce8	0.07146627
128	0x3d9e1c7c	0.07720277
129	0x3df0e6b2	0.11762752
130	0x3d4c6980	0.0499053
131	0xbd4e47db	-0.050361495
132	0xbd6939b2	-0.05693979
133	0xbdf3ee40	-0.11910677
134	0xbdc134e4	-0.09433916
135	0xbe29e578	-0.16591442
136	0x3cd89a3a	0.026440728
137	0xbd862488	-0.065499365
138	0xbe2ab792	-0.16671589
139	0xbcc01eed	-0.023452247
140	0xbdb5701c	-0.08859274
141	0x3e127be9	0.1430508
142	0xbdbd0f6d	-0.09231458
143	0x3ddd06a7	0.107922845
144	0x3db26ae8	0.08711797
145	0x3e23df4f	0.16003154
146	0xbcf01826	-0.02930839
147	0xbdd2b4b8	-0.102883756
148	0xbd94026d	-0.07227025
149	0xbd7bc9a5	-0.0614716
150	0x3e014fa9	0.12628044
151	0xba0b072d	-0.00053034985
152	0x3de9a9ca	0.11409338
153	0x3d89660f	0.06708919
154	0x3c807ee4	0.015685506
155	0xbd6dd113	-0.058060717
156	0xbe43fb99	-0.19138946
157	0x3d3c885d	0.046028484
158	0xbdd9cb33	-0.1063446
159	0xbdc002b6	-0.09375517
160	0x3e370ad6	0.17875227
161	0x39c7f668	0.00038139825
162	0x3dc0194f	0.09379827
163	0xbddad33d	-0.10684822
164	0xbe0d9aa7	-0.13828526
165	0xbe48652e	-0.19569847
166	0x3de6533f	0.11246347
167	0x3d6d7d7f	0.05798101
168	0x3dcec650	0.10096419
169	0xbd1c38b5	-0.038140018
170	0x3e3addcd	0.18248673
171	0x3d34742b	0.0440561
172	0xbd9e715d	-0.07736466
173	0x3e2223fd	0.15834041
174	0xbca7f380	-0.020501852
175	0xbd05d49f	-0.032673474
176	0x3cd3a493	0.025835311
177	0xbe6ea362	-0.23304513
178	0xbccc734f	-0.024957327
179	0xbd084218	-0.033266157
180	0x3c981d16	0.018568557
181	0x3d0c90b1	0.034317676
182	0xbd8c98ee	-0.068651065
183	0xbe3a89a5	-0.1821657
184	0x3d7aff87	0.061278846
185	0xbb8673aa	-0.0041031437
186	0xbcf1a370	-0.029496878
187	0xbe187516	-0.14888415
188	0x3e2f001a	0.17089882
189	0x3d7b0f41	0.061293844
190	0x3e0b528e	0.13605711
191	0x3e451208	0.1924516
192	0x3ddd3142	0.10800411
193	0x3e249199	0.16071166
194	0xbcf68fe0	-0.030097902
195	0x3e20e51f	0.15712403
196	0xbd21b948	-0.03948334
197	0x3d8ca8f2	0.06868161
198	0x3d90f06a	0.07077105
199	0xbd51040c	-0.05102925
200	0xbd18d9bc	-0.037317023
201	0x3ca15810	0.019695312
202	0x3d5c43d4	0.053775623
203	0xbd05d910	-0.03267771
204	0x3e1fd21d	0.15607496
205	0x3d72afd0	0.0592497
206	0xbd52e1b4	-0.05148478
207	0x3df0c03a	0.11755414
208	0xbde5a799	-0.11213607
209	0xbd879fb7	-0.0662226
210	0xbdf8cf24	-0.12148884
211	0x3d8469f8	0.064655244
212	0x3dcaece2	0.09908463
213	0x3e03eff9	0.12884511
214	0xbe237d0e	-0.15965673
215	0xbd2b5d38	-0.041836947
216	0x3e153005	0.14569099
217	0x3d467acc	0.048456952
218	0x3defc18e	0.117068395
219	0x3d717fac	0.058959648
220	0xbc8d7bf8	-0.017271027
221	0x3bf4d480	0.007471621
222	0x3e0c589b	0.13705675
223	0x3e232723	0.15932898
224	0x3cdee41e	0.027208384
225	0x3d3bc94e	0.045846276
226	0xbd83bd05	-0.06432537
227	0xbdd6816f	-0.10473906
228	0x3d9a504a	0.07534845
229	0xbca6a502	-0.020342354
230	0xbde2544c	-0.110512346
231	0x3d055ce8	0.032559305
232	0xbe2588fe	-0.1616554
233	0x3e1f559b	0.1556
234	0x3daeb2fb	0.085302316
235	0xbe292bc4	-0.16520602
236	0x3c915b58	0.017743751
237	0xbc4ee2bc	-0.0126273
238	0xbe6170d8	-0.22015703
239	0xbd5c6836	-0.05381032
240	0xbdac3601	-0.08408738
241	0x3e381b80	0.1797924
242	0xbbdfa8d4	-0.006825546
243	0x3c9d9a83	0.019238716
244	0x3e11757b	0.14204971
245	0x3d3b93ba	0.04579518
246	0xbe136f95	-0.14398034
247	0xbdbb6598	-0.09150237
248	0x3dbdbb61	0.09264255
249	0xbd35e8f1	-0.044411603
250	0x3d4b319f	0.04960787
251	0x3dc0df45	0.09417585
252	0x3d1aa783	0.037757408
253	0xbd9f601d	-0.07782004
254	0xbe4edc87	-0.20201312
255	0xbe06bab6	-0.13157162

arith.constant12 f4 [32, 1, 3, 32]
0	0x3e08a5f1	0.13344552
1	0x3d88688e	0.06660567
2	0xbc35b780	-0.011091113
3	0x3dc98972	0.09840669
4	0xbe0ba9f8	-0.13639057
5	0xbdb2f693	-0.087384365
6	0x3e1ac32b	0.15113513
7	0xbe33268f	-0.17495178
8	0xbe2b4f5c	-0.16729492
9	0xbcd91878	-0.026500925
10	0x3db11e3a	0.086483434
11	0x3d8864b0	0.066598296
12	0x3d664b60	0.056224227
13	0x3d508790	0.050910532
14	0xbbdc3aa0	-0.006720856
15	0xbcd1dc78	-0.025617823
16	0x3c431890	0.011907712
17	0xbd6d3606	-0.05791285
18	0xbe0960dc	-0.13415855
19	0x3dfb54d6	0.122720405
20	0xbe29c709	-0.16579832
21	0xbe3077e7	-0.17233239
22	0xbc30e8c0	-0.010797679
23	0xbd9b2696	-0.07575719
24	0x3e032b8b	0.12809579
25	0x3e1019b7	0.1407231
26	0x3ccd3200	0.025048256
27	0x3df401ee	0.119144306
28	0x3e146401	0.14491273
29	0xbd0c4960	-0.034249663
30	0x3db62d46	0.08895354
31	0xbda1e464	-0.0790489
32	0xbce87a04	-0.028378494
33	0xbd216239	-0.039400313
34	0xbcc7e8d5	-0.024403015
35	0x3d84e27a	0.064885095
36	0xb908749a	-0.00013013408
37	0x3bcdc691	0.0062797745
38	0xbe01934a	-0.12653843
39	0xbdc8b603	-0.09800341
40	0xbd95e784	-0.07319549
41	0xbe00b066	-0.1256729
42	0xbca8a0a3	-0.02058441
43	0xbdd1e744	-0.102491885
44	0x3e2f6346	0.17127714
45	0x3e1b1fc0	0.1514883
46	0x3d586d3f	0.05283856
47	0x3d52cb71	0.051463548
48	0xbdd16068	-0.10223466
49	0x3e0828cf	0.13296817
50	0xbd40f0ab	-0.04710452
51	0x3d3d8e94	0.04627855
52	0x3d6f65d7	0.05844673
53	0x3d729200	0.059221268
54	0x3bb13e91	0.00540907
55	0xbc5333db	-0.012890781
56	0x3d81af57	0.063322715
57	0x3d7a3dff	0.06109428
58	0xbe208cfe	-0.15678784
59	0xbd243264	-0.04008712
60	0xbdec49ad	-0.1153749
61	0x3d3ec235	0.04657193
62	0x3de65a82	0.11247732
63	0xbd61a3f7	-0.05508801
64	0xbe10c0d6	-0.14136061
65	0xbe2b740e	-0.1674349
66	0xbcb9c6a0	-0.02267772
67	0xbde678ed	-0.112535335
68	0xbdbf5970	-0.09343231
69	0x3cf548a9	0.029941874
70	0x3e194dde	0.1497111
71	0x3e4c2a23	0.19937949
72	0x3d860446	0.06543784
73	0xbbc56b44	-0.00602475
74	0xbd01e378	-0.03171107
75	0x3db8ac16	0.09017198
76	0x3e505b89	0.20347418
77	0x3e0b1610	0.13582635
78	0xbdb74d10	-0.089502454
79	0xbbe8bcfb	-0.0071026064
80	0x3d00477d	0.031318177
81	0xbda5b34e	-0.0809084
82	0x3e44ed91	0.1923125
83	0xbe5dd79d	-0.21664281
84	0xbcac9e21	-0.021071495
85	0x3e2048b1	0.1565273
86	0xbd83a030	-0.06427038
87	0x3e36a76a	0.17837301
88	0xbc64c9ef	-0.01396416
89	0x3e079128	0.13238966
90	0x3dc74e91	0.09731782
91	0xbd8e66a0	-0.06953168
92	0xbe39a800	-0.18130493
93	0xbdc14146	-0.09436278
94	0xbe18d1df	-0.1492381
95	0xbcb56bf1	-0.022146197
96	0xbe02e7de	-0.12783763
97	0xbd500158	-0.05078253
98	0x3d07fcdc	0.03320013
99	0x3e16bd65	0.14720686
100	0xbda1d91f	-0.07902741
101	0xbd6d2ec6	-0.057905935
102	0x3da9c7a6	0.08290033
103	0x3e122f9d	0.14275976
104	0xbc006580	-0.0078366995
105	0xbe25bccb	-0.161853
106	0x3d47c218	0.048769087
107	0x3dc9102a	0.09817536
108	0x3ceee208	0.029160514
109	0x3d1ca570	0.03824371
110	0xbcff3740	-0.031154275
111	0xbe13dc16	-0.14439425
112	0x3c0355e0	0.00801608
113	0xbd5c2f5e	-0.05375611
114	0xbdb4a753	-0.08820977
115	0xbde807bb	-0.113295995
116	0xbda04ff2	-0.07827748
117	0xbe27b28d	-0.16376705
118	0xbcf56678	-0.029956087
119	0x3e2d0043	0.16894631
120	0xbe34511d	-0.17609067
121	0xbe206c2d	-0.15666266
122	0xbd8dd446	-0.069252536
123	0xbde1b38d	-0.11020575
124	0xbcba11e8	-0.022713616
125	0x3df7355a	0.12070723
126	0xbd27fef0	-0.04101461
127	0xbe0db6f7	-0.13839327
128	0xbd324bfb	-0.043529492
129	0xbe16c52b	-0.14723651
130	0x3e286308	0.16444027
131	0xbe1db032	-0.15399244
132	0xbe09fd72	-0.13475588
133	0x3d3abfa6	0.045592926
134	0x3dda9486	0.1067286
135	0xbe025a4c	-0.12729758
136	0xbe268935	-0.16263278
137	0xbdd13e74	-0.1021699
138	0x3e29a036	0.16565022
139	0xbe24cbe8	-0.16093409
140	0x3d223210	0.039598525
141	0xbd56a6aa	-0.052405037
142	0x3d94e292	0.07269777
143	0x3d8b822d	0.068119384
144	0xbd95b14e	-0.07309209
145	0xbe2f365c	-0.1711058
146	0x3e2e1607	0.1700059
147	0xbd765775	-0.060142
148	0xbe545fb5	-0.20739634
149	0x3dea3bd6	0.11437194
150	0xbd4033b0	-0.046924293
151	0x3b2ca24f	0.002634186
152	0x3d9504ed	0.0727633
153	0x3d5f1a59	0.054468486
154	0xbd9d73c9	-0.076881
155	0xbda43e7c	-0.080197304
156	0x3dc3d99c	0.0956299
157	0xbe0f986c	-0.14022988
158	0x3e4c1f44	0.19933802
159	0x3d3037c4	0.043021932
160	0x3d70b81a	0.058769323
161	0x3dac9198	0.08426207
162	0xbdfa2cde	-0.12215589
163	0x3d9c1134	0.07620469
164	0x3d3aa011	0.045562807
165	0xbd7aea91	-0.061258856
166	0x3c0d35f1	0.008618818
167	0xbdc29743	-0.09501507
168	0xbe0faeee	-0.14031574
169	0x3e22e5eb	0.15908019
170	0x3d6a9065	0.05726661
171	0x3d4c3a8c	0.049860522
172	0xbd673d36	-0.05645486
173	0xbe09e3b9	-0.13465776
174	0xbca9aa0e	-0.020710971
175	0x3daeeb2e	0.08540951
176	0xbdb1bf43	-0.086790584
177	0x3d81688c	0.06318769
178	0xbe52d32e	-0.20588371
179	0xbe1b56d1	-0.15169837
180	0x3d86acab	0.065759026
181	0xbc2a75d5	-0.01040407
182	0x3e0f9268	0.14020693
183	0xbdc7d29e	-0.09756969
184	0xbbcdcb21	-0.0062803184
185	0xbd55bd6c	-0.0521826
186	0xbdec5db9	-0.11541314
187	0xbe457cbf	-0.19285868
188	0x3dc9745f	0.09836649
189	0xbe299c9c	-0.16563648
190	0xbd906297	-0.070500545
191	0xbdc11a49	-0.094288416
192	0x3de8e10a	0.11371048
193	0xbe2eeaa7	-0.170817
194	0xbd6f07ea	-0.058357157
195	0x3e2f7363	0.1713386
196	0x3d0fbea0	0.035093904
197	0x3dabf5d6	0.08396499
198	0xbd9827e8	-0.074294865
199	0xbdd0f369	-0.10202677
200	0x3d26c124	0.040711537
201	0xbe2286a3	-0.15871672
202	0x3e0e8a6b	0.1391999
203	0xbdceeb34	-0.10103455
204	0xbccb72c0	-0.02483499
205	0xbdce7f1a	-0.100828364
206	0xbdcdf1e1	-0.100559
207	0xbbfe0340	-0.0077518523
208	0x3d47a100	0.048737526
209	0xbd66ee6a	-0.056379713
210	0x3e344a49	0.17606463
211	0xbdaf8fe2	-0.08572365
212	0xbde052f2	-0.109533206
213	0xbda90dad	-0.082545616
214	0xbe268501	-0.16261674
215	0x3cfd1750	0.030894905
216	0xbd1e2050	-0.038605034
217	0x3dadca52	0.08485855
218	0x3da82e62	0.08211972
219	0x3cddcbb0	0.027074665
220	0x3e1e4af9	0.15458287
221	0xbca42e80	-0.020041704
222	0x3e29a75f	0.16567753
223	0x3e17b015	0.14813264
224	0x3d20c1ee	0.039247446
225	0xbe02eb48	-0.12785065
226	0xbcc96832	-0.024585817
227	0xbdba5999	-0.09099121
228	0xbd6744dd	-0.056462158
229	0xbe1ce54d	-0.15321846
230	0x3e0e894f	0.13919567
231	0x3e86342a	0.26211673
232	0x3e03acb5	0.12858851
233	0xbd8f67aa	-0.07002194
234	0x3dcea5f0	0.10090244
235	0x3b9b5ce0	0.004741296
236	0x3e1bbaca	0.15207973
237	0x3da3d576	0.07999699
238	0x3cfa63e4	0.03056521
239	0x3d31fc95	0.04345377
240	0x3dcbeb16	0.099569485
241	0x3e64930a	0.22321716
242	0x3d858508	0.06519514
243	0xbd124e9e	-0.035719506
244	0xbd2f1e23	-0.04275335
245	0x3d941b2e	0.072317466
246	0xbe4ce033	-0.200074
247	0xbdd8d921	-0.10588289
248	0xbd9be9d9	-0.07612962
249	0x3d9c2166	0.07623558
250	0xbe0daf23	-0.1383634
251	0x3db82fff	0.089935295
252	0x3e16f68b	0.14742486
253	0x3ca24842	0.019809846
254	0x3d9ff850	0.07811034
255	0x3c8349e9	0.016026454

arith.constant13 f4 [32, 1, 3, 32]
0	0xbe111902	-0.14169696
1	0x3d347df2	0.044065423
2	0x3b979f00	0.0046271086
3	0xbe51e45f	-0.20497273
4	0xbc67b839	-0.014143043
5	0x3df13c3c	0.11779067
6	0x3e0034f0	0.12520194
7	0x3d99bee6	0.07507114
8	0x3e10391f	0.1408429
9	0x3dc6440d	0.096809484
10	0xbdb4e9cf	-0.08833658
11	0x3d812095	0.06305043
12	0xbe2cf785	-0.16891296
13	0x3c2c13a9	0.010502734
14	0xba14d5ea	-0.00056776276
15	0xbe1cf16c	-0.1532647
16	0x3e1a2483	0.1505299
17	0xbcb8fc80	-0.022581339
18	0xbda60f3a	-0.08108373
19	0x3d162a2b	0.03666131
20	0xbca8afde	-0.020591673
21	0x3d957e18	0.07299441
22	0x3da78820	0.08180261
23	0xbdc9bcd9	-0.09850473
24	0xbd162c89	-0.036663566
25	0xbd994135	-0.074831404
26	0xbdbb5bc9	-0.09148366
27	0xbd6ecc67	-0.058300402
28	0x3d9381f2	0.072025195
29	0xbd52a155	-0.05142339
30	0x3d8981c2	0.067142025
31	0xbdb092de	-0.08621763
32	0x3e20cb94	0.15702659
33	0x3ddbf941	0.10740901
34	0xbd1906cf	-0.03736001
35	0xbda3b23c	-0.0799298
36	0xbdced9f1	-0.10100163
37	0xbe480b52	-0.19535568
38	0xbe02c108	-0.12768948
39	0xbdc30307	-0.09522062
40	0x3e1ca1f1	0.1529615
41	0xbc8680fb	-0.016418925
42	0xbddefa6f	-0.1088761
43	0xbe070fc5	-0.1318961
44	0x3bae2744	0.0053147394
45	0xbc4f3b24	-0.012648378
46	0xbdfe8a34	-0.12428704
47	0xbd733b81	-0.05938292
48	0x3d38cd11	0.04511744
49	0xbdb69634	-0.08915368
50	0x3e11995e	0.14218661
51	0xbd5bf040	-0.053695917
52	0x3d9febdf	0.07808661
53	0x3e3474b3	0.17622642
54	0x3d48c03f	0.049011465
55	0xbd9260e7	-0.07147389
56	0xbd13ad97	-0.03605422
57	0xbdbbedac	-0.09176192
58	0x3d9b3a3a	0.07579465
59	0x3c0a5fdc	0.008445706
60	0xbe010b66	-0.12602004
61	0x3cf723a5	0.030168364
62	0x3d84fe38	0.06493801
63	0x3d96d0de	0.07364057
64	0xbe12c52b	-0.14333026
65	0xbe1da7ab	-0.15395992
66	0x3dcd0648	0.10010964
67	0x3df8205a	0.121155456
68	0xbacb2595	-0.0015498871
69	0xbe1f2b03	-0.15543751
70	0x3dfc6693	0.12324252
71	0xbe4e2fb7	-0.2013539
72	0x3d8e6944	0.069536716
73	0xbd454d8d	-0.04816966
74	0xbd2421fb	-0.04007147
75	0xbdd40e09	-0.103542395
76	0x3d5d6f89	0.054061446
77	0x3e419b5f	0.18906926
78	0x3d669421	0.05629361
79	0xbc22e952	-0.009943323
80	0xbe0c12d0	-0.13679051
81	0xbe16d347	-0.14729033
82	0x3d5604ba	0.0522506
83	0xbceb66af	-0.028735487
84	0x3d9d54d1	0.07682193
85	0xbde8f193	-0.113742016
86	0x3cc4e8ed	0.024036849
87	0x3de0c04b	0.10974177
88	0xbe0f6f94	-0.14007407
89	0xbe407d88	-0.18797886
90	0x3dc94fbc	0.09829661
91	0xbdfad9b7	-0.12248557
92	0x3e15b05e	0.1461806
93	0xbd773be4	-0.06035985
94	0x3c4465d8	0.011987172
95	0xbc8f194f	-0.017468123
96	0x3da6fc83	0.081536315
97	0xbd3eb64b	-0.046560567
98	0x3e158071	0.14599778
99	0x3d5f9c3d	0.05459236
100	0x3d374832	0.044746585
101	0xbe56ad27	-0.2096449
102	0x3d7ecb17	0.0622054
103	0x3ddbf542	0.107401386
104	0x3d272b9f	0.040813085
105	0x3cd5c6f5	0.026095847
106	0x3d98b83b	0.07457014
107	0xbe3f53be	-0.18684289
108	0xbcce2cac	-0.025167786
109	0xbe145efa	-0.14489356
110	0x3d8d4bb8	0.06899208
111	0x3d2df269	0.04246751
112	0xbd97f8cd	-0.07420502
113	0x3dc35792	0.09538187
114	0xbd11dbac	-0.035609886
115	0x3c291925	0.010320936
116	0x3d6138b0	0.054985702
117	0x3de693c4	0.11258653
118	0x3e13966e	0.14412853
119	0x3d725c33	0.05916996
120	0x3e3b2e5e	0.18279406
121	0x3df7ebf2	0.1210555
122	0x3df0e008	0.117614806
123	0xbe04b690	-0.12960267
124	0x3e037d37	0.12840734
125	0xbdf45dc4	-0.11931947
126	0xbda43f0b	-0.08019837
127	0x3dc6bfd7	0.09704559
128	0xbe1383b0	-0.14405704
129	0xbe015d91	-0.12633349
130	0x3d45ee11	0.04832274
131	0x3d68c998	0.05683288
132	0x3db354ff	0.08756446
133	0xbe067639	-0.13131036
134	0xbdc59988	-0.096484244
135	0x3d3e9651	0.04653007
136	0xbdcf7701	-0.1013012
137	0x3da5895e	0.08082841
138	0x3e5faed1	0.21844031
139	0xbda574ec	-0.08078942
140	0x3e26bdb3	0.16283302
141	0x3e13eae6	0.14445075
142	0xbcc9a566	-0.024615001
143	0x3e09f322	0.13471654
144	0x3d92a17c	0.07159707
145	0xbdc254b3	-0.09488811
146	0x3e0ddd77	0.13854013
147	0x3e102c19	0.14079322
148	0xbdf07efd	-0.11742971
149	0xbddfdc1e	-0.10930656
150	0xbe3128d6	-0.17300734
151	0x3e399649	0.18123735
152	0xbe02017d	-0.1269588
153	0x3dc7a988	0.097491324
154	0x3deca9a3	0.11555793
155	0x3d9e9daa	0.07744916
156	0xbd4d504e	-0.050125413
157	0xbd20d608	-0.039266616
158	0xbddd5054	-0.10806337
159	0xbe205555	-0.15657552
160	0xbd631656	-0.055441223
161	0x3e230a6b	0.15921943
162	0xbe5bfcee	-0.21483204
163	0x3db05550	0.08610022
164	0xbd9a109d	-0.075227
165	0xbdf900bd	-0.12158344
166	0xbcbbcde9	-0.022925334
167	0xbd1182a7	-0.03552499
168	0xba2b6901	-0.0006538779
169	0x3d7417be	0.059592955
170	0xbd1b8bce	-0.037975125
171	0x3ddd2013	0.10797133
172	0x3e24b623	0.16085105
173	0xbd77cf1a	-0.06050024
174	0xbd1a784a	-0.037712373
175	0xbd049d58	-0.032376617
176	0x3e108e54	0.14116794
177	0x3d3f78e0	0.046746135
178	0xbdf7b896	-0.12095754
179	0xbe4aa480	-0.19789314
180	0xbcd36299	-0.025803851
181	0x3e275eb3	0.16344719
182	0x3e0e295d	0.13882966
183	0x3dee000c	0.11621103
184	0x3e437788	0.19088566
185	0xbdfc1f53	-0.12310662
186	0x3d6aa063	0.057281863
187	0xbd7165c4	-0.058934942
188	0xbdbd6c98	-0.09249228
189	0xbdbff2d4	-0.09372488
190	0x3d787366	0.060656928
191	0x3e34c016	0.176514
192	0x3dc9b170	0.09848297
193	0x3e041cc9	0.12901606
194	0xbd8461be	-0.06463955
195	0x3c22a334	0.009926606
196	0x3e2de30f	0.16981147
197	0xbd72c391	-0.059268538
198	0xb9b0bc0b	-0.0003370944
199	0x3e13da4b	0.14438741
200	0x3cf62b67	0.030049993
201	0x3e0a3c6b	0.1349961
202	0x3e0f8e10	0.14019036
203	0x3abf6d44	0.0014604707
204	0xbe02e850	-0.12783933
205	0x3d878a62	0.06618191
206	0x3e13713e	0.14398667
207	0xbdffa0fa	-0.12481876
208	0x3df9f172	0.12204255
209	0xbd2ce3d7	-0.042209473
210	0xbd8370d9	-0.06418008
211	0x3df4d9a8	0.11955577
212	0x3dcf301b	0.10116597
213	0xbd7a8e89	-0.06117109
214	0xbe390605	-0.18068703
215	0x3e166a98	0.146891
216	0x3d856e7d	0.065152146
217	0xbd748af6	-0.059702836
218	0x3d6f550c	0.058430716
219	0x3d909443	0.07059529
220	0xbcaf822d	-0.021424377
221	0xbe2376ba	-0.1596326
222	0xbd15777a	-0.036490895
223	0x3d7f4a92	0.062326975
224	0xbd8c7514	-0.068582684
225	0x3df0d7a9	0.11759884
226	0x3d349a6a	0.044092573
227	0xbd81642f	-0.06317937
228	0xbde42881	-0.11140538
229	0x3e372d33	0.17888336
230	0xbd701cc4	-0.058621183
231	0xbda17675	-0.07883922
232	0xbcd1cb63	-0.025609678
233	0xbdfc40ac	-0.12317023
234	0x3d03b7ae	0.032157592
235	0xbc4a752a	-0.012357036
236	0x3b1a6d0a	0.0023563528
237	0x3e12298f	0.14273666
238	0x3d3201bf	0.043458696
239	0x3cd4d52e	0.025980558
240	0x3c65ae7e	0.014018653
241	0x3d103cfc	0.03521441
242	0x3e39e9b6	0.1815556
243	0x3c242067	0.010017491
244	0xbc6a6823	-0.014307055
245	0x3ce67548	0.028132096
246	0xbe22a7fb	-0.15884392
247	0x375cdae0	1.3163983e-05
248	0x3def7a74	0.11693278
249	0xbd5dd5f6	-0.054159127
250	0xbdf70b57	-0.1206271
251	0x3e23ef4f	0.16009258
252	0xbde88891	-0.11354173
253	0xbe222745	-0.15835293
254	0xbd04c945	-0.032418508
255	0x3a2f7e9b	0.0006694586
